assets/models/model_clothes.tflite (tflite, 973952 bytes, 8 tensors)

sequential/conv2d/BiasAdd/ReadVariableOp f4 [32]
0.04946554 0.019365214 0.07347781 -0.006322385 -0.020479534 -0.103317104 0.13424248 -0.18054366
0.0040816884 0.0025905562 0.0070918887 0.039940353 -0.16560201 0.17940229 0.11821073 -0.55422467
0.0075678383 -0.010324204 -0.48532674 -0.37323987 -0.0003880863 0.015374507 -0.3833107 0.123411044
0.008346591 0.032751203 -0.20855704 0.5552885 0.01902825 -0.33091265 0.091219716 0.06854389
00000000: 619c 4a3d cca3 9e3c 897b 963d 022c cfbb
00000010: b2c4 a7bc eb97 d3bd dc76 093e 70e0 38be
00000020: afbf 853b 52c6 293b 1363 e83b 7f98 233d
00000030: 9393 29be 3cb5 373e 7818 f23d abe1 0dbf
00000040: a1fb f73b da26 29bc bf7c f8be 4c19 bfbe
00000050: 1078 cbb9 5be5 7b3c 4d41 c4be eebe fc3d
00000060: 24c0 083c 2026 063d fa8f 55be 6327 0e3f
00000070: 22e1 9b3c 626d a9be 67d1 ba3d bd60 8c3d

sequential/conv2d_1/BiasAdd/ReadVariableOp f4 [64]
-0.008990868 -0.047902107 -0.03992024 -0.055100914 0.022167087 -0.11587816 0.17720416 0.12336273
-0.047411077 -0.009100462 -0.03739889 0.032595426 0.023594959 -0.023638293 -0.0785649 -0.022589285
0.074386664 -0.056701418 0.07259635 -0.03942887 -0.030650789 0.07102627 -0.16153938 -0.037503436
-0.051374517 0.077426665 0.019780435 -0.028768266 -0.037664954 -0.10737432 0.14738692 -0.029668353
0.02182328 0.06716626 -0.013032573 0.2722661 -0.043319345 -0.0011855202 0.04979879 -0.030560436
-0.026652424 -0.008189421 -0.014996907 0.08806611 0.034170445 -0.05461161 0.13979916 0.08007624
-0.040138103 0.034456998 -0.022003762 0.012009475 0.047530334 -0.15249285 -0.12749599 0.017336704
0.041601863 -0.029393615 0.091567814 0.12745719 -0.015395006 0.14784306 0.06115938 -0.01293559
00000000: 6f4e 13bc 0035 44bd 6883 23bd 7fb1 61bd
00000010: c097 b53c 8751 edbd 0275 353e 99a5 fc3d
00000020: 1e32 42bd 1b1a 15bc 942f 19bd c882 053d
00000030: 374a c13c 18a5 c1bc a2e6 a0bd 2a0d b9bc
00000040: 0958 983d bf3f 68bd 65ad 943d 2b80 21bd
00000050: 5d17 fbbc 3976 913d 946a 25be 349d 19bd
00000060: 166e 52bd df91 9e3d 940a a23c 6dab ebbc
00000070: 9146 1abd 11e7 dbbd 99ec 163e 0c0b f3bc
00000080: bcc6 b23c 778e 893d 9386 55bc 7666 8b3e
00000090: a06f 31bd 7563 9bba d1f9 4b3d e159 fabc
000000a0: 2f56 dabc ec2c 06bc 96b5 75bc 015c b43d
000000b0: 4ff6 0b3d 6cb0 5fbd 8327 0f3e 03ff a33d
000000c0: da67 24bd c822 0d3d 3c41 b4bc 64c3 443c
000000d0: 2baf 423d 1627 1cbe 4f8e 02be b405 8e3c
000000e0: b766 2a3d e1ca f0bc e887 bb3d 2384 023e
000000f0: 563b 7cbc 2c64 173e 4282 7a3d ccef 53bc

sequential/conv2d/Conv2D f4 [32, 3, 3, 3]
0.021197995 -0.006005582 0.17974588 0.23677538 0.2029515 0.038677227 -0.18686694 -0.19660352
-0.21586967 0.17511395 0.25478914 0.03346407 0.088265486 0.16128612 -0.07507711 -0.39009088
-0.37825474 -0.3181938 0.020905636 0.10423687 0.07820885 0.070406914 -0.055933177 -0.0036391579
-0.0485298 0.038365163 0.13520768 0.09952539 0.23563752 0.048759624 -0.08220828 0.27848274
0.1894818 -0.09509339 0.08233329 0.06757758 -0.0039136317 -0.060279444 -0.015939789 -0.25758877
-0.16693835 -0.117231876 -0.1452914 -0.03562445 -0.040121112 0.11756562 0.17460814 0.23716299
-0.11464743 0.09448336 0.15637168 -0.2738302 -0.19557472 -0.1481695 -0.09918953 -0.2543992
-0.17998563 0.08035991 -0.17720553 -0.1379618 0.15879221 -0.073300384 -0.051017035 0.104693994
0.03901218 0.07005126 -0.048487287 -0.113561265 0.117069244 -0.15753923 -0.39453784 -0.30298653
0.033580597 0.06857122 0.23214546 0.06587452 0.12824085 0.07007134 0.33424073 0.14607398
0.32654423 0.11310978 0.12388744 -0.01972275 -0.14605512 0.07812501 -0.015121369 0.079444155
-0.10199971 -0.063928075 -5.493438e-06 0.10537503 -0.23280232 -0.029967984 -0.14047778 0.022165608
0.1260291 0.012198696 0.2798666 -0.31333548 -0.35228112 -0.48981076 0.07143495 0.18456046
0.1202915 0.09205609 0.31712177 0.3337389 0.17076969 0.18988039 0.120670184 0.24401605
0.022536142 0.2051725 -0.018167617 0.14429289 -0.022638356 -0.06963118 -0.04213726 -0.11233796
0.20165716 0.22651196 0.16532995 0.25734493 0.06823025 0.15974481 -0.017611366 -0.10188832
0.018846644 -0.32113758 -0.38535956 -0.2404455 -0.08438368 -0.37552303 -0.27758586 0.06815716
0.065933794 0.1274245 0.210649 0.28231606 0.26065114 0.26860827 0.21882662 -0.0064714663
-0.18537633 0.18030791 0.1645456 -0.14567417 0.1700563 0.102665536 0.13567238 0.020641398
0.074921966 -0.35885015 -0.19684583 -0.100576945 -0.24630311 -0.27462453 -0.2512813 0.114574224
-0.13325952 -0.21831961 0.029772598 -0.12947902 0.0394703 -0.018046346 -0.2729519 -0.06844603
-0.21463333 -0.16711695 -0.12762944 -0.27380574 -0.18501957 -0.14379065 -0.19945136 0.022942623
-0.060788997 -0.18608983 0.027961807 0.021926502 -0.06563257 0.28076887 0.15205002 -0.082665175
0.17035511 0.16243197 -0.1329333 0.18867268 0.22555757 0.22237651 0.22240317 0.19149381
0.18055016 0.18995428 0.22370636 -0.2671761 -0.097310625 -0.08284355 0.119381756 0.09755645
0.049246814 -0.080583684 -0.12683634 0.075450435 -0.020092135 0.039157987 -0.15438327 -0.25653657
-0.15516587 0.03626626 -0.08294718 -0.21866937 0.13115744 0.09781653 -0.13302666 0.022929886
0.12586813 -0.011160823 -0.020053327 -0.09305445 -0.08753465 0.18782164 0.09537556 -0.053666085
0.14286071 -0.07443995 0.07276529 0.19111693 0.27429444 0.034495413 0.21680064 0.28550386
0.1755638 0.19810234 -0.013446847 0.039725967 -0.13515925 -0.08176845 -0.29652306 -0.3339354
-0.21752468 -0.36072934 -0.22232579 0.20198157 0.21716525 0.18555723 0.21613777 0.1120308
0.279388 0.24043491 -0.006840234 0.07236004 0.07229681 -0.058596443 -0.035082143 -0.11354082
00000000: 6ba7 ad3c 79ca c4bb 4e0f 383e 3f75 723e
00000010: 85d2 4f3e 036c 1e3d 0c5a 3fbe 6f52 49be
00000020: f00c 5dbe 1251 333e b973 823e 9f11 093d
00000030: 89c4 b43d 3028 253e 07c2 99bd feb9 c7be
00000040: 9baa c1be 4cea a2be 4c42 ab3c 247a d53d
00000050: f62b a03d 8031 903d 301a 65bd f07e 6ebb
00000060: 2fc7 46bd ca24 1d3d e273 0a3e f8d3 cb3d
00000070: f64a 713e 2cb8 473d d15c a8bd 4a95 8e3e
00000080: 8407 423e 53c0 c2bd 5b9e a83d 1d66 8a3d
00000090: ec3d 80bb 94e7 76bd 2994 82bc ade2 83be
000000a0: e3f1 2abe 4417 f0bd 45c7 14be f1ea 11bd
000000b0: 0956 24bd 3ec6 f03d 7acc 323e dbda 723e
000000c0: 46cc eabd 7e80 c13d e61f 203e 7933 8cbe
000000d0: bd44 48be bfb9 17be e123 cbbd 9d40 82be
000000e0: 274e 38be bd93 a43d 5e75 35be dc45 0dbe
000000f0: 6d9a 223e 831e 96bd 3df7 50bd ce69 d63d
00000100: 3ccb 1f3d 0977 8f3d 9b9a 46bd cf92 e8bd
00000110: 00c2 ef3d f751 21be dd00 cabe 0d21 9bbe
00000120: cf8b 093d 116f 8c3d 8ab7 6d3e 38e9 863d
00000130: 9251 033e 9081 8f3d 9a21 ab3e 6b94 153e
00000140: ce30 a73e 1aa6 e73d b3b8 fd3d 9b91 a1bc
00000150: 798f 15be 0100 a03d 9ebf 77bc 9eb3 a23d
00000160: 39e5 d0bd b9ec 82bd 4654 b8b6 ddce d73d
00000170: bb63 6ebe 6b7f f5bc 68d9 0fbe a694 b53c
00000180: c60d 013e 0add 473c ad4a 8f3e 826d a0be
00000190: 315e b4be 7ac8 fabe 7d4c 923d 6bfd 3c3e
000001a0: 645b f63d e787 bc3d c95d a23e d3df aa3e
000001b0: 40de 2e3e 0170 423e ee21 f73d 58df 793e
000001c0: b79d b83c bd18 523e 41d4 94bc 84c1 133e
000001d0: 1374 b9bc cb9a 8ebd 1f98 2cbd 7211 e6bd
000001e0: 377f 4e3e c0f2 673e 414c 293e b7c2 833e
000001f0: 4dbc 8b3d 2594 233e b645 90bc d3aa d0bd
00000200: 4764 9a3c 256c a4be d94d c5be 5837 76be
00000210: 5ad1 acbd 8e44 c0be bc1f 8ebe fb95 8b3d
00000220: 4c08 873d 917b 023e 5fb4 573e bb8b 903e
00000230: 1174 853e 0687 893e 1614 603e 980e d4bb
00000240: 4bd3 3dbe a3a2 383e a47e 283e 9c2b 15be
00000250: 3d23 2e3e 4f42 d23d b3ed 0a3e 2618 a93c
00000260: b070 993d 35bb b7be f491 49be 49fb cdbd
00000270: e236 7cbe 969b 8cbe f1a7 80be e4a5 ea3d
00000280: 2f75 08be 2d8f 5fbe aae5 f33c 2696 04be
00000290: 9cab 213d eed5 93bc 5ac0 8bbe 6f2d 8cbd
000002a0: d7c8 5bbe b520 2bbe 4bb1 02be 4430 8cbe
000002b0: c575 3dbe db3d 13be fa3c 4cbe 2bf2 bb3c
000002c0: e2fd 78bd 558e 3ebe 2910 e53c 359f b33c
000002d0: 5e6a 86bd f0c0 8f3e 00b3 1b3e 5c4c a9bd
000002e0: 9271 2e3e 9154 263e ab1f 08be 6933 413e
000002f0: 90f8 663e abb6 633e a8bd 633e f416 443e
00000300: 24e2 383e 6083 423e 4813 653e 4ecb 88be
00000310: cb4a c7bd e1a9 a9bd 6c7e f43d adcb c73d
00000320: 07b7 493d 0f09 a5bd 63e1 01be c285 9a3d
00000330: 4398 a4bc 2064 203d a616 1ebe c358 83be
00000340: cde3 1ebe ee8b 143d 36e0 a9bd ddea 5fbe
00000350: 234e 063e 0854 c83d 2438 08be 75d7 bb3c
00000360: 93e3 003e e2db 36bc e046 a4bc 5593 bebd
00000370: 5e45 b3bd 5154 403e 4354 c33d f8d0 5bbd
00000380: 144a 123e f973 98bd f805 953d 28b4 433e
00000390: 5270 8c3e 104b 0d3d fd00 5e3e 902d 923e
000003a0: ffc6 333e 57db 4a3e 2a50 5cbc b2b7 223d
000003b0: 3067 0abe 3876 a7bd dfd1 97be 95f9 aabe
000003c0: cabe 5ebe 84b1 b8be 5fa9 63be 42d4 4e3e
000003d0: 9160 5e3e b702 3e3e 3853 5d3e 6770 e53d
000003e0: f20b 8f3e 9234 763e 0b24 e0bb 8031 943d
000003f0: 5a10 943d d302 70bd 4bb2 0fbd 1788 e8bd

sequential/conv2d_1/Conv2D f4 [64, 3, 3, 32]
-0.07424744 0.010962732 -0.043614518 -0.10498131 0.024553396 -0.009317927 -0.07878153 0.005637336
0.002873456 0.00920049 -0.03183369 -0.070977 0.014907913 -0.04829391 -0.079306595 -0.06363934
0.03193183 0.07872815 -0.08226326 0.0048387055 0.007717119 0.07217624 -0.087682635 0.004159077
0.06428358 -0.077240475 -0.083436266 -0.020855997 0.036763843 0.010723579 -0.023508297 0.053809572
-0.00472804 0.0068982975 -0.09442742 -0.063889906 0.036612056 -0.017756606 -0.06707033 0.021706752
0.039285675 -0.08295903 -0.0014606405 -0.013883682 -0.03341347 0.00049633736 -0.012474502 0.06466134
-0.039328262 0.015630813 0.06975941 -0.06595915 0.079708524 0.034769177 -0.017894981 -0.017284596
0.019455891 -0.0026580978 0.003147718 -0.053371537 -0.0312917 -0.08727922 -0.06254445 0.009266278
0.042565525 0.048444986 0.032469396 -0.046433322 -0.05212575 -0.0096415235 0.011530004 0.014273705
0.036967978 0.022421805 -0.0909688 -0.04738902 -0.01998569 -0.026618425 -0.04767776 0.0059897285
-0.040681012 0.024708305 -0.070969544 -0.03588611 0.037109833 -0.050616205 -0.0630391 -0.095757365
0.077647515 0.0063302633 -0.080516346 -0.010782752 -0.0844172 -0.04864102 -0.073451065 -0.09995706
-0.0903105 -0.04427923 -0.015910279 -0.0743633 -0.02691017 -0.066124804 -0.08268905 -0.071603306
0.024589105 -0.07471757 0.061142284 0.022492629 0.014388399 0.040061045 -0.021709047 -0.056036364
0.013440139 0.017579658 0.061268896 -0.0744216 -0.021922575 0.023316443 -0.05606348 -0.06299722
-0.038032763 -0.0015216513 -0.0089028645 -0.06802856 -0.037011698 -0.016618926 -0.02864825 -0.011572592
0.019316806 -0.028332062 -0.045303684 -0.07015771 -0.037023388 0.03376564 -0.07172376 -0.07789294
-0.089553684 0.060752388 -0.019181708 0.072192445 0.059051804 -0.08395091 -0.080530316 -0.07159984
-0.07128722 -0.00355953 0.05313109 -0.055315014 -0.052626245 -0.045765184 0.054166976 -0.10603351
-0.056654107 0.041428387 -0.027608344 -0.027937429 0.002782284 0.03253585 -0.079346254 -0.04792399
-0.011200285 -0.013710792 -0.039106555 -0.083436474 0.05426845 0.011454509 -0.013678074 -0.08361885
0.009388524 0.06445398 -0.009620233 -0.009497519 0.0055839866 0.011967686 -0.063840024 -0.0638483
-0.01802105 0.002737635 -0.029449668 -0.0794222 -0.07865569 0.011551879 -0.08021622 -0.039948262
-0.0142424125 -0.03707499 -0.016367141 0.032628205 0.072516665 0.03899334 0.020961054 0.058134727
-0.004226609 0.069378994 -0.091373056 0.045729127 -0.03665356 0.009896878 0.04148666 -0.028084412
-0.009364053 0.06218325 -0.080669016 -0.054016594 0.06518043 0.066195555 0.011855307 0.039213456
0.05557651 0.00023942151 0.043769002 0.011222404 -0.0026198404 -0.008893527 -0.026856132 -0.018322978
-0.061392833 0.06571498 -0.08110255 -0.015432474 0.040784236 -0.058268547 -0.1126211 -0.062461868
0.04412345 -0.01074608 -0.056147758 -0.0064959363 0.066850595 0.07549492 -0.009902813 -0.07580694
-0.07473552 0.015804345 0.026607936 -0.029994966 -0.060577106 -0.033512104 0.0045912093 -0.0105041135
-0.07299379 0.0683142 -0.062333208 -0.049377028 0.057858698 -0.03955722 0.03735356 0.04730153
0.040806882 0.021028321 0.07565212 0.043342628 0.06580126 -0.054832935 0.027556498 -0.043813307
00000000: 0b0f 98bd 089d 333c 23a5 32bd 7100 d7bd
00000010: 3424 c93c 38aa 18bc 3658 a1bd 67b9 b83b
00000020: 9850 3c3b a7bd 163c 0b64 02bd 645c 91bd
00000030: 5240 743c d6cf 45bd 7f6b a2bd 5855 82bd
00000040: f3ca 023d 393c a13d a479 a8bd 018e 9e3b
00000050: e3df fc3b 23d1 933d f492 b3bd de48 883b
00000060: 1ca7 833d 4130 9ebd a2e0 aabd 32da aabc
00000070: af95 163d f3b1 2f3c 7994 c0bc 6d67 5c3d
00000080: aded 9abb 1d0b e23b 2a63 c1bd b6d8 82bd
00000090: 86f6 153d 4d76 91bc 2b5c 89bd 5cd2 b13c
000000a0: 04ea 203d 6de6 a9bd f672 bfba 6278 63bc
000000b0: 90dc 08bd a31c 023a db61 4cbc 2a6d 843d
000000c0: ac16 21bd 310c 803c 06de 8e3d 9715 87bd
000000d0: 393e a33d 206a 0e3d 7f98 92bc 6d98 8dbc
000000e0: f661 9f3c 7b33 2ebb f249 4e3b 1d9c 5abd
000000f0: ba2b 00bd 73bf b2bd 4e17 80bd 96d1 173c
00000100: 3059 2e3d 406e 463d a1fe 043d de30 3ebd
00000110: cf81 55bd 7bf7 1dbc 58e8 3c3c 42dc 693c
00000120: bc6b 173d efad b73c da4d babd fd1a 42bd
00000130: 08b9 a3bc e20e dabc c149 43bd 7c45 c43b
00000140: 22a1 26bd 1269 ca3c 7b58 91bd 50fd 12bd
00000150: 7b00 183d f052 4fbd a51a 81bd 701c c4bd
00000160: a905 9f3d 196e cf3b c1e5 a4bd 24aa 30bc
00000170: ede2 acbd ce3b 47bd 836d 96bd 49b6 ccbd
00000180: b6f4 b8bd 235e 35bd 4656 82bc c94b 98bd
00000190: b872 dcbc 716c 87bd e058 a9bd c1a4 92bd
000001a0: 176f c93c 8605 99bd 5570 7a3d 7642 b83c
000001b0: 52bd 6b3c 0d17 243d 2cd7 b1bc 6386 65bd
000001c0: 0734 5c3c 3703 903c 18f5 7a3d 5a6a 98bd
000001d0: f996 b3bc 2002 bf3c d2a2 65bd b004 81bd
000001e0: 3ec8 1bbd 2572 c7ba 52dd 11bc 8f52 8bbd
000001f0: 9499 17bd 6a24 88bc bcaf eabc f89a 3dbc
00000200: 473e 9e3c a418 e8bc 5b90 39bd d8ae 8fbd
00000210: d6a5 17bd d74d 0a3d e8e3 92bd 5586 9fbd
00000220: ec67 b7bd 7fd7 783d f522 9dbc a2d9 933d
00000230: 4ee0 713d 74ee abbd 14ed a4bd f0a2 92bd
00000240: 09ff 91bd 0147 69bb fc9f 593d ff91 62bd
00000250: 9e8e 57bd 4674 3bbd 31de 5d3d 1928 d9bd
00000260: 230e 68bd d0b0 293d e52a e2bc 09dd e4bc
00000270: fb56 363b 5044 053d 4a80 a2bd f24b 44bd
00000280: 6681 37bc 3ba3 60bc 322e 20bd bee0 aabd
00000290: 9848 5e3d b1ab 3b3c 001a 60bc 5c40 abbd
000002a0: 53d2 193c 7300 843d 2f9e 1dbc 7b9b 1bbc
000002b0: e0f9 b63b 1d14 443c 8fbe 82bd e6c2 82bd
000002c0: e2a0 93bc e569 333b 6e40 f1bc 1ba8 a2bd
000002d0: 3c16 a1bd 1844 3d3c 6748 a4bd caa0 23bd
000002e0: 0259 69bc f2db 17bd 6214 86bc 27a5 053d
000002f0: 9e83 943d 7bb7 1f3d 84b6 ab3c ae1e 6e3d
00000300: 5e7f 8abb 9316 8e3d cc21 bbbd 774e 3b3d
00000310: 0b22 16bd 8426 223c eaed 293d 4811 e6bc
00000320: af6b 19bc ddb3 7e3d cc35 a5bd 8140 5dbd
00000330: 517d 853d 8991 873d c33c 423c 4a9e 203d
00000340: 32a4 633d 390d 7b39 2047 333d 2dde 373c
00000350: a1b1 2bbb 28b6 11bc 6401 dcbc 121a 96bc
00000360: 0d77 7bbd 9395 863d 1819 a6bd 7dd8 7cbc
00000370: 5f0d 273d 00ab 6ebd e4a5 e6bd 04d8 7fbd
00000380: caba 343d 5410 30bc 31fb 65bd dddb d4bb
00000390: f7e8 883d 159d 9a3d 683f 22bc ab40 9bbd
000003a0: f00e 99bd 1d78 813c e3f8 d93c 01b8 f5bc
000003b0: b31f 78bd fd43 09bd db71 963b 7219 2cbc
000003c0: c57d 95bd 51e8 8b3d 1b51 7fbd 913f 4abd
000003d0: 3efd 6c3d c006 22bd 0c00 193d 40bf 413d
000003e0: 1e25 273d 9643 ac3c 80ef 9a3d 0a88 313d
000003f0: d0c2 863d 8098 60bd 2abe e13c 9575 33bd

sequential/dense/BiasAdd/ReadVariableOp f4 [128]
-0.010083277 -0.033553854 -0.005756158 -0.016562525 -0.011077345 -0.03163626 -0.009254756 -0.042608228
0.17302239 -0.039030388 -0.009707211 -0.007862141 0.17436168 -0.070401564 0.046577513 0.0246049
-0.009059929 -0.038342245 -0.007511009 -0.010751684 -0.01323585 0.05115925 -0.014313481 0.1394273
-0.012726618 -0.007959645 -0.03645111 0.18838523 -0.020887952 -0.0075104637 -0.043851364 -0.007859852
0.17817645 -0.075783364 -0.0339899 -0.013832459 0.10556017 0.028919647 0.036209367 -0.010893081
-0.009326403 -0.019487187 -0.036044393 -0.026262285 0.051977627 -0.0126231685 0.17044763 -0.025845768
-0.049360182 -0.036924742 0.08853223 -0.013600367 0.118550494 -0.009083561 0.09628424 -0.021656755
-0.016179297 -0.029913025 -0.037720107 0.043931194 -0.03163049 0.13161513 -0.040723633 -0.023582391
-0.008287648 -0.008106939 -0.036552783 -0.01312244 -0.010111601 -0.035744157 0.050416388 0.107381985
-0.0094329985 -0.041366793 -0.0062476234 -0.017778918 -0.025348416 0.13931246 -0.012526023 -0.07309318
-0.1017807 0.19948886 -0.01663929 -0.005254898 -0.006232456 -0.018492647 -0.045445304 -0.02290407
-0.01814329 -0.024094727 -0.008410814 0.2171983 -0.009004586 -0.0211379 -0.045379914 0.03421746
-0.027649453 -0.008773969 -0.017657844 -0.013599113 -0.0064142556 0.0036894176 -0.027896982 -0.008180527
-0.02239786 -0.010577095 0.04898599 -0.006448819 -0.006297759 -0.009991238 -0.02442527 -0.0124954
-0.012133195 -0.04176646 -0.008770428 0.081466205 0.056449838 0.10601281 0.04063365 0.050432075
-0.035169266 0.17096958 -0.042933233 -0.022022644 0.04440958 0.047318596 0.154426 0.06842974
00000000: 5434 25bc c46f 09bd 279e bcbb 22ae 87bc
00000010: c17d 35bc 0695 01bd 43a1 17bc f785 2ebd
00000020: c82c 313e 54de 1fbd fe0a 1fbc 36d0 00bc
00000030: de8b 323e b22e 90bd 10c8 3e3d 3790 c93c
00000040: 1970 14bc c20c 1dbd e91e f6bb d527 30bc
00000050: 2edb 58bc 5d8c 513d 1783 6abc 08c6 0e3e
00000060: 4e83 50bc 2c69 02bc c24d 15bd 0fe8 403e
00000070: 361d abbc 561a f6bb 7d9d 33bd 9cc6 00bc
00000080: e373 363e 4f34 9bbd fe38 0bbd 8aa1 62bc
00000090: ee2f d83d e5e8 ec3c 4650 143d e578 32bc
000000a0: c5cd 18bc 98a3 9fbc 49a3 13bd 0124 d7bc
000000b0: 7ee6 543d 68d1 4ebc d389 2e3e 81ba d3bc
000000c0: e72d 4abd 663e 17bd 6350 b53d 13d4 5ebc
000000d0: 9aca f23d 37d3 14bc ac30 c53d 8269 b1bc
000000e0: 728a 84bc 290c f5bc 6680 1abd 32f1 333d
000000f0: f98e 01bd 1ec6 063e d3cd 26bd dc2f c1bc
00000100: eac8 07bc f7d2 04bc 5fb8 15bd 81ff 56bc
00000110: 21ab 25bc 7768 12bd 6a81 4e3d 16eb db3d
00000120: dd8c 1abc 3a70 29bd ddb8 ccbb 18a5 91bc
00000130: 7ba7 cfbc eda7 0e3e f339 4dbc e1b1 95bd
00000140: 6672 d0bd cf46 4c3e 1f4f 88bc 4831 acbb
00000150: a139 ccbb e47d 97bc db24 3abd 51a1 bbbc
00000160: 3da1 94bc 4e62 c5bc 83cd 09bc 3b69 5e3e
00000170: f987 13bc 6429 adbc 4ae0 39bd 9b27 0c3d
00000180: 1b81 e2bc b1c0 0fbc 2fa7 90bc d0ce 5ebc
00000190: ad2e d2bb 28ca 713b 3688 e4bc 9e07 06bc
000001a0: b87b b7bc 8d4b 2dbc 89a5 483d 9d50 d3bb
000001b0: 6e5d cebb 4ab2 23bc 8117 c8bc 82b9 4cbc
000001c0: 4fca 46bc 4f13 2bbd d7b1 0fbc c1d7 a63d
000001d0: f237 673d 3e1d d93d 786f 263d dd91 4e3d
000001e0: a60d 10bd a612 2f3e c2da 2fbd d568 b4bc
000001f0: d2e6 353d 25d1 413d d921 1e3e e424 8c3d

sequential/dense_1/BiasAdd/ReadVariableOp f4 [142]
-0.18450093 0.069753155 -0.005188937 -0.048647437 0.031884883 0.06445608 0.071933046 -0.09376288
-0.017614529 0.12800972 0.041149337 0.09433872 -0.0064578084 0.08050918 -0.0113158 0.13406149
-0.057838894 0.035397455 -0.113163404 0.045420878 -0.055847794 -0.024340982 0.019778488 -0.07788554
0.023731945 -0.052311294 0.05925013 0.039354146 -0.03979904 -0.076027066 -0.06829726 0.11312851
0.06720971 0.023554146 -0.04439984 0.055460665 0.0457133 0.041110776 -0.052043553 -0.0032063378
0.16219859 -0.119523495 0.043628052 -0.012273528 -0.25290653 0.10120416 0.100220464 0.028494263
0.0046372325 0.00018979334 -0.018435575 0.04236761 0.0071920864 -0.17436841 0.10382543 -0.117562294
-0.04036152 -0.003448213 0.12240826 0.07248084 -0.024464699 0.1260754 0.018976197 0.08539412
-0.039775446 -0.07715735 -0.06734292 0.037340168 -0.018272353 0.021345591 0.06807737 0.057176933
-0.0554177 0.041908834 -0.065526426 0.12826654 -0.012916041 0.07268684 0.005068818 0.04252818
-0.082389146 -0.06864458 0.0022564263 0.035864398 -0.02595899 -0.06298859 0.083890684 -0.057325818
0.054409325 -0.0011002754 0.25680655 0.04645476 0.026934002 0.0790946 0.037865937 0.092293225
-0.05125693 0.05559194 -0.007973533 0.056849923 0.027012324 0.0029763707 -0.0752131 0.016317653
0.011569536 -0.047584496 0.07989108 -0.07965384 -0.01045309 -0.07377097 0.03232277 -0.07584986
0.024787806 -0.062132552 -0.02418973 -0.048306774 0.0003399275 -0.08747018 -0.06368784 -0.029672965
-0.009168964 0.04041392 0.09349838 0.043821964 -0.065598145 0.0033650382 0.091370665 0.006984717
-0.053320102 0.028415998 -0.03706554 0.10749505 -0.07267418 -0.1282064 -0.06527361 0.0042046923
-0.04129677 -0.012680652 -0.047459397 0.023616085 0.055097092 -0.0070314356
00000000: d0ed 3cbe beda 8e3d f507 aabb 8942 47bd
00000010: b999 023d 8d01 843d a251 933d c106 c0bd
00000020: 584c 90bc fb14 033e 358c 283d a934 c13d
00000030: 069c d3bb ffe1 a43d e865 39bc 6a47 093e
00000040: 7ae8 6cbd ecfc 103d 37c2 e7bd 3e0b 3a3d
00000050: a8c0 64bd bd66 c7bc 7f06 a23c 7482 9fbd
00000060: 7f69 c23c 5e44 56bd 44b0 723d d031 213d
00000070: 5104 23bd 14b4 9bbd 6fdf 8bbd ecaf e73d
00000080: 3fa5 893d a0f4 c03c 9bdc 35bd b92a 633d
00000090: df3d 3b3d c663 283d 9f2b 55bd 6c21 52bb
000000a0: 6317 263e bcc8 f4bd 54b3 323d e816 49bc
000000b0: f77c 81be 2044 cf3d 6340 cd3d cd6c e93c
000000c0: edf3 973b 4303 4739 3406 97bc a989 2d3d
000000d0: 98ab eb3b a28d 32be 6da2 d43d 80c4 f0bd
000000e0: 1f52 25bd 6afb 61bb 2fb1 fa3d d670 943d
000000f0: 316a c8bc e919 013e f873 9b3c 1de3 ae3d
00000100: 94eb 22bd ac04 9ebd 16eb 89bd 01f2 183d
00000110: e7af 95bc f3dc ae3c 266c 8b3d 5c32 6a3d
00000120: acfd 62bd 99a8 2b3d b832 86bd 4e58 033e
00000130: cd9d 53bc d7dc 943d 5418 a63b 0732 2e3d
00000140: a4bb a8bd 8895 8cbd 8de0 133b 8ce6 123d
00000150: f3a7 d4bc 2900 81bd e1ce ab3d 7ace 6abd
00000160: 50dc 5e3d 1e37 90ba 267c 833e 5947 3e3d
00000170: b2a4 dc3c 5afc a13d 5019 1b3d 3b04 bd3d
00000180: c9f2 51bd 60b4 633d 6ca3 02bc 77db 683d
00000190: f348 dd3c 370f 433b 5309 9abd 99ac 853c
000001a0: 278e 3d3c f6e7 42bd ef9d a33d 8d21 a3bd
000001b0: 7043 2bbc 3c15 97bd e264 043d 2c57 9bbd
000001c0: cc0f cb3c b47e 7ebd 8a29 c6bc 53dd 45bd
000001d0: 4c38 b239 9123 b3bd c56e 82bd b814 f3bc
000001e0: 6c39 16bc 1189 253d 147c bf3d a97e 333d
000001f0: 5258 86bd f987 5c3b 8b20 bb3d 0ee0 e43b
00000200: 2e66 5abd abc8 e83c 09d2 17bd 5d26 dc3d
00000210: 33d6 94bd 8a48 03be 2cae 85bd 84c7 893b
00000220: cd26 29bd 82c2 4fbc c964 42bd 8576 c13c
00000230: 7dad 613d f567 e6bb

sequential/dense/MatMul f4 [128, 1600]
0.036791716 -0.06580165 0.018492734 0.02309313 0.03927818 0.0061893202 -0.068779536 -0.0053486815
-0.016796993 0.01868565 -0.05330843 -0.06264883 0.034208532 -0.053507604 0.03006175 -0.07208078
0.009128773 -0.040270012 0.006470486 0.03614516 -0.046189457 0.013860421 -0.04571036 0.021003742
0.014664952 -0.03858305 -0.0043947147 0.017513758 -0.055554766 -0.021007564 0.036285874 -0.0668131
-0.04332916 -0.06786172 0.022192378 -0.011313632 -0.004887341 0.046524666 -0.00893741 0.044967566
0.0025170334 -0.008222944 -0.008419115 0.044903476 -0.04117784 -0.0062357932 -0.010573177 -0.040303316
0.025557693 -0.028712353 -0.067187056 -0.021700298 0.011492798 -0.050516326 0.021302383 -0.044139236
-0.04649924 0.03372785 -0.036192644 0.015029252 0.00910997 -0.029619398 -0.038099475 -0.06354247
-0.0043805875 0.023861311 -0.04565825 -0.007740347 -0.007123903 0.042718012 0.012796589 0.036510777
-0.029390726 -0.004609488 0.031733017 -0.06576066 -0.008579802 -0.03018896 0.0010968691 0.007249508
-0.029397288 -0.04794565 0.00037253255 -0.039914846 0.00554312 -0.06721352 0.046010584 -0.032886326
-0.038284004 0.01056615 0.017248861 -0.0138092125 -0.017229835 0.02289186 0.036148638 -0.026737744
0.015811326 -0.06431335 -0.06209306 0.011502279 -0.009595362 -0.003837555 0.010011031 0.05252697
-0.04407421 -0.025758833 -0.05550789 0.03996731 0.0139721595 -0.025457492 0.041258506 -0.031983297
0.03083479 -0.0085017625 -0.024508163 -0.04748472 -0.05909021 -0.047163267 -0.013135977 -0.038866144
0.025188325 0.004048314 -0.020585397 -0.0052824155 0.02967697 -0.04119221 -0.05659993 -0.0644854
-0.050604023 0.006713633 -0.01975528 0.0265902 0.029435141 -0.025396807 -0.006890728 -0.052591972
-0.027060451 0.03477132 -0.05671878 -0.0862913 -0.049225558 -0.018631477 -0.0053926944 -0.028371684
-0.009135773 -0.043085918 -0.011433293 -0.04960862 0.024471875 0.0073594106 0.030772593 0.046158697
-0.005363756 0.039966032 0.03664907 0.04986857 -0.0567961 0.033596028 0.025505247 -0.025359103
-0.014452216 -0.03373676 0.01101817 -0.06191017 0.019687308 -0.0025695981 -0.0364892 0.051120978
0.014873935 0.027146947 -0.01707682 0.015667712 -0.045244712 -0.059202433 0.011194017 0.013460163
0.039771747 -0.028091036 0.018260479 0.014984764 0.027060501 -0.056758925 0.012639701 -0.019678956
-0.06605516 0.056205716 0.04211912 0.019969128 0.030579548 0.011699248 0.0030265425 -0.011639411
0.025281448 -0.026991148 0.009930742 0.0033932973 -0.0510774 0.041580185 -0.010235791 -0.041325647
0.00023023652 0.051293325 -0.014178578 -0.07696485 0.012220045 0.003971789 -0.021590002 -0.0066411053
0.025612073 -0.021025645 0.030167589 -0.0021922614 -0.026882822 0.026704121 -0.018822772 0.02405044
0.047680452 0.026738837 -0.046096697 -0.053382922 -0.046479844 -0.044482376 -0.036688466 0.019619431
0.0058454573 0.0023523173 0.014313894 0.052819297 -0.042455014 -0.020670936 -0.040051833 -0.0021544471
-0.043234486 -0.05245193 0.029554468 -0.03130698 -0.060714524 -0.07817546 -0.032588344 0.026761241
-0.040903814 -0.03107911 -0.045946587 -0.06726358 0.04170087 -0.02145362 -0.026900992 -0.02706634
-0.058766093 -0.041196734 0.005787446 0.034372892 -0.03693956 0.04070169 -0.013245993 -0.04670578
00000000: e9b2 163d 04c3 86bd 137e 973c ce2d bd3c
00000010: 28e2 203d c8cf ca3b 49dc 8cbd fe43 afbb
00000020: d999 89bc a612 993c f159 5abd 084e 80bd
00000030: 3f1e 0c3d ca2a 5bbd 0f44 f63c 179f 93bd
00000040: d990 153c 2bf2 24bd 5f06 d43b f30c 143d
00000050: 2831 3dbd d216 633c c93a 3bbd 0a10 ac3c
00000060: 4445 703c 4309 1ebd 8a01 90bb 0379 8f3c
00000070: 658d 63bd 0e18 acbc 7fa0 143d 4ed5 88bd
00000080: eb79 31bd 16fb 8abd cacc b53c d05c 39bc
00000090: fd25 a0bb a690 3e3d 376e 12bc e92f 383d
000000a0: d0f4 243b 87b9 06bc 54f0 09bc b5ec 373d
000000b0: 18aa 28bd a055 ccbb 1e3b 2dbc 1715 25bd
000000c0: 5e5e d13c 2b36 ebbc 5e99 89bd d3c4 b1bc
000000d0: 4a4c 3c3c 35ea 4ebd 5682 ae3c 58cb 34bd
000000e0: fd75 3ebd 3726 0a3d bd3e 14bd 403d 763c
000000f0: fc41 153c 61a4 f2bc 320e 1cbd 8e22 82bd
00000100: 088b 8fbb cc78 c33c 2504 3bbd bda2 fdbb
00000110: a16f e9bb 15f9 2e3d c9a8 513c 538c 153d
00000120: d2c4 f0bc 300b 97bb 7bfa 013d 86ad 86bd
00000130: 4c92 0cbc d64e f7bc d2c4 8f3a 488d ed3b
00000140: 95d2 f0bc a862 44bd 7950 c339 c07d 23bd
00000150: 10a3 b53b 3ea7 89bd 9875 3c3d d0b3 06bd
00000160: b0cf 1cbd a51d 2d3c 7c4d 8d3c 0940 62bc
00000170: 9525 8dbc b687 bb3c 9810 143d 1d09 dbbc
00000180: c186 813c b8b6 83bd 4b55 7ebd 0e74 3c3c
00000190: dd35 1dbc 7d7f 7bbb 4f05 243c 8526 573d
000001a0: 2987 34bd 3004 d3bc 3e5c 63bd c3b4 233d
000001b0: 7ceb 643c 3b8c d0bc aefe 283d eb00 03bd
000001c0: 3e99 fc3c fa4a 0bbc 58c5 c8bc 567f 42bd
000001d0: 9308 72bd 452e 41bd 4838 57bc 1b32 1fbd
000001e0: bf57 ce3c b8a7 843b b5a2 a8bc 1d18 adbb
000001f0: 1e1d f33c 2ab9 28bd 54d5 67bd ec10 84bd
00000200: 2a46 4fbd 09fe db3b d3d5 a1bc b1d3 d93c
00000210: f721 f13c f70c d0bc 9ecb e1bb ae6a 57bd
00000220: e1ad ddbc 5f6c 0e3d f451 68bd 7eb9 b0bd
00000230: bda0 49bd 0aa1 98bc 33b5 b0bb bc6b e8bc
00000240: 36ae 15bc dc7a 30bd b552 3bbc 6932 4bbd
00000250: 3e79 c83c 3627 f13b ce16 fc3c e710 3d3d
00000260: 72c2 afbb 6cb3 233d 561d 163d fc42 4c3d
00000270: 07a3 68bd fd9b 093d 61f0 d03c e5bd cfbc
00000280: fdc8 6cbc 8f2f 0abd 8e85 343c 8595 7dbd
00000290: 4747 a13c b466 28bb b375 15bd 3b64 513d
000002a0: ceb1 733c 4663 de3c b0e4 8bbc 9359 803c
000002b0: 8552 39bd 407e 72bd 1c67 373c 0488 5c3c
000002c0: b3e7 223d 2c1f e6bc 0097 953c a882 753c
000002d0: fcad dd3c 0c7c 68bd c016 4f3c c335 a1bc
000002e0: ed47 87bd f737 663d 1985 2c3d 4c96 a33c
000002f0: f681 fa3c 34ae 3f3c f558 463b 3ab3 3ebc
00000300: 0a1b cf3c 8a1c ddbc 8db4 223c 1562 5e3b
00000310: 8936 51bd fc4f 2a3d 05b4 27bc 1545 29bd
00000320: a56b 7139 f318 523d 444d 68bc bf9f 9dbd
00000330: 9536 483c c825 823b 84dd b0bc a19d d9bb
00000340: 69d0 d13c f93d acbc 0522 f73c 0bac 0fbb
00000350: 5d39 dcbc 9ac2 da3c 3732 9abc 6e05 c53c
00000360: 944c 433d 680b db3c e4cf 3cbd 0da8 5abd
00000370: a661 3ebd 2733 36bd a546 16bd eeb8 a03c
00000380: 408b bf3b 5629 1a3b d384 6a3c 0c59 583d
00000390: 4fe5 2dbd 1856 a9bc 640d 24bd a031 0dbb
000003a0: a516 31bd d6d7 56bd 361c f23c bf3b 00bd
000003b0: cbaf 78bd 751a a0bd 5b7b 05bd 643a db3c
000003c0: c28a 27bd 9e99 febc 7d32 3cbd 7dc1 89bd
000003d0: 88ce 2a3d 81bf afbc 785f dcbc 3bba ddbc
000003e0: b7b4 70bd e8bd 28bd 9ea4 bd3b 97ca 0c3d
000003f0: f04d 17bd d1b6 263d b905 59bc 8f4e 3fbd

sequential/dense_1/MatMul f4 [142, 128]
-0.11543099 0.043076705 0.09184374 -0.13395633 -0.07213134 0.009045942 -0.090084314 -0.029799432
0.060624458 0.12700227 0.09348839 0.10865107 -0.26033348 -0.15226167 0.05725719 -0.11284622
0.019012025 0.043635838 -0.10496164 -0.09382344 0.10491397 -0.27111465 0.08483179 0.31774396
0.11504909 -0.019345198 -0.09584337 -0.5947256 -0.3022084 -0.09906866 -0.14408258 -0.105225906
0.058541536 0.08154171 -0.38275295 0.004397354 -0.21135023 -0.6920501 -0.09271972 -0.06401677
-0.0962346 -0.017446522 0.14049128 -0.032053236 0.26289257 -0.13906229 -0.27556047 0.15942085
-0.12725192 -0.017256726 -0.37338006 -0.27748483 -0.24886067 -0.024356864 -0.18259731 -0.027183982
-0.11011435 -0.11352337 -0.03343162 -0.31251624 -0.018742645 -0.5871515 -0.12362211 -0.033969156
-0.0013290341 0.13109116 -0.0061381133 0.030838937 0.11442599 -0.11166445 -0.19074568 -0.084258385
-0.051212657 -0.016735278 0.10401003 -0.18304805 -0.15737534 -0.013054492 0.0030741459 -0.36655843
0.072010145 -0.44004035 0.04228516 -0.11038128 0.027851747 -0.13694984 0.029371591 -0.09281706
-0.013384323 0.030019827 0.09268467 -0.48836076 -0.026381249 0.051062413 -0.1397299 -0.22357972
-0.046915937 -0.025111627 -0.06388144 -0.01147967 0.111001626 -0.09291736 -0.35862234 0.010627037
-0.17882393 -0.019513909 0.19516625 -0.07293127 -0.114405744 0.05291157 -0.12967978 -0.021761226
-0.112610586 0.08873762 0.023687266 0.14464901 -0.22840722 2.284073e-05 -0.458786 -0.008151003
0.1314103 -0.2050863 -0.08235856 -0.017192528 0.20057805 0.011180851 0.29192793 -0.42006183
-0.13075037 0.022832405 0.032267295 -0.019816218 0.13120328 0.076754846 -0.056305468 -0.063051656
-0.54635364 0.117909834 -0.08795094 0.070763856 -0.0327391 0.0070978384 -0.42440575 0.14562868
-0.022908535 -0.0040600193 -0.05843452 0.076033935 -0.070867404 -0.040464636 -0.05863273 0.20185818
0.08539235 0.04418757 -0.1404332 -0.5091142 -0.11531376 -0.15487035 0.0033152741 -0.14382409
-0.7574499 0.016795876 0.12773697 0.06085027 -0.08249406 -0.16655833 0.060513373 0.022887988
0.118313566 -0.08239493 -0.13902496 0.10600914 -0.1213103 0.0881989 0.2238928 -0.19299491
-0.054192275 -0.004460285 0.044671055 -0.15345515 -0.021056836 0.10069411 -0.3071362 -0.031643637
-0.019957792 -0.06475483 -0.035768885 -0.5231655 0.06373283 -0.1049156 0.06584282 0.10725104
-0.14087734 -0.028288856 0.07433456 0.1283713 0.109644584 0.05407452 -1.0092651 0.0011974508
0.048306853 -0.06583857 -0.011673628 -0.15104641 -0.15604173 -0.68656987 0.138191 0.011081075
0.18541776 -0.15993989 0.11505651 -0.0343385 0.028356386 -0.061384104 -0.11081646 -0.037023984
0.050994836 0.017983783 0.1105734 0.015278345 0.042519607 -0.14481966 0.07954404 -0.047023173
-0.00039892443 0.0812908 -0.08982905 0.023225898 -0.14206602 -0.360954 0.15692142 0.10799018
0.026473876 -0.016712647 -0.15031028 -0.15757774 0.12921828 0.09671503 -0.2958456 -0.11657934
0.04935549 -0.0268117 -0.14918804 -0.42959508 -0.31318605 -1.0348817 -0.18948701 -0.061381772
0.07859196 0.14384893 -0.14528283 -0.06451122 -0.18092723 -0.32206473 -0.114702016 -0.05048597
00000000: 1567 ecbd 3371 303d 9218 bc3d d92b 09be
00000010: 99b9 93bd 6e35 143c 207e b8bd f01d f4bc
00000020: 5a51 783d e20c 023e d776 bf3d 7484 de3d
00000030: 6e4a 85be 7cea 1bbe 8486 6a3d eb1b e7bd
00000040: 1bbf 9b3c 7ebb 323d 21f6 d6bd 8126 c0bd
00000050: 23dd d63d 8acf 8abe 4abc ad3d 56af a23e
00000060: db9e eb3d d279 9ebc 8749 c4bd f03f 18bf
00000070: 0fbb 9abe 82e4 cabd 628a 13be ae80 d7bd
00000080: 40c9 6f3d 57ff a63d 32f8 c3be ae17 903b
00000090: 326c 58be 322a 31bf d6e3 bdbd 391b 83bd
000000a0: a516 c5bd 02ec 8ebc f2dc 0f3e 414a 03bd
000000b0: db99 863e 5866 0ebe 4316 8dbe 383f 233e
000000c0: 544e 02be fa5d 8dbc ac2b bfbe 7e12 8ebe
000000d0: 55d5 7ebe 0c88 c7bc cafa 3abe f1b0 debc
000000e0: a283 e1bd f17e e8bd 98ef 08bd 2102 a0be
000000f0: 2d8a 99bc 904f 16bf 972d fdbd 3e23 0bbd
00000100: fc32 aeba c33c 063e 3a22 c9bb f0a1 fc3c
00000110: 2c58 ea3d 55b0 e4bd d652 43be a98f acbd
00000120: 5dc4 51bd 6c18 89bc 3603 d53d f370 3bbe
00000130: 0027 21be 82e2 55bc 9c77 493b 8cad bbbe
00000140: 0e7a 933d f84c e1be 3433 2d3d 950f e2bd
00000150: 5929 e43c 943c 0cbe b19c f03c df16 bebd
00000160: eb49 5bbc 24ec f53c 76d1 bd3d 6c0a fabe
00000170: 7d1d d8bc d226 513d 5b15 0fbe 15f2 64be
00000180: ed2a 40bd e6b6 cdbc 46d4 82bd 3a15 3cbc
00000190: d254 e33d 754b bebd 599d b7be 061d 2e3c
000001a0: 9f1d 37be a2db 9fbc a9d9 473e fd5c 95bd
000001b0: 8f4d eabd cdb9 583d c7ca 04be 9944 b2bc
000001c0: 61a0 e6bd 12bc b53d cc0b c23c df1e 143e
000001d0: 95e3 69be 189a bf37 00e6 eabe c98b 05bc
000001e0: 6c90 063e 2502 52be 9bab a8bd 58d7 8cbc
000001f0: 5564 4d3e e32f 373c 9477 953e 5812 d7be
00000200: 6de3 05be 060b bb3c b62a 043d 9f55 a2bc
00000210: 275a 063e a531 9d3d 90a0 66bd 3a21 81bd
00000220: d5dd 0bbf b67a f13d 9f1f b4bd a4ec 903d
00000230: 6f19 06bd fc94 e83b b64b d9be af1f 153e
00000240: aeaa bbbc e909 85bb 0959 6fbd aeb7 9b3d
00000250: ee22 91bd 3fbe 25bd e028 70bd e9b3 4e3e
00000260: 2fe2 ae3d 07fe 343d b9cd 0fbe 4f55 02bf
00000270: 9f29 ecbd 5596 1ebe 1245 593b 9f46 13be
00000280: 3de8 41bf 8197 893c 7bcd 023e 223e 793d
00000290: a5f2 a8bd 448e 2abe dfdc 773d 977f bb3c
000002a0: 624e f23d acbe a8bd 8f5c 0ebe 521b d93d
000002b0: 8971 f8bd a0a1 b43d 2744 653e 75a0 45be
000002c0: b8f8 5dbd 9527 92bb fff8 363d 5923 1dbe
000002d0: 637f acbc b738 ce3d f540 9dbe c29c 01bd
000002e0: 867e a3bc 2e9e 84bd 6582 12bd 2dee 05bf
000002f0: 5c86 823d fddd d6bd 9ad8 863d 6fa6 db3d
00000300: 2642 10be 08be e7bc b83c 983d c473 033e
00000310: 578d e03d 3e7d 5d3d 992f 81bf c8f3 9c3a
00000320: 68dd 453d 5fd6 86bd bf42 3fbc e9ab 1abe
00000330: 67c9 1fbe 0bc3 2fbf f181 0d3e 668d 353c
00000340: 27de 3d3e 48c7 23be bfa2 eb3d 87a6 0cbd
00000350: a74b e83c e66d 7bbd bdf3 e2bd 76a6 17bd
00000360: f6df 503d ba52 933c 4f74 e23d 0652 7a3c
00000370: 0a29 2e3d 9b4b 14be fce7 a23d 5f9b 40bd
00000380: bb26 d1b9 ca7b a63d 4bf8 b7bd 3d44 be3c
00000390: c179 11be f6ce b8be 02b0 203e f529 dd3d
000003a0: bedf d83c f6e8 88bc f0ea 19be 0f5c 21be
000003b0: cc51 043e 8812 c63d 1379 97be 26c1 eebd
000003c0: fb28 4a3d 36a4 dbbc c0c4 18be e3f3 dbbe
000003d0: ec59 a0be 0177 84bf e208 42be 746b 7bbd
000003e0: d2f4 a03d 224d 133e 06c5 14be 751e 84bd
000003f0: fd44 39be abe5 a4be e4e8 eabd 60ca 4ebd
