assets/ai_model/Gender_CNN.tflite (tflite, 903260 bytes, 8 tensors)

sequential/conv2d/BiasAdd/ReadVariableOp f4 [32]
0	0xbcc5d027	-0.024147106
1	0xbd3b1cac	-0.04568164
2	0xbdbfcc39	-0.09365124
3	0xbea11a57	-0.31465408
4	0x3df3336f	0.118750446
5	0x3da98133	0.08276596
6	0xbe0c2fa4	-0.13690048
7	0x3b8b74f7	0.0042558867
8	0xbe271cee	-0.1631963
9	0xbbe62512	-0.007023462
10	0x3d598643	0.053106558
11	0x3d618553	0.05505879
12	0xbdcd40eb	-0.10022148
13	0x3d39a869	0.045326624
14	0x3f146b6a	0.579764
15	0xbd8ce868	-0.068802655
16	0x3e8f1ec7	0.2795317
17	0xbd1e8931	-0.038705055
18	0x3d423d2d	0.047421623
19	0xbbabc668	-0.0052421577
20	0xbcf5f9a9	-0.030026274
21	0x3d9860ce	0.07440339
22	0x3c0d16b7	0.008611373
23	0xbdccbaae	-0.09996544
24	0x3d764b43	0.06013037
25	0xbe26a119	-0.16272391
26	0xbe792976	-0.24332222
27	0xbdc76542	-0.0973611
28	0xbd3225ad	-0.04349296
29	0x3d8a21b9	0.06744713
30	0x3f0773cf	0.52911085
31	0xbd885392	-0.06656565

sequential/conv2d_1/BiasAdd/ReadVariableOp f4 [64]
0	0x3d258753	0.04041226
1	0xbe25b134	-0.16180879
2	0xbd60427a	-0.054750897
3	0x3e24242f	0.16029428
4	0xbe9cb662	-0.30607897
5	0xbe9e9bb7	-0.30978176
6	0xbeb73c14	-0.35788023
7	0x3d938e1e	0.07204841
8	0x3dc113d2	0.094276085
9	0xbd1ddfdf	-0.03854358
10	0xbec59cb0	-0.38596106
11	0xbd7da6e9	-0.061926756
12	0xbedbf7b6	-0.42962426
13	0xbe93b334	-0.2884766
14	0xbdaf1db7	-0.085505895
15	0x3dd8129d	0.10550425
16	0xbee6545c	-0.44986236
17	0x3d850155	0.06494395
18	0x3c12496d	0.008928639
19	0xbee4d734	-0.44695437
20	0xbe9d18ba	-0.30682927
21	0xbed25588	-0.4108088
22	0x3e06b63e	0.13155457
23	0xbd324fb6	-0.04353305
24	0xbe55830a	-0.20850769
25	0xbd1e2b1a	-0.038615324
26	0x3e24a726	0.16079387
27	0x3dcead0f	0.10091602
28	0xbd38e38b	-0.045138877
29	0xbdb1ac2f	-0.086754195
30	0xbe894576	-0.26810807
31	0xbb220a02	-0.0024725203
32	0x3dd4beaa	0.10387929
33	0xbd716072	-0.058929868
34	0x3d9ea6bb	0.07746645
35	0xbdb87c5a	-0.09008093
36	0xbeb51fda	-0.35375863
37	0xbbf61b5b	-0.0075105852
38	0xbc32f6a3	-0.010923061
39	0xbe5362d2	-0.20643166
40	0xbec786ea	-0.3897012
41	0xbd89ccd5	-0.06728522
42	0x3d1b359b	0.03789292
43	0xbd88efc6	-0.06686358
44	0x3cc78ddb	0.024359634
45	0xbd767172	-0.060166784
46	0x3dca6287	0.09882074
47	0x3b64b080	0.0034895241
48	0x3d24272b	0.040076416
49	0xbe467b67	-0.19383012
50	0xbe388647	-0.18019973
51	0x3e0ef1c2	0.13959411
52	0xbd5ad71a	-0.053427793
53	0x3b00c84c	0.0019650636
54	0x3ce7ac00	0.028280258
55	0x3bf55a13	0.0074875443
56	0x3cc98d14	0.024603404
57	0x3dafb7d0	0.08579981
58	0x3e708a40	0.23490238
59	0x3deaf4d7	0.11472481
60	0xbe4ae426	-0.19813594
61	0xbc59f2df	-0.013302534
62	0xbd341cee	-0.043972902
63	0xbd1d5fce	-0.038421445

sequential/conv2d/Conv2D f4 [32, 3, 3, 3]
0	0x3d21acb4	0.039471343
1	0x3e4a970b	0.19784181
2	0x3e82ed78	0.255718
3	0x3d70b28f	0.058764037
4	0x3dd68b19	0.104757495
5	0x3e4a60cd	0.19763489
6	0x3e2fb881	0.17160226
7	0xbbc08f60	-0.0058764666
8	0x3e642fd8	0.22283876
9	0x3d522371	0.05130333
10	0xbe34ec3c	-0.17668241
11	0xbdfdc927	-0.123918824
12	0x3e4be7bf	0.19912623
13	0x3e379727	0.17928754
14	0x3d0b4be9	0.03400794
15	0x3e812304	0.25222027
16	0x3e313533	0.1730545
17	0xbda0167f	-0.07816791
18	0xbea43f01	-0.32079318
19	0xbe97257f	-0.29520795
20	0xbe4469ed	-0.19181032
21	0xbe461e28	-0.19347441
22	0xbe4790c4	-0.19488817
23	0xbe6d214c	-0.23157233
24	0xbde2aa34	-0.1106762
25	0xbe706f5a	-0.23479977
26	0xbdcd40ec	-0.100221485
27	0xbe9b95dd	-0.30387774
28	0xbe73cf9b	-0.23809664
29	0xbe8efe6d	-0.27928486
30	0xbe9fcf81	-0.31213
31	0xbe8efe86	-0.2792856
32	0xbe4fe847	-0.2030345
33	0xbe5eb2a1	-0.21747829
34	0xbe3f00d6	-0.18652663
35	0xbd879911	-0.06620992
36	0x3b06263c	0.0020469567
37	0x3e13ccf5	0.14433654
38	0x3cd64693	0.0261567
39	0x3e4e4e26	0.20146999
40	0xbc892eff	-0.016746042
41	0x3d8332b7	0.064061575
42	0x3e46694b	0.19376104
43	0xbc8785cc	-0.016543292
44	0x3df81de6	0.12115078
45	0x3e74db8c	0.23911875
46	0x3e413476	0.18867669
47	0x3e91e56c	0.28495347
48	0x3e6c2fd1	0.23065116
49	0x3e861b7d	0.26192847
50	0x3e8bae13	0.27281246
51	0x3dc2ba96	0.09508245
52	0xbd6443a4	-0.05572857
53	0x3c362cdf	0.011119097
54	0x3c981e2a	0.01856907
55	0xbdae0c7c	-0.08498475
56	0xbd15fcf1	-0.036618177
57	0xbde7860c	-0.11304864
58	0xbd5067dc	-0.050880298
59	0xbe49a16e	-0.19690487
60	0x3e027c7f	0.12742804
61	0xbcd4b98b	-0.02596738
62	0x3d9667b8	0.073440015
63	0xbdafb2b0	-0.08579004
64	0x3c858921	0.01630074
65	0xbea63db9	-0.32468966
66	0x3dfacc56	0.12246005
67	0xbd8f629e	-0.070012316
68	0x3d03a4d6	0.03213962
69	0x3e3776ae	0.17916366
70	0x3e326c3e	0.17424104
71	0xbd9cb509	-0.07651717
72	0xbed23ad0	-0.41060495
73	0xbe867c7c	-0.2626685
74	0xbf18c96b	-0.5968234
75	0x3d111e90	0.035429537
76	0xbd844e66	-0.06460266
77	0xbe644fb1	-0.22296025
78	0x3dd19642	0.102337375
79	0x3deff062	0.11715771
80	0x3db78821	0.089615114
81	0xbde6223b	-0.11236998
82	0x3ba8b3f9	0.0051484075
83	0x3d383ed2	0.044981785
84	0x3dfa5236	0.12222712
85	0x3d998f95	0.07498089
86	0xbd95d1ef	-0.07315432
87	0xbde46bdd	-0.11153386
88	0x3d06a96e	0.032876424
89	0x3c8a7f7f	0.016906498
90	0xbd8cbc25	-0.06871823
91	0xbd1b363d	-0.037893523
92	0xbcb452e8	-0.022012189
93	0x3e2a62b5	0.16639216
94	0x3d999628	0.07499343
95	0xbd6e15c2	-0.05812622
96	0xbd75df42	-0.06002737
97	0x3dd2ba7e	0.10289477
98	0x3c7279f9	0.014799588
99	0xbe413de9	-0.18871273
100	0xbda7d144	-0.08194211
101	0x3ae2e752	0.001731137
102	0x3d4e157c	0.050313458
103	0x3d510eac	0.051039383
104	0xbdf6c29e	-0.12048839
105	0x3d6a8d2b	0.057263535
106	0xbcc7045f	-0.024294076
107	0xbcec7b28	-0.02886732
108	0x3e60e4b2	0.2196224
109	0x3ee05403	0.43814096
110	0x3e2e67b9	0.17031755
111	0xbd096526	-0.03354373
112	0xbd3d177a	-0.046164967
113	0xbe4c9480	-0.19978523
114	0xbeb0da32	-0.3454147
115	0xbe56ccb1	-0.20976521
116	0xbe8ac6f8	-0.27104926
117	0xbeaf4bdb	-0.3423756
118	0xbc1ea991	-0.0096839825
119	0xbde9d035	-0.114166655
120	0xbf22041a	-0.6328751
121	0xbebfb9bb	-0.3744639
122	0xbe7a5c5c	-0.24449295
123	0x3eb699ec	0.35664308
124	0x3f00d63f	0.50326914
125	0x3ee3af62	0.44469744
126	0xbe584422	-0.2111974
127	0x3c52e8bf	0.012872874
128	0x3e0bab6b	0.1363961
129	0x3d3d86c1	0.04627109
130	0xbd2c1aa0	-0.04201758
131	0xbdb05e65	-0.08611754
132	0xbd2c9b47	-0.04214027
133	0x3c95b077	0.018272622
134	0x3e985af1	0.29756883
135	0x3dc34ab6	0.09535734
136	0xbe3e4de3	-0.18584399
137	0xbf0a3cbf	-0.5399894
138	0x3e354180	0.17700768
139	0x3e484774	0.19558507
140	0xbe0ba940	-0.13638783
141	0xbbfe2008	-0.0077552833
142	0x3e371fa5	0.17883165
143	0xbe81411b	-0.25244984
144	0x3e09c11b	0.1345257
145	0xbe3f7b91	-0.1869948
146	0xbf17467d	-0.5909193
147	0x3e4ec236	0.20191273
148	0xbd6d857c	-0.05798863
149	0xbecdfc6c	-0.40231645
150	0x3e8e1153	0.27747592
151	0x3e310821	0.17288257
152	0xbeaf735e	-0.34267706
153	0x3e0b4e3f	0.13604067
154	0x3e878496	0.26468343
155	0x3d4a931d	0.049456704
156	0xbd4577cf	-0.04820996
157	0x3e4ea5bb	0.20180409
158	0xbde828ed	-0.11335931
159	0x3db02c59	0.08602209
160	0x3e4e7c91	0.20164706
161	0x3dc3477e	0.095351204
162	0xbde05acf	-0.1095482
163	0x3d153dcc	0.036435887
164	0xbe0465cc	-0.12929457
165	0xbecc5056	-0.3990504
166	0xbed900d1	-0.42383435
167	0xbf0822c8	-0.5317807
168	0xbd81bb3c	-0.0633454
169	0xbe31c589	-0.1736051
170	0xbed59453	-0.41714725
171	0x3e648632	0.22316816
172	0x3d6411e5	0.055681128
173	0x3e69c59b	0.22829287
174	0x3e539e82	0.20665935
175	0x3e1b3362	0.1515632
176	0x3dc3eddf	0.09566855
177	0x3d15e2c6	0.03659322
178	0x3e312b18	0.17301595
179	0xbe1c752f	-0.15279077
180	0x3de2e8ac	0.11079535
181	0x3d890497	0.066903286
182	0x3e37299e	0.1788697
183	0x3de8b373	0.11362352
184	0x3e90ca2a	0.2827924
185	0x3e956a14	0.29182494
186	0xbbbdf775	-0.0057973214
187	0x3e821c5b	0.25412259
188	0x3de93f50	0.11389029
189	0xbcd67cce	-0.026182558
190	0x3e30a0b0	0.17248797
191	0x3e317796	0.17330775
192	0xbe38741e	-0.18013045
193	0x3d5a3459	0.05327258
194	0x3d21bd2e	0.039487056
195	0xbd549233	-0.05189724
196	0xbd43563b	-0.047689658
197	0xbd268698	-0.040655702
198	0x3eebc495	0.46048418
199	0x3f027c15	0.50970584
200	0x3e8d25be	0.27567858
201	0xbeba62bf	-0.36403462
202	0xbeca4c4c	-0.39511335
203	0xbec96d2c	-0.39341104
204	0xbc3c6a9c	-0.011500027
205	0xbb0455de	-0.0020192782
206	0xbe8f2d46	-0.27964228
207	0x3e67506c	0.22589272
208	0x3eb817db	0.359557
209	0x3d556706	0.052100204
210	0xbe0ee609	-0.13954939
211	0xbe81e26d	-0.25368062
212	0x3cbec555	0.023287455
213	0xbe342da6	-0.17595538
214	0xbdb0a9f9	-0.0862617
215	0xbbe8c2a4	-0.007103281
216	0xbecba681	-0.3977547
217	0xbe7f79b6	-0.24948773
218	0xbe544390	-0.20728898
219	0xbf197695	-0.59946567
220	0xbee57315	-0.44814363
221	0xbe24a79e	-0.16079566
222	0xbe0e09f0	-0.13870978
223	0xbe8ef4a3	-0.27921018
224	0xbd0d754a	-0.034535684
225	0x3e6d3500	0.23164749
226	0x3e3c211d	0.18372007
227	0x3de2287e	0.110428795
228	0x3ead18ae	0.33807892
229	0x3eac3d41	0.33640483
230	0x3e5b5fbe	0.21423241
231	0x3e250a67	0.1611725
232	0x3e5b14a4	0.21394593
233	0x3e03d035	0.12872393
234	0xbe64e9ec	-0.22354859
235	0xbc3ccf92	-0.011524098
236	0xbc4648df	-0.012102335
237	0xbd90b8ce	-0.07066499
238	0x3d27e280	0.04098749
239	0xbd5def53	-0.054183315
240	0xbce1112f	-0.027474014
241	0x3d332ae0	0.04374206
242	0xbd871cdc	-0.06597301
243	0xbc5cbaf0	-0.013472304
244	0x3d09b5a9	0.03362051
245	0x3d4f363b	0.050588828
246	0xbd27c4ed	-0.040959287
247	0xbea34e06	-0.31895465
248	0xbe2162a2	-0.15760282
249	0x3de2653e	0.11054467
250	0x3e4236cd	0.18966217
251	0x3e7f47ec	0.2492978
252	0xbd33801d	-0.04382335
253	0xbe94ed7b	-0.29087433
254	0xbe272577	-0.16322885
255	0xbe6aabab	-0.22917049

sequential/conv2d_1/Conv2D f4 [64, 3, 3, 32]
0	0x3cc40ff0	0.02393338
1	0xbdb39450	-0.08768523
2	0xbe02eb20	-0.12785006
3	0xbe0adcac	-0.13560742
4	0xbe9f8ee8	-0.31163716
5	0xbd3ce7c9	-0.046119485
6	0xbe427b98	-0.1899246
7	0x3e1f0d5a	0.15532437
8	0xbe963cc2	-0.2934323
9	0x3e3fac6b	0.18718116
10	0x3dde3b3e	0.10851143
11	0x3e366fae	0.1781604
12	0x3d990ce1	0.074731596
13	0xbf34360f	-0.70394987
14	0x3ef9a007	0.48754904
15	0xbed897f2	-0.42303425
16	0xbdcd8bb8	-0.10036415
17	0x3dbdae0f	0.09261715
18	0x3d44dd1d	0.048062433
19	0x3df53311	0.11972631
20	0xba4bd3ce	-0.0007775397
21	0xbeb254b3	-0.34830245
22	0x3e283934	0.16428071
23	0xbcdf3028	-0.027244642
24	0x3cc42914	0.023945369
25	0x3e1d0095	0.15332253
26	0xbea546f6	-0.322807
27	0x3e86dc5c	0.26339996
28	0x3e48114e	0.19537851
29	0xbdb584eb	-0.08863243
30	0xbe0d4550	-0.13795972
31	0xbe7c9af1	-0.2466848
32	0x3eaa1cf2	0.3322521
33	0xbe725889	-0.23666586
34	0x3b683c95	0.00354365
35	0xbd008d7c	-0.03138493
36	0xbf078806	-0.5294193
37	0xbe8b3a76	-0.2719304
38	0xbef16072	-0.47143894
39	0xbe67bf5a	-0.22631589
40	0xbe5ecbe5	-0.21757467
41	0x3e16e20e	0.1473467
42	0x3ea47d40	0.32126808
43	0xbbfb932f	-0.0076774578
44	0xbcb9fc1b	-0.022703221
45	0xbe03f3a0	-0.12885904
46	0xbe634f28	-0.22198164
47	0x3ca56c2d	0.020193184
48	0xbe9238d8	-0.28558993
49	0xbd64215f	-0.055695888
50	0xbe84a602	-0.25907904
51	0x3d8cb714	0.06870857
52	0x3c0a922b	0.008457701
53	0xbe213ff7	-0.15747057
54	0xbd137092	-0.035996027
55	0xbe4aa45e	-0.19789264
56	0x3e1f6c52	0.15568665
57	0xbd38b52f	-0.045094665
58	0xbe057099	-0.13031234
59	0xbe39c6ce	-0.18142244
60	0x3de726ed	0.112867214
61	0x3d006c49	0.03135327
62	0xbe750649	-0.23928179
63	0x3e28db62	0.16489938
64	0x3e6dc502	0.23219684
65	0xbd36ff46	-0.04467704
66	0xbb184489	-0.002323421
67	0x3df41aa5	0.119191445
68	0xbeb3f581	-0.35148242
69	0xbdba539a	-0.09097977
70	0x3dbc2fa1	0.09188772
71	0xbdd8d576	-0.105875894
72	0x3ed6360f	0.41838118
73	0x3d0cf9a6	0.03441777
74	0x3dfc29a7	0.12312632
75	0xbde9b146	-0.11410765
76	0x3d4d39c6	0.050103925
77	0xbe1a9b9c	-0.15098423
78	0xbe5eaad5	-0.21744855
79	0x3d7ae943	0.061257612
80	0xbd641fb7	-0.055694308
81	0x3e6dd614	0.23226196
82	0x3d932c01	0.071861275
83	0x3b2eca42	0.0026670848
84	0x3d844bf8	0.064598024
85	0xbe1fe0e3	-0.15613131
86	0xbe1df12c	-0.15424031
87	0x3dd81934	0.10551682
88	0x3e7ac218	0.24488103
89	0xbe323b2d	-0.17405386
90	0x3d4962d9	0.049166534
91	0xbd349437	-0.04408666
92	0xbeba4b9c	-0.3638581
93	0x3d9641e4	0.073367864
94	0xbdddf7fb	-0.10838314
95	0x3db23863	0.08702161
96	0xbe9c7d41	-0.3056431
97	0x3c6f9a6e	0.014624221
98	0x3d0b67e5	0.03403463
99	0x3dc27a8d	0.09496031
100	0x3dd47b57	0.10375088
101	0xbe7a678a	-0.2445356
102	0x3e8e2983	0.27766046
103	0x3e20347e	0.15645024
104	0xbe503cab	-0.20335643
105	0x3df70fd6	0.12063567
106	0x3ddb4b33	0.107077025
107	0xbdff288f	-0.12458908
108	0xbde670da	-0.112519935
109	0xbc14a12e	-0.009071631
110	0x3e14fa46	0.14548597
111	0x3c9a3eca	0.018828768
112	0xbdf9dad0	-0.12199938
113	0x3ddc4d5f	0.10756945
114	0x3e55e483	0.20887952
115	0x3c4d37b5	0.012525489
116	0x3d32107a	0.043472745
117	0xbdc49c03	-0.096000694
118	0x3eaf902c	0.34289682
119	0xbe8bea61	-0.27327254
120	0xbe2b1a17	-0.16709171
121	0xbe139405	-0.14411934
122	0xbd9f01cb	-0.07764014
123	0x3e8c6696	0.27422017
124	0x3c6fcb8e	0.014635934
125	0x3cb04518	0.021517321
126	0xbe9ba699	-0.3040054
127	0xbdcb81a5	-0.09936837
128	0xbe350a1d	-0.17679639
129	0x3dc6c239	0.09705014
130	0xbcc0d41f	-0.023538647
131	0xbd0d62c6	-0.034518026
132	0xbe4e95fb	-0.201744
133	0xbe624ef2	-0.22100428
134	0x3ec2d1ee	0.3805079
135	0x3df44ae7	0.11928349
136	0xbe5d4593	-0.21608572
137	0x3b1cf42d	0.002394925
138	0xbe5ecbef	-0.21757482
139	0x3c2c75e8	0.010526158
140	0xbbaff33c	-0.005369572
141	0xbd69222a	-0.056917347
142	0x3e3a3549	0.18184389
143	0x3e849d5c	0.25901306
144	0x3c68c080	0.014206052
145	0x3cd85807	0.026409162
146	0x3d91e176	0.071230814
147	0x3d3cba1e	0.046075933
148	0x3c182773	0.009286749
149	0x3d86fe8b	0.06591519
150	0x3e18cbc8	0.14921486
151	0xbb77be7a	-0.0037802742
152	0xbde39be2	-0.11113717
153	0x3e1de464	0.15419155
154	0xbdbfe74d	-0.09370289
155	0x3d0edff6	0.034881555
156	0x3d20b2f1	0.03923315
157	0xbe6ec818	-0.23318517
158	0xbe93d417	-0.2887275
159	0x3e5db08a	0.21649376
160	0xbe86f2ae	-0.26357025
161	0x3d8f65c7	0.07001834
162	0x3d3500c2	0.044190176
163	0xbc3a4bcb	-0.0113706095
164	0x3e149b94	0.14512473
165	0xbe51789c	-0.20456165
166	0x3d80fd62	0.06298329
167	0xbdab5d08	-0.08367354
168	0xbe524f97	-0.20538174
169	0x3e303f4a	0.17211643
170	0xbd8ffe89	-0.070309706
171	0xbe5388d9	-0.20657672
172	0xbcda7512	-0.026667152
173	0xbda3a7a9	-0.07990963
174	0x3e5b78f9	0.21432866
175	0xbc056bad	-0.008143348
176	0x3e0b9e69	0.13634647
177	0x3e34d09e	0.17657706
178	0x3da42182	0.080142036
179	0x3e21f645	0.158166
180	0xbc30c6b0	-0.010789558
181	0x3dcb683e	0.09931992
182	0xbdbd2895	-0.09236256
183	0xbd8b87f1	-0.06813038
184	0xbe063141	-0.13104726
185	0x3cab3db6	0.02090345
186	0xbdc31274	-0.09525004
187	0xbdb9c6ab	-0.09071096
188	0x3e73fe73	0.23827533
189	0x3ecf74d2	0.40518814
190	0xbe8534c5	-0.26016822
191	0x3e4128fb	0.18863289
192	0x3d5fce15	0.054639895
193	0xbcbcaaca	-0.023030657
194	0xbd8797e6	-0.06620769
195	0x3d35b80b	0.04436497
196	0xbe13bf58	-0.1442846
197	0xbd829b17	-0.06377237
198	0xbe1c325f	-0.1525359
199	0xbc8dd14d	-0.017311716
200	0xbe640f44	-0.22271448
201	0x3e2643a3	0.16236739
202	0x3eb8e861	0.3611479
203	0xbdd88880	-0.1057291
204	0xbc147a0d	-0.009062302
205	0x3e4e5071	0.20147873
206	0xbe26671d	-0.16250272
207	0x3db54030	0.088501334
208	0x3d2836d1	0.041067902
209	0x3a9cbe9e	0.0011958664
210	0xbe7f7ab4	-0.24949151
211	0xbdb18aaa	-0.08669026
212	0xbd55999b	-0.052148443
213	0x3e493c2b	0.19651859
214	0xbd8b4788	-0.06800753
215	0xbdf09997	-0.11748045
216	0x3cedeb41	0.029042842
217	0xbe0177e9	-0.12643398
218	0x3dffb722	0.12486102
219	0xbe78cd56	-0.2429708
220	0xbdb29afa	-0.08720966
221	0xbe21b353	-0.15791063
222	0xbe9c6f80	-0.30553818
223	0xbc3bd1a5	-0.011463557
224	0x3d1ebd06	0.038754486
225	0xbc58b846	-0.013227528
226	0xbd834b6f	-0.06410872
227	0x3da85273	0.08218851
228	0x3ba8e09d	0.005153729
229	0xbdb40839	-0.08790631
230	0x3d45f81b	0.048332315
231	0x3daf36af	0.08555352
232	0xbeb1175e	-0.3458814
233	0xbe954a7e	-0.29158396
234	0x3de0bc4f	0.10973417
235	0xbe20bb26	-0.15696391
236	0xbd18b12c	-0.03727834
237	0xbde58e56	-0.11208789
238	0x3e414b96	0.1887649
239	0x3cd454f6	0.025919419
240	0xbe455909	-0.19272245
241	0xbe8bfd67	-0.27341768
242	0xbcdfa9cf	-0.02730265
243	0xbebbaa5f	-0.3665342
244	0x3d784122	0.06060899
245	0xbdb625c4	-0.08893922
246	0xbe38830d	-0.18018742
247	0xbe97e9a5	-0.29670444
248	0xbd32c305	-0.043643016
249	0x3e899ffa	0.26879865
250	0x3dd20353	0.1025454
251	0xbe20dd1e	-0.1570935
252	0xbec3ebcf	-0.38265845
253	0xbe9907d2	-0.2988878
254	0xbedc52d3	-0.4303194
255	0x3e1c6dcd	0.1527626

sequential/dense/BiasAdd/ReadVariableOp f4 [128]
0	0x3e3e31b9	0.18573655
1	0xbe19e01a	-0.15026894
2	0xbd1882fe	-0.0372343
3	0xbd6d8fb1	-0.057998363
4	0xbd8a2970	-0.06746185
5	0x3d3d59b2	0.04622812
6	0x3d1388cc	0.03601913
7	0x3e553178	0.20819652
8	0xbd54b17a	-0.051927067
9	0x3e26d632	0.16292647
10	0xbd268bb7	-0.040660586
11	0xbd576d1b	-0.052594285
12	0xbcb3449d	-0.021883303
13	0xbca6ec85	-0.020376453
14	0xbcae443c	-0.021272771
15	0x3e924dd5	0.28575006
16	0x3be0a477	0.0068555432
17	0xbdaba719	-0.08381481
18	0x3e8970d8	0.26843905
19	0xbd7c941f	-0.061664697
20	0xbd450b37	-0.0481064
21	0xbc77e908	-0.015131243
22	0x3de99572	0.114054576
23	0xbd1f875e	-0.038947456
24	0xbd009f46	-0.031401895
25	0x3db246e1	0.08704925
26	0xbcb2883a	-0.021793474
27	0xbd9815fd	-0.07426069
28	0xbc07fd39	-0.008300119
29	0xbd321d9c	-0.04348527
30	0xbd5b07b0	-0.05347413
31	0x3dda0497	0.10645407
32	0xbd2e84f1	-0.04260725
33	0x3db72536	0.08942644
34	0x3cfe9d8a	0.03108098
35	0xbc727237	-0.014797739
36	0xbc03d176	-0.008045545
37	0xbbfd4e25	-0.007730263
38	0x3da03c4a	0.07823999
39	0xbd934d53	-0.07192483
40	0xbd14a98b	-0.0362945
41	0x3dd7e62d	0.105419494
42	0xbd26ac52	-0.04069168
43	0xbd2185ba	-0.039434172
44	0xbd6e333b	-0.058154326
45	0xbcec4ca5	-0.02884514
46	0x3eb431a3	0.3519412
47	0xbc99cede	-0.0187754
48	0xbc35e5fb	-0.011102195
49	0xbd812aaf	-0.063069694
50	0xbd44c9a3	-0.04804386
51	0xbe0e7ee6	-0.13915595
52	0xbcee1040	-0.029060483
53	0xbcb13fc5	-0.021636853
54	0xbc82cc2d	-0.0159665
55	0x3c3927b6	0.011300972
56	0x3e4f289c	0.20230335
57	0x3e0aa77e	0.13540456
58	0x3e7eee55	0.24895604
59	0xbdb0176b	-0.085982166
60	0x3de0ed48	0.10982758
61	0xbc853702	-0.016261581
62	0x3d6e993d	0.05825161
63	0x3daab53f	0.08335351
64	0x3e11c8b9	0.14236726
65	0x3daf1f3f	0.085508816
66	0x3e900083	0.2812539
67	0xbd9e9a22	-0.07744242
68	0x3e2027bd	0.15640159
69	0xbdf286ba	-0.11842103
70	0x3dadceef	0.08486735
71	0xbcf850d5	-0.030311981
72	0xbd3c7c0d	-0.04601674
73	0xbd36632a	-0.044528164
74	0x3e11a349	0.14222445
75	0x3ea3855d	0.31937686
76	0xbc3be78d	-0.01146878
77	0x3e8185ae	0.25297302
78	0x3bcc00d8	0.0062256865
79	0xbc295af7	-0.010336629
80	0x3e0b5bbc	0.13609213
81	0xbd2aa256	-0.041658722
82	0xbe001d01	-0.12511064
83	0xbcc88f26	-0.024482321
84	0x3d4de169	0.050263796
85	0xbd838ef0	-0.064237475
86	0xbc6b8555	-0.014375051
87	0xbdf04417	-0.11731737
88	0x3d16f387	0.03685334
89	0x3ddc19ab	0.10747083
90	0xbc597199	-0.013271713
91	0xbcce4c9f	-0.02518302
92	0xbc92329c	-0.017846398
93	0xbc337587	-0.010953314
94	0x3e244efb	0.16045754
95	0xbd6778c0	-0.05651164
96	0xbdbbf6ce	-0.09177934
97	0xbcd51c68	-0.026014522
98	0xbdb973dd	-0.09055302
99	0xbde16a8f	-0.110066526
100	0xbd1d73fd	-0.038440693
101	0xbc136669	-0.008996584
102	0x3e52b48c	0.20576686
103	0x3cd253f1	0.025674792
104	0x3de6ea1d	0.11275122
105	0x3daddcb3	0.08489361
106	0xbcc62ea8	-0.02419217
107	0xbe16a550	-0.14711499
108	0x3e393647	0.18087111
109	0xbcfffacf	-0.031247525
110	0xbc6902f8	-0.014221899
111	0x3dda9fc2	0.10675003
112	0x3d5f9d4f	0.05459338
113	0x3e749f55	0.23888905
114	0xbc54d623	-0.012990507
115	0x3d473f00	0.048644066
116	0xbcdc84e4	-0.026918836
117	0xbd299019	-0.041397188
118	0xbc80647c	-0.015672915
119	0x3ea743a9	0.32668808
120	0xbc43edbf	-0.011958539
121	0xbd1cca6d	-0.038278986
122	0xbc2b3f6b	-0.010452132
123	0xbd21cb87	-0.03950074
124	0xbbebbb1b	-0.0071939356
125	0xbd1d3230	-0.03837794
126	0xbd940857	-0.07228153
127	0xbc408430	-0.011750266

sequential/dense_1/BiasAdd/ReadVariableOp f4 [5]
0	0x3ded8dd3	0.115993164
1	0x3e3c335b	0.18378966
2	0xbe0820d1	-0.13293768
3	0xbe0fb67a	-0.14034453
4	0x3de45e2a	0.11150773

sequential/dense/MatMul f4 [128, 1600]
0	0xbdcc68c3	-0.09980919
1	0x3ca89282	0.020577673
2	0x3d4b5673	0.04964299
3	0x3d4f0b3b	0.05054782
4	0x3d077d28	0.033078343
5	0x3b34fc3b	0.0027616161
6	0xbd23ef17	-0.040022936
7	0x3beb4627	0.0071799937
8	0x3db123d7	0.08649414
9	0xbdae5f02	-0.08514215
10	0xbc888e35	-0.016669372
11	0x3d5018ed	0.05080502
12	0xbd562249	-0.05227879
13	0x3b15bd29	0.0022848344
14	0xbd84467c	-0.06458756
15	0xbe4cb37a	-0.1999034
16	0xbdae6638	-0.085155904
17	0x3c75448e	0.014969958
18	0xbe381c9c	-0.17979664
19	0x3d251c7c	0.040310368
20	0x3e033c16	0.1281589
21	0x3cc85e5e	0.02445906
22	0xbc57928a	-0.013157496
23	0x3d1f7981	0.038934235
24	0xbab563ff	-0.0013839005
25	0x3c5ead5c	0.013591137
26	0x3db27dd8	0.08715409
27	0xbe655f4c	-0.22399634
28	0x3dccf41c	0.10007498
29	0x3d0c274b	0.03421716
30	0xbd170517	-0.03687009
31	0x3ddc3d0c	0.10753831
32	0xbe28184b	-0.16415517
33	0xbce16d1c	-0.027517848
34	0x3b64be80	0.0034903586
35	0x3d217cb4	0.039425567
36	0x3c8805ed	0.016604388
37	0xbd2211d7	-0.039567795
38	0xbdc18ac7	-0.09450298
39	0xbca57320	-0.020196497
40	0x3cda4fbe	0.026649352
41	0xbd14d2ee	-0.03633397
42	0xbe28ad4b	-0.16472356
43	0xbb980de0	-0.004640326
44	0xbcd1871a	-0.025577117
45	0x3c5ad1d0	0.013355687
46	0x3c66bd29	0.014083185
47	0xbe5e5dee	-0.21715519
48	0xbd40fa6a	-0.047113813
49	0xbd96b3f5	-0.07358543
50	0xbe09dbad	-0.13462706
51	0xbe29cc8a	-0.16581932
52	0xbd4b7d2e	-0.049679928
53	0x3d0a5ac8	0.033777982
54	0xbc9e84be	-0.019350406
55	0xbe075ac8	-0.13218224
56	0xbde579b0	-0.11204851
57	0xbdddbbb4	-0.10826817
58	0xbe5d5839	-0.21615686
59	0xbe1c6bea	-0.15275541
60	0xbcd97c19	-0.026548432
61	0xbe07df0c	-0.1326868
62	0xbe3278d8	-0.1742891
63	0xbd7835e6	-0.060598277
64	0xbde1c759	-0.11024351
65	0xbe05bace	-0.13059542
66	0x3c995c32	0.01872072
67	0xbcc2be44	-0.023772366
68	0x3dba21b7	0.09088462
69	0xbd83d21e	-0.06436561
70	0xbbf7e8a5	-0.007565575
71	0xbcc8e7d3	-0.024524605
72	0x3ca8b286	0.02059294
73	0xbd5b2157	-0.053498592
74	0x3d05c67a	0.032659985
75	0x3d2dab29	0.04239956
76	0xbd7d3e8c	-0.061827227
77	0xbdfaa1cd	-0.12237892
78	0xbcbc887e	-0.023014303
79	0xbe60330d	-0.21894474
80	0xbd3b3865	-0.04570808
81	0xbe1ce021	-0.15319873
82	0xbe5ecb22	-0.21757177
83	0x3c09894c	0.0083945505
84	0xbdce0f97	-0.10061567
85	0x3d8ec0f5	0.069703974
86	0xbda49fab	-0.08038267
87	0x3d6761c3	0.056489717
88	0xbd720306	-0.059084915
89	0xbd15945e	-0.036518447
90	0x3d9ed144	0.07754758
91	0xbe6db2a4	-0.23212677
92	0xbc34d06b	-0.011036019
93	0x3a07fb40	0.00051872805
94	0x3d0ffc46	0.035152696
95	0x3bc2f208	0.0059492625
96	0xbdd72a29	-0.10506088
97	0xbda88e8d	-0.082303144
98	0x3ccd0b7d	0.025029892
99	0xba7fa32c	-0.00097517925
100	0xbc60fa29	-0.013731518
101	0x3bde2576	0.006779368
102	0xbb46a63f	-0.0030311493
103	0x3c5dfd3c	0.013549145
104	0x3c6608aa	0.014040152
105	0xbd4c4cc5	-0.0498779
106	0x3d8a4716	0.0675184
107	0x3d6b43c3	0.05743767
108	0x3c07e90c	0.008295309
109	0xbd957d22	-0.07299258
110	0xbc844655	-0.016146818
111	0xbe2e8669	-0.17043461
112	0xbd1033d1	-0.035205666
113	0xbdd83007	-0.105560355
114	0x3d98b635	0.07456628
115	0xbe95d7c4	-0.2926618
116	0x3c719de3	0.014747116
117	0xbdbaa0c4	-0.09112695
118	0xbd0f934c	-0.035052583
119	0xbd054c13	-0.032543253
120	0xbdb2085b	-0.08693
121	0xbe3368f1	-0.175205
122	0xbdde3433	-0.108498
123	0xbdbc91d2	-0.092075005
124	0xb957acce	-0.00020568373
125	0xbe2e60f1	-0.17029168
126	0xbce52ff1	-0.027976962
127	0x3b2b438d	0.0026132793
128	0xbd8c9fb9	-0.06866402
129	0xbdbdee0b	-0.09273919
130	0xbd1ee39c	-0.038791284
131	0xbcac6954	-0.021046318
132	0x3a874af2	0.0010322018
133	0xbd9178e6	-0.07103138
134	0xbd8b8f7b	-0.06814476
135	0x3d396ccf	0.045269784
136	0xbd7db15c	-0.06193672
137	0x3bc00844	0.0058603603
138	0xbd9e260f	-0.07722103
139	0xbca287c2	-0.019840125
140	0xbd50d031	-0.050979797
141	0xbd9e4a2f	-0.07728993
142	0xbcaa3d7c	-0.020781271
143	0xbe3a5206	-0.18195352
144	0xbe0e009f	-0.13867424
145	0xbe12c9bd	-0.1433477
146	0x3cb37cc1	0.021910073
147	0x3d358d9f	0.044324514
148	0xbbba3963	-0.0056831106
149	0xbc99b728	-0.018764094
150	0xbd17c4b0	-0.03705281
151	0xbb1105f0	-0.0022128783
152	0xbd0d213e	-0.03445553
153	0xbcf9e92a	-0.03050669
154	0x3dddf804	0.10838321
155	0xbe2ed963	-0.17075114
156	0x3cad5c86	0.021162283
157	0xbb3259a0	-0.0027214065
158	0x3d612b31	0.05497283
159	0xbdeb6403	-0.11493685
160	0xbe56365a	-0.20919171
161	0xbe176b8c	-0.1478712
162	0xbd8b7ae9	-0.068105526
163	0x3c960912	0.018314872
164	0xbd7eec2b	-0.062236946
165	0xbd9fef82	-0.07809354
166	0xbd8641fa	-0.06555553
167	0x3ced3416	0.0289555
168	0x3c4ff105	0.012691741
169	0x3c85c396	0.016328614
170	0xbcc85397	-0.024453921
171	0xbcdd6542	-0.027025823
172	0x3d5ca25d	0.05386578
173	0xbd3b4ec0	-0.0457294
174	0x3d43de7a	0.047819592
175	0xbe0059d5	-0.12534268
176	0xbddc25cf	-0.10749399
177	0xbd9c7985	-0.076403655
178	0x3c33dd9d	0.01097813
179	0xbdbf377f	-0.09336757
180	0x3d344fcc	0.044021413
181	0xbd486096	-0.048920237
182	0xbd6ceb84	-0.057841793
183	0xbdb600a6	-0.088868424
184	0xbdbdc317	-0.09265726
185	0x3d5c12a9	0.053728733
186	0xbde9a4fd	-0.11408422
187	0xbde0c1c1	-0.109744556
188	0xbda51176	-0.08059971
189	0xbd812730	-0.063063025
190	0xbd233e43	-0.0398543
191	0xbcb26ce2	-0.021780435
192	0xbdbee201	-0.093204506
193	0xbd949493	-0.07254901
194	0xbc4a6210	-0.0123524815
195	0xbd5ed225	-0.05439963
196	0xbd651f02	-0.055937774
197	0xbc9cffec	-0.019165002
198	0xbd0a47f1	-0.033760015
199	0x3b99bfa9	0.004692037
200	0x3ca0b56c	0.019617759
201	0x3c0a7b1b	0.008452202
202	0xbdc1eae5	-0.09468631
203	0x3d66c8ef	0.05634397
204	0xbce1aa62	-0.027547065
205	0xbdb60501	-0.08887673
206	0xbd53920c	-0.051652953
207	0xbe5645e5	-0.209251
208	0xbdcb3be9	-0.09923536
209	0xbd1ef227	-0.038805153
210	0xbe3058bf	-0.17221354
211	0x3c81c1b9	0.015839444
212	0xbdb6745f	-0.08908915
213	0xbd3258f8	-0.04354188
214	0xbc52c646	-0.012864655
215	0x3d3e1a55	0.04641183
216	0x3c2f5de7	0.01070354
217	0xbba51a00	-0.0050385
218	0x3de50056	0.11181705
219	0xbe867951	-0.26264432
220	0x3c165774	0.009176124
221	0x3cc02b1a	0.023458052
222	0xbdae93f3	-0.08524313
223	0xbd40d17b	-0.047074776
224	0xbd70af40	-0.05876088
225	0xbdfc3075	-0.1231393
226	0xbb8f79ab	-0.0043785176
227	0xbc843e98	-0.016143128
228	0x3cc8efb1	0.024528356
229	0x3c315417	0.010823271
230	0xbd9fd0fe	-0.07803534
231	0xbcd05693	-0.025431907
232	0x3b83bb02	0.004020096
233	0xbc3538fc	-0.011060949
234	0xbcc38dfa	-0.02387141
235	0xbd5fafe9	-0.05461112
236	0xbd2e035c	-0.042483672
237	0xbdd3ae94	-0.103360325
238	0xbd8487d9	-0.064712234
239	0xbdb5e0ea	-0.088807896
240	0xbe51df82	-0.20495418
241	0xbd5f4837	-0.05451223
242	0xbcf48ac7	-0.02985133
243	0xbe62075a	-0.22073117
244	0xbba9d06b	-0.005182316
245	0xbe40c034	-0.1882332
246	0xbddd4243	-0.10803654
247	0xbe2072ca	-0.15668789
248	0xbdd1b5ad	-0.1023973
249	0xbd16e1fc	-0.03683661
250	0xbe1dac01	-0.15397646
251	0xbdf68952	-0.120379105
252	0x3c224e86	0.009906417
253	0xbd496739	-0.049170706
254	0xbdc2e95f	-0.09517168
255	0x3d0cdfee	0.034393243

sequential/dense_1/MatMul f4 [5, 128]
0	0x3e6d222d	0.23157568
1	0x3e666c44	0.22502238
2	0xbcdd6f29	-0.027030544
3	0xbe0f9e93	-0.14025335
4	0x3ec4a3eb	0.3840631
5	0xbde11f10	-0.10992253
6	0x3ef24757	0.47320053
7	0x3ec49873	0.3839756
8	0x3dd99e6e	0.10625921
9	0xbd25e7aa	-0.040504135
10	0xbdfa49de	-0.1222112
11	0xbe08456b	-0.13307731
12	0x3e3587dc	0.17727607
13	0xbd28db4c	-0.041224763
14	0x3d9a37f3	0.07530203
15	0xbf23f29b	-0.6404206
16	0x3d913c13	0.070915364
17	0xbea6967b	-0.32536682
18	0xbf03eccd	-0.51533204
19	0xbe9aaa3e	-0.3020801
20	0xbe0877d4	-0.13326961
21	0xbd255fbd	-0.040374506
22	0xbe8e025d	-0.27736178
23	0xbe501776	-0.2032145
24	0xbecd6ccb	-0.40122065
25	0xbf4929e3	-0.7857954
26	0xbe18ff95	-0.14941247
27	0x3e4afbc2	0.198226
28	0x3dcd1905	0.10014538
29	0xbc5ea5ed	-0.0135893645
30	0xbbe4fb1f	-0.006987944
31	0xbbac4d4d	-0.0052582384
32	0x3c8a3c24	0.01687438
33	0x3c0fa501	0.008767367
34	0xbe7c83af	-0.24659608
35	0x3e14dcbc	0.14537328
36	0x3dca6412	0.09882368
37	0xbed3cda9	-0.41367844
38	0xbf4ab4e5	-0.79182273
39	0x3e973b2f	0.2953734
40	0xbbf54806	-0.0074853925
41	0xbdbed353	-0.09317651
42	0x3dad2e49	0.08456094
43	0xbda4f24d	-0.08054028
44	0x3cc48435	0.023988822
45	0xbd1f13fe	-0.038837425
46	0xbee169b6	-0.44025964
47	0xbe370bba	-0.17875567
48	0xbcc08650	-0.023501545
49	0x3cd96bbe	0.026540633
50	0xbe2c732d	-0.16840811
51	0x3e3881e2	0.18018296
52	0xbbdc1c19	-0.0067172167
53	0xbcfe8c56	-0.031072777
54	0x3e3843d9	0.17994632
55	0xbedd745e	-0.43252844
56	0xbf873c62	-1.0565302
57	0x3f023d95	0.50875217
58	0xbf3283fe	-0.69732654
59	0xbe0e3818	-0.13888586
60	0x3f23b749	0.63951546
61	0x3e0d3223	0.13788657
62	0xbf4efbde	-0.8085307
63	0xbec267f5	-0.37969938
64	0xbeb9d47d	-0.36294928
65	0x3ef59aa6	0.4796955
66	0x3c7debe4	0.015498135
67	0xbe9b14df	-0.3028936
68	0x3e8dbe10	0.2768407
69	0x3e1db8cf	0.1540253
70	0xbed26536	-0.41092843
71	0xbe763435	-0.24043353
72	0xbcdf59c4	-0.027264483
73	0x3e4d6b2f	0.20060419
74	0xbe84c47a	-0.2593115
75	0xbf62b1b5	-0.8855241
76	0x3db809ef	0.0898627
77	0xbf1f2d1f	-0.62178224
78	0xbe31fa1b	-0.17380564
79	0x3c86267e	0.016375776
80	0x3ea6d0aa	0.32581073
81	0xbd9a163d	-0.07523773
82	0xbf227fe4	-0.63476396
83	0xbc156f95	-0.0091208415
84	0xbebaf38c	-0.36513937
85	0xbe331ab2	-0.17490652
86	0x3db96a43	0.09053471
87	0xbd1abc02	-0.037776954
88	0xbf9bfdf5	-1.2186877
89	0xbf5c2389	-0.8599172
90	0xbdcaed90	-0.09908593
91	0x3a9baad3	0.0011876471
92	0x3e06deda	0.13170949
93	0xbe3c9a1e	-0.18418166
94	0xbe474b2b	-0.19462268
95	0xbf34dbb8	-0.70647764
96	0xbd351d86	-0.04421761
97	0x3de26baf	0.11055695
98	0xbe7c8a76	-0.24662194
99	0x3e08a42a	0.13343874
100	0xbd44e212	-0.04806716
101	0x3e063555	0.13106282
102	0x3edb8dae	0.4288153
103	0xbf02ad81	-0.51045996
104	0xbe29d01d	-0.16583295
105	0xbe13cfbe	-0.14434716
106	0x3dd58447	0.104256205
107	0xbf127f42	-0.5722543
108	0xbee64706	-0.44976062
109	0x3e2921e0	0.16516829
110	0x3da639fb	0.08116528
111	0xbe676d71	-0.22600342
112	0xbdcee72e	-0.10102688
113	0xbefbad02	-0.49155432
114	0xbe101ca3	-0.14073424
115	0xbcfabf56	-0.030608814
116	0xbe27fa54	-0.16404086
117	0x3e0a06a0	0.1347909
118	0xbef63f74	-0.48095286
119	0xbedcbd85	-0.43113342
120	0x3e0bae67	0.13640748
121	0xbdf54feb	-0.11978134
122	0xbe49180f	-0.19638084
123	0xbdad9077	-0.0847482
124	0xbe14a94f	-0.14517711
125	0xbf0b15e1	-0.5433026
126	0xbd572e6d	-0.05253451
127	0xbd9bbcde	-0.07604383
128	0xbcb9af7f	-0.02266669
129	0xbf35ecc4	-0.710644
130	0x3d9d467f	0.07679462
131	0x3dc56fbf	0.096404545
132	0x3dc47a98	0.095936954
133	0xbf77352c	-0.9656551
134	0xbdd91fbe	-0.106017575
135	0x3e905d8d	0.28196374
136	0xbdce5bfd	-0.10076139
137	0xbf48f4b5	-0.78498393
138	0xbdd5dcc7	-0.104425006
139	0x3d50de42	0.05099321
140	0xbcdde515	-0.027086774
141	0x3e482b99	0.19547881
142	0xbd046ecb	-0.032332223
143	0x3e946720	0.28984928
144	0xbdf11124	-0.117708474
145	0xbc5a69ac	-0.013330858
146	0x3e93b1d9	0.28846624
147	0xbf072132	-0.5278503
148	0x3b0955ca	0.0020955675
149	0xbe3e21e8	-0.18567622
150	0xbf61b8a9	-0.88172394
151	0xbe10d80d	-0.14144917
152	0x3db43bd4	0.08800474
153	0xbf484491	-0.78229624
154	0xbe25a0fc	-0.16174692
155	0xbf12739a	-0.57207644
156	0x3d86ee3d	0.06588409
157	0xbdb6a404	-0.08918002
158	0xbd5eafe0	-0.054366946
159	0xbf4be318	-0.7964339
160	0xbd806a19	-0.062702365
161	0x3df951c9	0.121738024
162	0xbf105425	-0.56378394
163	0xbe037fc2	-0.12841704
164	0xbe61c6f1	-0.22048546
165	0xbe0d372a	-0.13790575
166	0x3e04599c	0.12924808
167	0xbc6cc43d	-0.014451084
168	0xbd7259ac	-0.05916755
169	0x3e256e5d	0.16155382
170	0xbda9814a	-0.08276613
171	0x3da997da	0.082809165
172	0x3dd8cd61	0.10586048
173	0xbe4f8ded	-0.20268984
174	0xbf4f2187	-0.80910534
175	0x3e1b88d2	0.15188912
176	0xbdf79ea4	-0.12090805
177	0xbd1ed3da	-0.038776256
178	0x3d93525e	0.07193445
179	0xbe39f2bb	-0.18159
180	0xbe051faa	-0.1300036
181	0x3e1e8c5b	0.15483229
182	0x3d4d0dd1	0.050062004
183	0x3c03bd7a	0.00804078
184	0xbeaecd94	-0.3414122
185	0x3ebad0d3	0.36487445
186	0x3e03b532	0.1286209
187	0xbf499263	-0.78738993
188	0xbe981ff4	-0.29711878
189	0xbb0b65f7	-0.0021270493
190	0xbf819920	-1.0124855
191	0x3e998e2d	0.29991284
192	0x3f1c0a66	0.60953367
193	0xbec6a896	-0.38800496
194	0xbf463e63	-0.77438945
195	0xbe553713	-0.2082179
196	0xbf4badb0	-0.795619
197	0x3da19cb5	0.078912176
198	0xbc2d6a90	-0.0105844885
199	0xbdedac02	-0.116050735
200	0x3e4310a7	0.19049321
201	0x3df609bc	0.120135754
202	0xbf2a742e	-0.66583526
203	0x3e7a302d	0.2443244
204	0x3e3a7405	0.1820832
205	0xbf47e937	-0.7809023
206	0x3d9e85df	0.07740378
207	0xbee79ebe	-0.45238298
208	0xbd8bc95b	-0.06825515
209	0x3dee3849	0.11631829
210	0x3c85facc	0.01635494
211	0x3dbd1928	0.09233314
212	0x3df55690	0.11979401
213	0x3e42d3d8	0.19026124
214	0xbbcdb421	-0.0062775766
215	0xbd90eadd	-0.070760466
216	0xbf524966	-0.8214325
217	0xbe0dcaf6	-0.13846955
218	0xbe4fbd63	-0.20287089
219	0x3e3ed861	0.1863723
220	0x3d4ae9de	0.04953944
221	0x3dc40941	0.095720775
222	0xbe1d5783	-0.15365414
223	0xbe6ab631	-0.22921063
224	0xbe0cbf23	-0.13744788
225	0x3e2b0de9	0.16704525
226	0xbe7ffa66	-0.24997863
227	0xbe211ae2	-0.15732911
228	0x3de6292c	0.11238322
229	0xbe011b83	-0.12608151
230	0x3ef133ce	0.47109836
231	0xbf14fb06	-0.5819553
232	0x3cd0e292	0.025498662
233	0x3e27f3c7	0.16401587
234	0x3d7b1efa	0.06130884
235	0xbec9ebf2	-0.39437824
236	0xbf45cb28	-0.77263117
237	0xbbb02c00	-0.005376339
238	0x3e0f6887	0.14004718
239	0x3da6306c	0.081147045
240	0xbef3c51f	-0.4761133
241	0x3cf9542d	0.030435646
242	0x3ddeed25	0.108850755
243	0xbf539922	-0.8265554
244	0x3e1ffb29	0.15623154
245	0x3da9f53b	0.08298727
246	0x3e2c25d6	0.16811308
247	0xbf62207b	-0.8833081
248	0x3c2af48c	0.010434281
249	0xbe30ac7c	-0.17253298
250	0xbd03c54f	-0.03217059
251	0x3dca71dc	0.09884998
252	0xbdd38ba6	-0.1032937
253	0xbea4d502	-0.32193762
254	0xbe9ac036	-0.3022477
255	0x3c8b7bae	0.017026749
