assets/ai_model/Master_CNN.tflite (tflite, 904292 bytes, 8 tensors)

sequential/conv2d/BiasAdd/ReadVariableOp f4 [32]
0	0x3daa23e7	0.08307629
1	0x3d763fae	0.060119323
2	0x3d9b009c	0.075684756
3	0x3e9a2452	0.30105835
4	0xbc93a2a7	-0.018021895
5	0xbe82c34b	-0.25539622
6	0xbe97220e	-0.2951817
7	0xbee03c03	-0.43795785
8	0x3eb8d514	0.36100066
9	0xbd074a7a	-0.03303001
10	0x3eac5cb7	0.33664486
11	0xbd88dc95	-0.06682698
12	0xbedf8533	-0.4365631
13	0x3e128231	0.14307477
14	0x3ed13868	0.40863347
15	0xbebc476e	-0.36773247
16	0xbd507f99	-0.050902937
17	0xbebfea83	-0.37483606
18	0x3d8fb9fe	0.07017897
19	0xbdd6bb2e	-0.104849204
20	0x3dfd6741	0.1237321
21	0xbda4e645	-0.08051733
22	0xbd408bea	-0.047008432
23	0xbeaf6cba	-0.3426264
24	0xbd0bb0c7	-0.034104135
25	0xbe59f209	-0.21283735
26	0xbd3b55d9	-0.045736168
27	0x3ca97700	0.020686626
28	0x3dca76fd	0.098859765
29	0xbe667e98	-0.22509229
30	0x3c21729a	0.009853983
31	0x3dad5762	0.084639326

sequential/conv2d_1/BiasAdd/ReadVariableOp f4 [64]
0	0x3e24f9a1	0.16110851
1	0x3be40fc2	0.0069598863
2	0x3e2f82e8	0.1713978
3	0x3d09d3db	0.033649307
4	0xbd515f9b	-0.051116567
5	0xbe85a6bc	-0.2610377
6	0xbb986a49	-0.004651342
7	0xbdced8dd	-0.10099957
8	0xbd709074	-0.05873151
9	0xbe73afb8	-0.237975
10	0x3d013e01	0.031553272
11	0xbd3a18c6	-0.045433782
12	0xbb61885c	-0.0034413552
13	0xbd0e46ac	-0.034735367
14	0xbd8ac807	-0.067764334
15	0xbc91895f	-0.017765699
16	0xbd538a9c	-0.05164586
17	0x3e038db0	0.12847018
18	0xbe41f8a9	-0.18942513
19	0xbd99dd5d	-0.07512925
20	0x3e6c69ad	0.23087187
21	0xbe8e7cd5	-0.27829614
22	0x3e034b36	0.1282166
23	0x3db8c6c0	0.090222836
24	0x3d51539d	0.05110513
25	0xbe887ce8	-0.26657796
26	0xbd13fc89	-0.03612951
27	0x3d54ba75	0.05193563
28	0xbdbaf5e1	-0.09128929
29	0x3cdbd5bc	0.026835315
30	0xbd9fd3c4	-0.07804063
31	0x3d84c964	0.06483725
32	0x3e015df3	0.12633495
33	0x3cd2da09	0.025738733
34	0x3df69291	0.12039674
35	0xbe0f4bbb	-0.13993733
36	0x3e0cca72	0.13749102
37	0x3e1b5f00	0.15172958
38	0xbe1b9938	-0.15195167
39	0x3c9a3068	0.01882191
40	0x3e5f261d	0.21791883
41	0xbe050426	-0.12989864
42	0x3d9ad14d	0.07559452
43	0xbe302c44	-0.17204386
44	0xbde5818e	-0.11206351
45	0xbd7e7b03	-0.062129032
46	0xbe7ada12	-0.2449725
47	0x3d868e6c	0.065701336
48	0x3e20bf8d	0.15698071
49	0xbdbf477b	-0.09339806
50	0xbe85bbdf	-0.26119897
51	0xbc75bab8	-0.0149981305
52	0xbd87350c	-0.06601915
53	0xbe03e1c5	-0.12879093
54	0x3de5e4f7	0.11225312
55	0x3d928b77	0.07155507
56	0xbd598155	-0.053101856
57	0xbda4cac8	-0.0804649
58	0xbe0e2025	-0.1387945
59	0xbd5f78d3	-0.054558586
60	0xbe80460d	-0.25053445
61	0x3dd382bc	0.1032767
62	0xbd690702	-0.05689145
63	0x3d9aae10	0.07552731

sequential/conv2d/Conv2D f4 [32, 3, 3, 3]
0	0x3d17e3a7	0.03708234
1	0x3d898a07	0.0671578
2	0x3e44bb69	0.19212116
3	0x3d532bfa	0.05155561
4	0xbd37fa95	-0.044916708
5	0xbcb16ed0	-0.021659285
6	0xbd29d947	-0.041466977
7	0xbda76998	-0.08174437
8	0xbe651d62	-0.2237449
9	0x3e849ce9	0.25900963
10	0x3e63bf20	0.22240877
11	0x3e27d87c	0.16391176
12	0x3e0bc71a	0.1365017
13	0x3e06bd0f	0.13158058
14	0x3e44c874	0.19217092
15	0xbec4c20d	-0.384293
16	0xbea06264	-0.31325066
17	0xbecb2b68	-0.39681554
18	0x3e8e7c1b	0.2782906
19	0x3ec15388	0.37759042
20	0x3ea8b23d	0.32948485
21	0xbe62330e	-0.22089788
22	0xbe33f1f7	-0.17572771
23	0xbe5dd961	-0.21664955
24	0xbd95cdc8	-0.0731464
25	0xbe334f1d	-0.17510648
26	0xbe4a1748	-0.19735444
27	0xbe555ea9	-0.20836891
28	0xbdc7affb	-0.097503625
29	0xbdc6aad1	-0.097005494
30	0x3ed17c82	0.40915304
31	0x3e97cc17	0.29647896
32	0x3e9f80e8	0.31153035
33	0x3eb20edc	0.34776962
34	0x3d7e017d	0.062013138
35	0x3e988afd	0.2979354
36	0xbea310dc	-0.318488
37	0xbe8c5325	-0.27407184
38	0xbe06b957	-0.13156639
39	0xbe95c4a1	-0.29251578
40	0xbebb8b7f	-0.36629865
41	0xbeae3d11	-0.34030965
42	0x3e0db142	0.1383715
43	0xbc8a134c	-0.016854905
44	0x3dd38380	0.10327816
45	0x3e90f26c	0.28309953
46	0x3e008fd2	0.12554863
47	0x3e2bef69	0.16790546
48	0xbe03d691	-0.1287482
49	0xbd53d119	-0.051713083
50	0xbdbe3a01	-0.09288407
51	0x3cd464c6	0.025926959
52	0xbd54f97b	-0.051995736
53	0xbdd3e34e	-0.10346089
54	0xbe6c8b5c	-0.23100036
55	0xbdb8e189	-0.090273924
56	0x3e3067a5	0.17227037
57	0xbdabaec9	-0.08382947
58	0x3d25939a	0.040423967
59	0x3e776c69	0.24162449
60	0xbe136ded	-0.14397402
61	0xbc462f00	-0.012096167
62	0xbe0becef	-0.13664602
63	0xbe5ae85c	-0.213777
64	0x38a8c864	8.04819e-05
65	0x3e283311	0.1642573
66	0xbcd40cc1	-0.025884988
67	0x3e2ecf79	0.17071332
68	0x3df0cfa9	0.11758358
69	0xbe5149b9	-0.20438279
70	0xbe172a67	-0.14762269
71	0xbd68aa23	-0.05680288
72	0xbd9a37ab	-0.07530149
73	0x3e3519c2	0.17685607
74	0x3e8a1771	0.2697101
75	0xbd3c7001	-0.046005253
76	0xbde8594a	-0.113451555
77	0xbbb0bec7	-0.005393836
78	0xbe927d90	-0.28611422
79	0x3d22e77a	0.039771535
80	0xbd8fc508	-0.070200026
81	0xbec7c631	-0.39018396
82	0xbe19a197	-0.15003048
83	0xbe179a9e	-0.14805076
84	0xbea57ff9	-0.32324198
85	0xbeac5a63	-0.3366271
86	0xbd350639	-0.044195388
87	0x3e6292de	0.22126338
88	0x3e88ed62	0.2674361
89	0x3d3283ea	0.043582834
90	0x3bd73281	0.0065673
91	0x3cfc48fc	0.03079652
92	0x3ea73434	0.32657015
93	0xbdc57173	-0.09640779
94	0x3daaa314	0.08331886
95	0xbe061f0c	-0.13097781
96	0xba85b229	-0.0010200191
97	0xbe3bca40	-0.18338871
98	0xbe849a2a	-0.25898868
99	0x3e304196	0.17212519
100	0x3defa360	0.11701083
101	0x3e8c0eae	0.2735495
102	0x3e3452c1	0.17609693
103	0xbd8ed7cc	-0.06974754
104	0x3d98fba9	0.07469875
105	0xbe243753	-0.1603673
106	0xbe522bdc	-0.20524544
107	0xbe41b132	-0.18915251
108	0xbded3c7c	-0.11583802
109	0x3cabae2f	0.02095708
110	0x3ccabd9f	0.024748622
111	0xbde68609	-0.11256034
112	0xbe1d1b87	-0.15342532
113	0xbdac2bfe	-0.08406828
114	0xbd991961	-0.07475544
115	0xbd8bc596	-0.06824796
116	0x3cdb1409	0.026742952
117	0xbde518b2	-0.11186351
118	0xbd73c039	-0.05950949
119	0x3de4c50a	0.11170395
120	0x3da34b19	0.07973308
121	0xbd580020	-0.052734494
122	0xbc946313	-0.018113649
123	0xbc36465e	-0.011125175
124	0xbc581268	-0.013187982
125	0xbdbce64b	-0.092236124
126	0x3d8ea5b6	0.069652006
127	0xbe14be05	-0.14525612
128	0xbe0f7ade	-0.14011714
129	0x3d3d3707	0.046195056
130	0x3c2b5b07	0.010458714
131	0xbdf7cfd8	-0.1210019
132	0xbd012190	-0.03152615
133	0xbdbf1cdd	-0.09331677
134	0xbc301f5f	-0.010749667
135	0xba26c8cc	-0.00063623185
136	0xbe12809d	-0.14306875
137	0xbdac88a5	-0.084245004
138	0x3e54929c	0.20759052
139	0x3dd20ec9	0.10256726
140	0x3e34efc2	0.17669585
141	0xbdec3001	-0.115325935
142	0xbd13ce5c	-0.03608547
143	0xbe43544f	-0.1907513
144	0x3e0ec06c	0.1394059
145	0x3dd61b62	0.104544416
146	0x3d7c61b5	0.06161662
147	0xbd578e23	-0.052625787
148	0xbe59b954	-0.21262103
149	0x3c046568	0.008080818
150	0xbc3ecf0b	-0.011646043
151	0xbe74e01e	-0.23913619
152	0xbd75c4d0	-0.06000215
153	0x3e2e9008	0.17047131
154	0x3c8c3824	0.017116614
155	0x3d533631	0.051565353
156	0xbe94821e	-0.29005522
157	0xbea4d846	-0.32196254
158	0xbd9fe982	-0.0780821
159	0xbcbcdc77	-0.023054345
160	0xbdf8fb83	-0.12157347
161	0xbe2f5e4a	-0.17125812
162	0x3d89a340	0.067205906
163	0x3c411d42	0.011786761
164	0xbdbe18e5	-0.09282092
165	0xbe0f8344	-0.14014918
166	0xbe3678e0	-0.17819548
167	0x3d8c4e19	0.068508334
168	0xbe8bf680	-0.27336502
169	0xbe18c641	-0.14919378
170	0xbe890600	-0.2676239
171	0x3e062163	0.13098674
172	0xbc6118e6	-0.013738846
173	0xbc97dd23	-0.018538063
174	0x3da15d5b	0.07879134
175	0x3d828f45	0.06374983
176	0x3d061f8b	0.032744925
177	0xbe559192	-0.20856312
178	0xbe38d2f2	-0.18049219
179	0xbe2ebc71	-0.17064072
180	0x3e22c63a	0.1589593
181	0x3e65b528	0.22432387
182	0x3e0b5ff7	0.13610826
183	0x3ebc7b4c	0.36812818
184	0x3e6e6064	0.23278958
185	0x3e776766	0.24160537
186	0x3e459e97	0.19298778
187	0x3d30ecd9	0.043194626
188	0x3dd741c8	0.10510594
189	0xbd3c98f4	-0.046044305
190	0xbc5ff828	-0.013670005
191	0xbd5a63bd	-0.053317774
192	0x3dac9e08	0.084285796
193	0xbd75d97c	-0.060021862
194	0xbe2dd470	-0.1697557
195	0x3d9c818b	0.07641896
196	0x3dbb85fb	0.09156414
197	0xbdf28602	-0.11841966
198	0xbca705b6	-0.020388465
199	0x3c2881b5	0.010284831
200	0xbd97ec19	-0.07418079
201	0x3e62ad7a	0.22136489
202	0x3def38a7	0.116807275
203	0xbc113813	-0.008863467
204	0x3e15d98d	0.1463377
205	0x3e325b27	0.17417584
206	0xbc99c031	-0.018768402
207	0xbbd39e7d	-0.0064581023
208	0xbda9e244	-0.0829511
209	0xbe7edcdd	-0.2488894
210	0x3cd8e858	0.026477978
211	0xbe1e9b42	-0.15488914
212	0xbe006461	-0.12538292
213	0x3de37978	0.11107153
214	0x3da09f52	0.07842888
215	0x3dbd7965	0.0925167
216	0xbeb8a1bf	-0.36060902
217	0xbe27f2d6	-0.16401228
218	0xbeca6b2c	-0.3953489
219	0xbd493c25	-0.049129624
220	0xbd419a7b	-0.047266465
221	0x3c5a4c06	0.013323789
222	0x3e0e33bd	0.13886924
223	0xbd40108f	-0.04689079
224	0xbaecbb28	-0.0018061148
225	0xbee52e42	-0.44761854
226	0xbea8f160	-0.32996655
227	0xbeae5198	-0.34046626
228	0x3ca833d5	0.020532528
229	0xbdf27786	-0.118392035
230	0xbdba973a	-0.091108754
231	0x3e4780b8	0.19482696
232	0x3dc8af0f	0.09799015
233	0x3e82a404	0.2551576
234	0xbec339de	-0.38130087
235	0xbdbbb9d3	-0.091663025
236	0xbe0374ce	-0.12837526
237	0x3d03a043	0.03213526
238	0x3e743561	0.23848487
239	0x3e014dbe	0.12627313
240	0x3e75a6ea	0.23989454
241	0x3ed3535f	0.41274545
242	0x3ee1d3f1	0.4410701
243	0xbeb46a9f	-0.35237595
244	0xbecd7f18	-0.40136027
245	0xbe9e630a	-0.30934936
246	0x3e51fffd	0.20507808
247	0x3e933199	0.28748778
248	0x3e98c456	0.29837292
249	0xbe8d8f2b	-0.2764829
250	0xbe43fbcf	-0.19139026
251	0xbcfd6644	-0.030932553
252	0x3d3a29ba	0.04544995
253	0xbd50320d	-0.050828982
254	0x3e0ea330	0.13929439
255	0x3e2f0770	0.17092681

sequential/conv2d_1/Conv2D f4 [64, 3, 3, 32]
0	0xbc86f140	-0.016472459
1	0xbe3b859e	-0.1831269
2	0xbe459b27	-0.19297467
3	0xbe369af0	-0.17832541
4	0x3d668452	0.056278534
5	0x3b291504	0.002579988
6	0x3e955512	0.29166466
7	0xbd769136	-0.060197078
8	0x3d8a7bad	0.067618705
9	0x3e724409	0.23658766
10	0xbe54047a	-0.20704833
11	0xbed8931a	-0.4229973
12	0xbe78a79c	-0.24282688
13	0x3e8702f2	0.26369435
14	0xbeb80952	-0.3594461
15	0x3d4bdd29	0.04977146
16	0xbea9ca20	-0.33162022
17	0x3e070ec6	0.1318923
18	0xbdaee481	-0.085396774
19	0x3e12355b	0.14278166
20	0xbd1aeb14	-0.037821844
21	0x3db89f8f	0.090148084
22	0xbe977cde	-0.29587454
23	0x3d945022	0.072418466
24	0xbd94f912	-0.07274069
25	0x3e8b01d0	0.2714982
26	0xbe3de362	-0.18543771
27	0x3d4db6ad	0.05022304
28	0xbc60b981	-0.013716103
29	0x3e82b43a	0.25528127
30	0xbe8d2094	-0.27563918
31	0xbdfd8973	-0.12379732
32	0xbdb21693	-0.08695712
33	0x3e356bf7	0.17716967
34	0xbe0d0eb0	-0.13775134
35	0x3de52219	0.11188144
36	0x3dc24728	0.09486228
37	0x3daee25a	0.08539267
38	0x3d123b3d	0.035701025
39	0x3e1f891e	0.1557965
40	0x3d119418	0.035541624
41	0x3cf068af	0.029346792
42	0x3e70429e	0.23462912
43	0x3c110239	0.008850628
44	0x3e698122	0.22803167
45	0x3db0d436	0.08634226
46	0xbee1fbaf	-0.44137332
47	0xbe06ae09	-0.13152327
48	0xbe7b7915	-0.24557908
49	0x3d750fc0	0.059829473
50	0xbd96f49e	-0.07370876
51	0xbda893ee	-0.0823134
52	0xbb92350c	-0.00446189
53	0xbde36f9e	-0.11105274
54	0x3e340b7b	0.17582504
55	0x3e06c2f6	0.13160309
56	0x3d2870cc	0.041123196
57	0x3e9cffd3	0.30663928
58	0xbda49aa8	-0.08037311
59	0x3d9fbc20	0.07799554
60	0xbc1719f1	-0.0092224935
61	0x3db66b85	0.089072265
62	0xbe4aa79a	-0.19790497
63	0xbd93d542	-0.0721841
64	0x3e3a3154	0.1818288
65	0xbe78aa9d	-0.24283834
66	0x3dcc0c98	0.099633396
67	0x3d30ffe3	0.043212783
68	0x3e08998d	0.13339825
69	0xbd953851	-0.07286132
70	0x3ceccf45	0.028907428
71	0x3d0a89f0	0.033822954
72	0xbe7e0562	-0.24806741
73	0xbc6d64bd	-0.01448935
74	0xbe1a3f15	-0.15063126
75	0x3d190697	0.0373598
76	0xbd195acf	-0.037440117
77	0x3a245cc9	0.00062699296
78	0xbe4e977c	-0.20174974
79	0xbc36d284	-0.011158589
80	0x3c8017eb	0.015636405
81	0x3de9d848	0.114182055
82	0x3de16286	0.1100512
83	0x3caf710e	0.021416213
84	0xbd0cee8d	-0.034407187
85	0xbe1422c1	-0.14466383
86	0xbcc85d40	-0.024458528
87	0x3dd4c670	0.103894114
88	0xbd08bb5f	-0.033381816
89	0xbdb0e746	-0.08637862
90	0x3e8db50e	0.27677196
91	0xbd555c4a	-0.052089967
92	0x3d5168c2	0.051125295
93	0x3c9a5fff	0.018844603
94	0x3e2ece4d	0.17070885
95	0xbd900939	-0.07033009
96	0xbe7d1876	-0.24716362
97	0xbe193d43	-0.14964776
98	0xbea56956	-0.32306927
99	0xbdf51006	-0.11965947
100	0x3cce8806	0.025211345
101	0x3e1548be	0.1457853
102	0x3db36bd5	0.08760802
103	0x3daae778	0.083449304
104	0xbe83acad	-0.2571768
105	0x3ce025c9	0.027361767
106	0x3d8b26a7	0.06794482
107	0x3e34dac8	0.17661583
108	0xbe8046a8	-0.25053906
109	0xbe1d6765	-0.15371473
110	0xbc8e2517	-0.01735167
111	0x3e4862c9	0.19568934
112	0x3e4c9cb9	0.1998166
113	0xbced57eb	-0.028972587
114	0x3bbb307c	0.005712567
115	0xbdd9cd58	-0.10634869
116	0xbd003895	-0.03130396
117	0xbcf16b9f	-0.029470263
118	0xbe919c4a	-0.28439552
119	0x3e104531	0.14088894
120	0x3e7601e3	0.24024157
121	0x3e0038c6	0.12521657
122	0xbe855e3b	-0.26048455
123	0x3da74131	0.08166731
124	0xbe9a70e1	-0.30164245
125	0x3d1cbae9	0.03826419
126	0x3e433460	0.19062948
127	0x3d050efe	0.032485
128	0x3d800f03	0.06252863
129	0x3e1ed203	0.155098
130	0x3dc2a16e	0.095034465
131	0x3d9e7688	0.07737452
132	0xbd04e7df	-0.032447692
133	0x3d99a1f5	0.07501594
134	0xbe7d59e1	-0.24741317
135	0xbdd30ddf	-0.1030538
136	0xbe255cab	-0.16148631
137	0x3e704faa	0.2346789
138	0x3df6237a	0.12018485
139	0x3ea1781a	0.31536943
140	0xbde29ef8	-0.11065477
141	0xbebdd284	-0.37074673
142	0xbe1721bb	-0.14758961
143	0xbd796e83	-0.060896408
144	0x3e2062a1	0.15662624
145	0xbd53ecab	-0.051739376
146	0xbd257105	-0.040390987
147	0xbe7bca5d	-0.24588914
148	0xbdb00268	-0.08594209
149	0xbd14af68	-0.036300093
150	0x3d7aa601	0.06119347
151	0x3d042b90	0.032268107
152	0xbd203bad	-0.03911941
153	0xbe85c3ed	-0.26126042
154	0x3d97c15e	0.07409929
155	0xbdcc6104	-0.09979442
156	0xbd1a86f5	-0.03772636
157	0xbe1f17bb	-0.15536396
158	0x3d02c493	0.03192575
159	0x3d9d9746	0.07694869
160	0xbd261cd1	-0.040554825
161	0x3e2cad59	0.16863002
162	0xbd48e155	-0.04904302
163	0xbd3e4491	-0.04645211
164	0xbd2e8727	-0.04260936
165	0xbd9c0119	-0.07617397
166	0xbe0c6876	-0.13711724
167	0xbdb0e0be	-0.08636616
168	0xbdaf5ee0	-0.08563018
169	0x3a83d474	0.0010057823
170	0xbebfc524	-0.37455094
171	0x3db9ddeb	0.090755306
172	0xba9204ad	-0.001114031
173	0xbdda1a68	-0.10649568
174	0xbd6e0e29	-0.058118973
175	0xbd2f26bc	-0.04276155
176	0x3ddff54b	0.10935458
177	0xbd777b6a	-0.06042043
178	0xbe569a3d	-0.20957275
179	0xbb9f24bf	-0.0048566754
180	0x3d575855	0.052574474
181	0xbb3d8c94	-0.0028922902
182	0x3d8f9ada	0.070119575
183	0x3c685beb	0.014182071
184	0xbc043717	-0.008069775
185	0xbeac77ee	-0.3368525
186	0x3e7ea3ff	0.24867247
187	0xbdc2fb27	-0.0952056
188	0x3d2e7377	0.042590585
189	0xbd8c9584	-0.06864455
190	0x3d37d193	0.0448776
191	0x3c2b9a07	0.010473735
192	0xbdfc626a	-0.123234585
193	0xbd265ac7	-0.040613916
194	0xbd293cbc	-0.041317686
195	0xbe06e69d	-0.1317391
196	0xbd27a822	-0.04093183
197	0xbe2b7070	-0.1674211
198	0xbd6cc252	-0.057802506
199	0x3d33e657	0.04392084
200	0xbc9ee325	-0.01939542
201	0xbd899666	-0.06718139
202	0x3e581bdc	0.21104378
203	0x3e31c4aa	0.17360178
204	0xbe25024a	-0.16114154
205	0xbe75e963	-0.24014811
206	0x3da3eee9	0.08004553
207	0xbca85eeb	-0.020553073
208	0x3dd9d9c7	0.10637241
209	0xbdd3fd37	-0.10351031
210	0xbcb65602	-0.022257809
211	0xbe3d5059	-0.18487681
212	0xbe2f38e7	-0.1711155
213	0xbdae3286	-0.0850573
214	0xbe88ed7d	-0.2674369
215	0x3b4d4c1d	0.0031325885
216	0xbdaf62f9	-0.085637994
217	0xbecfc2b2	-0.40578228
218	0xbe82a9f7	-0.25520298
219	0xbe5f30ec	-0.21796006
220	0xbea13598	-0.314862
221	0xbd6a66a0	-0.057226777
222	0x3d72c768	0.0592722
223	0xbcf20db8	-0.029547557
224	0x3ea5787c	0.32318485
225	0xbd5ed1e0	-0.05439937
226	0x3db89b1e	0.09013961
227	0xbec63750	-0.38714075
228	0x3d8d1020	0.06887841
229	0xbe9300b8	-0.28711486
230	0xbe2f1424	-0.17097527
231	0xbdbebfed	-0.09313951
232	0x3e4c58ce	0.19955751
233	0xbe59c69a	-0.21267167
234	0x3dde31c4	0.10849336
235	0xbd84054a	-0.06446321
236	0xbde53b83	-0.111929916
237	0xbdeb4ead	-0.114896156
238	0xbea7ea41	-0.3279591
239	0xbe29653d	-0.16542526
240	0x3d3ac1ad	0.04559486
241	0xbe0540ed	-0.13013048
242	0xbe7ceaf2	-0.24699
243	0xbd06639f	-0.03280985
244	0x3c03a054	0.008033831
245	0xbe10e43e	-0.14149567
246	0x3e8fcd51	0.2808633
247	0xbe0dc3d3	-0.13844232
248	0xbe07cea5	-0.13262422
249	0xbe939e6d	-0.28831807
250	0x3e246866	0.1605545
251	0xbdc23bb6	-0.09484045
252	0x3e2e2d78	0.17009532
253	0x3de31ccf	0.11089479
254	0xbe139abc	-0.14414495
255	0xbd92d9cb	-0.07170447

sequential/dense/BiasAdd/ReadVariableOp f4 [128]
0	0x3e84ac67	0.25912783
1	0x3dfc7ea7	0.123288445
2	0xbc4ac2b4	-0.012375522
3	0xbd431796	-0.047629915
4	0x3c0522c1	0.008125962
5	0xbe03bf4f	-0.12865947
6	0xbbd95009	-0.0066318554
7	0xbcba0f8e	-0.022712495
8	0xbbf47be1	-0.0074610566
9	0x3eadc7ac	0.339414
10	0x3e2ad329	0.16682114
11	0xbe3d94d7	-0.18513809
12	0xbd2334a5	-0.039845128
13	0xbd8e330a	-0.06943329
14	0x3ebd9e5d	0.37034884
15	0xbdc35b78	-0.09538931
16	0xbce9c428	-0.028535917
17	0xbc4bf0b4	-0.012447525
18	0xbbe0e4da	-0.0068632187
19	0x3de3ea1c	0.11128637
20	0xbc84e5e2	-0.016222898
21	0xbd17ba36	-0.03704282
22	0xbc262b30	-0.010142133
23	0x3be2cf0a	0.0069216536
24	0xbdacb6bd	-0.08433292
25	0x3ce8efe1	0.028434696
26	0xbcacb48e	-0.021082189
27	0xbcfa218a	-0.03053357
28	0xbc8c4d3d	-0.017126674
29	0xbd0d7e8a	-0.034544505
30	0x3d8d6e7a	0.06905837
31	0x3dc618f3	0.096727274
32	0x3dfe6ef2	0.12423505
33	0x3c5292d5	0.01285239
34	0x3e8d2abf	0.27571675
35	0xbe1a93a1	-0.15095378
36	0xbceebe99	-0.029143618
37	0x3cf080ea	0.029358346
38	0xbc23c330	-0.009995267
39	0xbc730ce6	-0.014834618
40	0xbc8e0924	-0.017338343
41	0x3e5e1521	0.21687748
42	0x3d2bdcec	0.041958734
43	0xbccbdb01	-0.024884703
44	0x3df92d03	0.121667884
45	0xbe5f0cbb	-0.217822
46	0xbd878982	-0.066180244
47	0xbca43f83	-0.020049816
48	0xbe05d750	-0.13070416
49	0x3edbdaae	0.42940277
50	0xbd6f6eca	-0.058455266
51	0xbd89be0e	-0.06725703
52	0xbd1fed68	-0.039044768
53	0xbbe67607	-0.007033113
54	0xbbdf09a0	-0.0068065673
55	0xbe88a361	-0.26687148
56	0xbc1edc54	-0.009696085
57	0xbe18459a	-0.14870301
58	0xbd04e4f6	-0.032444917
59	0x3ec39ca0	0.38205433
60	0xbd83a8ab	-0.06428655
61	0xbd14c44d	-0.03632002
62	0x3de22f21	0.110441454
63	0x3e16835b	0.14698546
64	0xbbe314f9	-0.0069299904
65	0xbd4db1f5	-0.05021854
66	0xbd380b1c	-0.04493247
67	0xbc17146c	-0.009221178
68	0x3e9ae294	0.3025099
69	0xbe344965	-0.17606123
70	0x3e023e4e	0.1271908
71	0xbd2dfaff	-0.042475697
72	0xbd2e9925	-0.04262652
73	0x3eaf5bf4	0.34249842
74	0xbce74d77	-0.02823518
75	0xbd9e2d6d	-0.07723508
76	0xbdb8059f	-0.08985447
77	0x3e52b0d9	0.20575275
78	0xbc31336c	-0.010815483
79	0xbe3ef13a	-0.18646708
80	0x3e353650	0.176965
81	0xbbb44b49	-0.0055021388
82	0x3ebee14d	0.37281266
83	0xbc1d1052	-0.009586411
84	0x3e3a3f37	0.18188177
85	0x3dbdee71	0.09273995
86	0xbc760af3	-0.015017259
87	0xbd0871d1	-0.03331167
88	0xbd444f53	-0.047927212
89	0x3eb28c22	0.34872538
90	0xbc867df7	-0.016417487
91	0xbbdb0048	-0.006683383
92	0x3d09d759	0.033652637
93	0xbc145a29	-0.009054699
94	0x3e13bf89	0.14428534
95	0x3cc630ba	0.024193157
96	0xbb163329	-0.0022918677
97	0xbd36abee	-0.04459756
98	0x3c34863f	0.011018335
99	0x3dc7b7d8	0.09751862
100	0x3da7bcdd	0.0819032
101	0xbda4c081	-0.0804453
102	0xbcc58729	-0.024112301
103	0x3d6aaa39	0.057291243
104	0xbd0a509b	-0.033768278
105	0xbe433823	-0.19064383
106	0x3df1c093	0.11804309
107	0x3e0f502d	0.13995428
108	0xbc3654cf	-0.011128618
109	0xbddc68ca	-0.107621744
110	0x3dfa7eec	0.1223124
111	0x3e8003c4	0.25002873
112	0xbe2c8de1	-0.16850998
113	0x3d91a4d5	0.07111517
114	0xbe0bc326	-0.13648662
115	0xbceadf6a	-0.028670985
116	0x3eaf2bdc	0.3421315
117	0xbbdadfef	-0.006679527
118	0xbd231ba2	-0.039821275
119	0xbd5ada4e	-0.053430848
120	0x3e903101	0.28162387
121	0xbd00218e	-0.031282
122	0x3dfb01d8	0.12256211
123	0xbd2fd7ab	-0.042930286
124	0xbced3efb	-0.028960695
125	0xbc4fa4bf	-0.012673556
126	0xbdc3d622	-0.09562327
127	0xbdc27c3e	-0.094963536

sequential/dense_1/BiasAdd/ReadVariableOp f4 [7]
0	0x3e6ce603	0.23134618
1	0xbd08fd1f	-0.03344452
2	0xbde9cbf9	-0.11415858
3	0xbf140f04	-0.5783541
4	0x3cf577ee	0.029964413
5	0x3e4ed675	0.20198996
6	0xbe22b21d	-0.15888257

sequential/dense/MatMul f4 [128, 1600]
0	0x3e7e3b39	0.24827279
1	0xbbac010b	-0.005249148
2	0x3e028390	0.127455
3	0x3d27a711	0.04093081
4	0xbd22450e	-0.039616637
5	0x3dc30254	0.095219284
6	0x3d31acb7	0.043377604
7	0x3c00e5c9	0.007867285
8	0xbcb01a36	-0.021496873
9	0xbe60c12b	-0.21948688
10	0x3eaedcee	0.3415293
11	0xbd05b830	-0.032646358
12	0xbe2d9dca	-0.16954723
13	0xbc96b2d6	-0.018395822
14	0xbb4841e1	-0.0030556845
15	0x3e4abfcf	0.19799732
16	0xbc74f3c7	-0.014950699
17	0x3d508ff6	0.05091854
18	0x3e092c09	0.13395704
19	0x3d8b7dbc	0.06811091
20	0x3d3584d1	0.044316117
21	0x3d74271c	0.05960761
22	0x3d96114d	0.073275186
23	0x3e16e268	0.14734805
24	0x3c71b631	0.0147529105
25	0x3e0a113e	0.1348314
26	0x3ebeb9ee	0.37251228
27	0xbd72d838	-0.059288234
28	0xbc1731a7	-0.009228147
29	0x3e3d8806	0.1850892
30	0xbbcb2e20	-0.006200567
31	0xbd68d0d9	-0.056839798
32	0x3df7ab85	0.12093262
33	0x3efb6241	0.490984
34	0x3e1b8151	0.15186049
35	0x3e9e3d24	0.30906022
36	0xbc963407	-0.018335355
37	0x3ece3643	0.40275773
38	0x3cb168c6	0.021656405
39	0x3d4fc9fd	0.05072974
40	0x3d7841c2	0.060609587
41	0x3cea2d71	0.028586121
42	0x3e307754	0.1723302
43	0x3e33d6fa	0.17562476
44	0x3c901acf	0.017590908
45	0x3d7b1c5d	0.061306346
46	0x3e8951d9	0.26820257
47	0xbd7c58a8	-0.061607987
48	0xb8445cbc	-4.6816407e-05
49	0x3c38dc3d	0.011282978
50	0x3d9de76c	0.07710156
51	0x3da6cad8	0.08144158
52	0x3e8abc47	0.2709677
53	0x3d137397	0.035998907
54	0x3e6daaad	0.23209639
55	0x3c7b911e	0.015354423
56	0x3b305fd3	0.0026912584
57	0x3e10ef6f	0.14153837
58	0xbc82cb90	-0.015966207
59	0x3d5dd33a	0.05415652
60	0xbca37a7e	-0.01995587
61	0x3e2a67d0	0.16641164
62	0xbcb9ef32	-0.022697065
63	0xba053752	-0.0005081791
64	0x3dd58210	0.10425198
65	0xbe539f6e	-0.20666286
66	0x3d929398	0.071570575
67	0x3e64cf0e	0.2234461
68	0x3d0864e1	0.03329933
69	0x3daf8b83	0.085715316
70	0x3e92d191	0.2867551
71	0x3db0d8d4	0.08635107
72	0x3d178ada	0.036997654
73	0xbe207116	-0.15668139
74	0x3efa42eb	0.4887918
75	0xbc2abaa0	-0.010420471
76	0xbd839e2a	-0.06426652
77	0xbc83d55a	-0.016092945
78	0xbcded7f1	-0.027202578
79	0x3dfc16e4	0.123090535
80	0x3dbd3cb7	0.09240096
81	0xbdec1ddb	-0.11529132
82	0xbdaf38d8	-0.08555764
83	0x3d0ab5bf	0.033864733
84	0x3dd4f355	0.103979744
85	0x3eb5be98	0.35496974
86	0x3dc00e40	0.09377718
87	0x3d74a1ef	0.059724744
88	0xbdddeaca	-0.10835798
89	0x3e2b8325	0.16749246
90	0xbe34201f	-0.17590378
91	0xbd28d45e	-0.041218154
92	0x3d3ba81e	0.045814626
93	0x3de9fae2	0.11424805
94	0x3cc80a45	0.02441896
95	0x3d390b5d	0.045176852
96	0xbdaab88b	-0.0833598
97	0xbe43dbe9	-0.19126858
98	0x3d6e4693	0.058172774
99	0x3e688bee	0.22709629
100	0x3dfc63b6	0.12323706
101	0x3e00d2b9	0.12580384
102	0x3e44087d	0.19143863
103	0x3d51d336	0.051226817
104	0x3d72a826	0.05924239
105	0x3c18071e	0.009279041
106	0xbe28ef05	-0.16497429
107	0x3eda606e	0.42651695
108	0x3afe585d	0.0019404996
109	0xbe97b7f4	-0.29632533
110	0x3e256070	0.16150069
111	0x3ce5f530	0.028071016
112	0x3d0efcb3	0.03490896
113	0x3d7c35a9	0.06157461
114	0x3e6182fc	0.22022623
115	0x3dbffa6b	0.09373935
116	0x3f0e2255	0.55521137
117	0xbd9f7940	-0.077867985
118	0xbd4aab48	-0.049479753
119	0x3e32a12b	0.17444293
120	0xbd164f6a	-0.03669683
121	0x3e3a3c5f	0.18187092
122	0xbe8a8451	-0.27054074
123	0x3b5e370f	0.003390733
124	0x3de3af07	0.11117368
125	0x3d00ade9	0.031415854
126	0x3c973ee5	0.018462608
127	0xbe50d963	-0.20395426
128	0xbe040de7	-0.12895928
129	0xbe22770c	-0.15865725
130	0x3ce6415d	0.02810734
131	0x3e80413c	0.2504977
132	0x3c297707	0.01034332
133	0x3db0561c	0.08610174
134	0x3d91f2a2	0.07126357
135	0x3c5345ec	0.012895089
136	0x3d2a7ff4	0.04162593
137	0xbd8927f5	-0.06697074
138	0x3e72faa1	0.2372842
139	0x3c7ae80c	0.015314113
140	0xbdc2d635	-0.09513513
141	0xbc39fc34	-0.011351634
142	0xbb99d7d7	-0.0046949196
143	0xbcaaabe2	-0.020833913
144	0x3d3f63a0	0.04672587
145	0xbe238923	-0.15970282
146	0xbe151b08	-0.14561093
147	0xbcf5fd74	-0.030028082
148	0x3dd1fb76	0.102530405
149	0xbc6fc28e	-0.014633788
150	0x3e479732	0.1949127
151	0x3c9f6bb2	0.019460533
152	0x3d344b4e	0.04401713
153	0x3df98910	0.12184346
154	0xbe8af481	-0.27139667
155	0xbe46cd23	-0.19414191
156	0x3d05c49f	0.032658216
157	0x3dba7324	0.091039926
158	0xbd03edbe	-0.03220915
159	0xbddadf49	-0.106871195
160	0xbead0ba4	-0.33797944
161	0x3d299da7	0.041410115
162	0x3df783ac	0.12085661
163	0xbdf473c0	-0.1193614
164	0x3e38db81	0.18052484
165	0x3db05e6c	0.086117595
166	0x3d865e24	0.06560925
167	0xbe06812d	-0.13135214
168	0xbcf168fd	-0.029469008
169	0x3d0d20ca	0.0344551
170	0xbe5eef5e	-0.21770999
171	0x3e324f72	0.17413118
172	0xbbf7cd94	-0.0075623486
173	0xbea83c52	-0.3285852
174	0x3cd671f8	0.026177391
175	0x3d272117	0.04080304
176	0x3d975836	0.07389872
177	0x3c473a72	0.012159931
178	0x3da74e20	0.08169198
179	0x3e42cd29	0.19023575
180	0xbc468aca	-0.012118051
181	0xbd1b72a7	-0.037951138
182	0xbd8d410d	-0.06897173
183	0x3f10bafd	0.5653532
184	0xbe07c929	-0.1326033
185	0xbd4a5e8c	-0.049406573
186	0xbee55ff3	-0.44799766
187	0x3db2e7aa	0.08735593
188	0x3da9dade	0.08293699
189	0xbdca152c	-0.098673195
190	0x3d1c32d2	0.038134404
191	0x3cb6bba7	0.022306276
192	0xbddedd55	-0.108820595
193	0xbe57105b	-0.21002333
194	0xbca67a7b	-0.020322075
195	0x3e2b1dbb	0.1671056
196	0xbd5e3f60	-0.054259658
197	0x3df83e48	0.12121254
198	0x3a14a258	0.0005669943
199	0x3c9f3fe0	0.019439638
200	0x3d589edd	0.05288588
201	0xbea2c23b	-0.3178881
202	0x3ea6c17d	0.32569495
203	0xbce66814	-0.0281258
204	0xbd9b5ca7	-0.075860314
205	0xbc6c6b71	-0.014429913
206	0x3d0fd027	0.03511062
207	0x3d00079f	0.031257268
208	0xbcdee9a9	-0.027211027
209	0xbc8ce359	-0.017198252
210	0x3da54fde	0.08071874
211	0x3c2e14b1	0.01062505
212	0xbe59776e	-0.21236965
213	0x3e5f097e	0.21780965
214	0x3eaa3666	0.33244628
215	0x3d874938	0.06605762
216	0xbe1ba996	-0.1520141
217	0xbae9d0c0	-0.0017838702
218	0xbd13cb10	-0.036082327
219	0xbcd02dfe	-0.025412556
220	0xbc920fab	-0.017829737
221	0xbdbe8efc	-0.09304616
222	0x3d80c9e1	0.06288505
223	0xbd2c8572	-0.04211945
224	0xbe50cc84	-0.20390517
225	0xbe513b98	-0.2043289
226	0xbcb2babd	-0.02181756
227	0xbe00871f	-0.12551545
228	0x3e6967df	0.2279353
229	0x3d9a3483	0.07529547
230	0xbd339005	-0.04383852
231	0x3e7548dc	0.23953575
232	0x3df7ef36	0.12106173
233	0x3c9938eb	0.018703898
234	0xbe01a5da	-0.12660924
235	0x3deb0468	0.1147545
236	0xbdde22da	-0.10846491
237	0xbeaf41a5	-0.3422977
238	0x3d5d152e	0.053975277
239	0xbe5ec5f9	-0.21755208
240	0x3dfd4cef	0.123681895
241	0x3b3a1ca2	0.0028398414
242	0x3cb31510	0.02186063
243	0x3d42697c	0.04746388
244	0xba7287e6	-0.0009251818
245	0xbe5a11ab	-0.21295802
246	0xbe038cf5	-0.1284674
247	0x3ee9a584	0.4563409
248	0xbd1a866e	-0.03772586
249	0xbe025aa7	-0.12729894
250	0xbe2d3bb7	-0.1691731
251	0x3d79081a	0.060798742
252	0x3d9f352e	0.07773815
253	0x3c6c6f2d	0.014430803
254	0x3cb0ad62	0.02156705
255	0xbe4d6b90	-0.20060563

sequential/dense_1/MatMul f4 [7, 128]
0	0x3ccad1a2	0.024758164
1	0x3df9b6e1	0.121930845
2	0x3e047d74	0.12938482
3	0x3e021384	0.12702757
4	0x3eac5a07	0.33662435
5	0xbe4b16a4	-0.19832855
6	0x3d345abe	0.04403185
7	0x3e1fab4a	0.15592685
8	0x3e46dd38	0.19420326
9	0x3e28ab3b	0.16471569
10	0xbd52c562	-0.05145777
11	0x3cd5483e	0.026035424
12	0x3d73c2e4	0.059512034
13	0xbd5b457e	-0.05353307
14	0x3ee2bee3	0.4428626
15	0xbd47d240	-0.048784494
16	0x3d1f8fc3	0.03895546
17	0xbe4452c0	-0.19172192
18	0x3e3773df	0.17915295
19	0xbf0d1ffa	-0.5512692
20	0x3d27d1ec	0.04097168
21	0xbe0b1c99	-0.13585128
22	0x3e4ef7c6	0.20211706
23	0x3e452a53	0.19254427
24	0xbdcd20a1	-0.10015989
25	0x3df64dbb	0.12026545
26	0x3c02f389	0.007992634
27	0xbdd03ee8	-0.101682484
28	0xbe3b8323	-0.18311743
29	0xbe0e5f20	-0.13903475
30	0x3d6afc18	0.05736932
31	0xbdb130ec	-0.08651909
32	0x3e1bb206	0.1520463
33	0xbe75d818	-0.24008214
34	0xbde7618e	-0.11297904
35	0xbe81ce3d	-0.2535266
36	0x3db76afc	0.089559525
37	0xbee8a7a7	-0.4544041
38	0x3e52ac68	0.2057358
39	0x3d3b9de4	0.045804873
40	0x3dcabba1	0.098990686
41	0x3ed40270	0.4140811
42	0xbe7a0fcd	-0.2442009
43	0xbc06ffd0	-0.008239701
44	0x3e00cf69	0.1257912
45	0xbedd22da	-0.43190652
46	0x3db6c73c	0.0892472
47	0x3e047f99	0.129393
48	0xbd83a314	-0.06427589
49	0x3e3c6eda	0.18401662
50	0xbf468598	-0.775476
51	0x3e0b8878	0.13626277
52	0xbdd8508b	-0.10562237
53	0xbd39135b	-0.045184474
54	0x3da1b1b4	0.07895222
55	0xbcfc7267	-0.03081627
56	0x3d4a02e4	0.049319163
57	0xbe5e79b7	-0.21726118
58	0x3c88a228	0.016678885
59	0x3d3c6fd9	0.046005104
60	0xbf179286	-0.5920795
61	0xbd3f8f60	-0.046767592
62	0xbe50ad84	-0.20378691
63	0x3c3ce18a	0.011528382
64	0xbe48da74	-0.19614583
65	0xbe42e719	-0.1903347
66	0xbd807b36	-0.062735006
67	0x3c9be0ed	0.019028151
68	0x3d883e7e	0.066525444
69	0xbe8e06ea	-0.2773965
70	0x3e8996df	0.26872918
71	0xbc25e662	-0.010125728
72	0xbd8a64c1	-0.067574985
73	0x3de06623	0.10956981
74	0xbd797d03	-0.060910236
75	0xbd573c5c	-0.052547798
76	0xbed9d9dc	-0.42549026
77	0x3d4f84fc	0.050663933
78	0xbdf8a8d2	-0.12141575
79	0xbe2eaf5a	-0.17059079
80	0xbca8d6ad	-0.020610178
81	0xbca54b73	-0.020177579
82	0x3cf3ca8b	0.029759666
83	0xbd45a9e9	-0.048257742
84	0x3e018a49	0.12650408
85	0x3dbe6304	0.092962295
86	0xbe0aab99	-0.13542022
87	0xbde26ae7	-0.11055546
88	0xbe28636c	-0.16444176
89	0x3e3cccea	0.18437544
90	0xbde1ccb7	-0.110253744
91	0x3c6c8488	0.014435895
92	0xbe008596	-0.12550959
93	0xbe48e0db	-0.19617026
94	0xbadefb73	-0.0017012194
95	0xbcdacc94	-0.026708879
96	0xbddb30bc	-0.10702655
97	0xbd7f25f2	-0.062292047
98	0x3e06a6c0	0.13149548
99	0xbd4bb021	-0.049728516
100	0x3bdc1bf8	0.0067172013
101	0xbdd54921	-0.10414339
102	0xbbe6228b	-0.007023161
103	0xbe266f20	-0.16253328
104	0x3cd3170e	0.02576783
105	0x3e7ba5ad	0.24574919
106	0x3dea57ad	0.11442504
107	0x3e4b9912	0.1988261
108	0x3e08fb14	0.13377029
109	0xbead74cf	-0.3387818
110	0x3debfb4f	0.11522543
111	0x3d1414e2	0.036152728
112	0xbe9860d2	-0.29761368
113	0x3e09c03e	0.13452241
114	0xbe4bcd2c	-0.19902486
115	0xbd905659	-0.070477195
116	0x3da6bc4b	0.08141383
117	0x3e3ed46a	0.18635717
118	0xbdeccfe7	-0.11563092
119	0xbe2a0e66	-0.16607055
120	0x3e56d7ef	0.2098081
121	0xbc2c7af1	-0.010527358
122	0x3e3053fd	0.17219539
123	0x3da19e5c	0.07891533
124	0x3d5068e1	0.05088127
125	0xbda78726	-0.081800744
126	0x3d12e06c	0.035858557
127	0xbdb17cfa	-0.086664155
128	0xbd51a3bb	-0.051181536
129	0xbf0f11b6	-0.558864
130	0xbe25590e	-0.16147253
131	0xbf151013	-0.5822765
132	0xbefc98ff	-0.49335477
133	0xbe0c0d3d	-0.13676925
134	0xbe2770cf	-0.16351627
135	0xbe3d9c0e	-0.18516561
136	0x3d890528	0.066904366
137	0xbc34fde8	-0.011046864
138	0x3ded2823	0.11579921
139	0x3e0a37ed	0.13497896
140	0xbd1d4538	-0.03839609
141	0xbdda0b89	-0.106467314
142	0xbf176039	-0.591312
143	0xbe8ff1d0	-0.28114176
144	0x3e3dbea3	0.18529753
145	0xbe11366c	-0.14180917
146	0x3d8bb478	0.06821531
147	0x3ecc1220	0.39857578
148	0xbe2a44ae	-0.16627762
149	0x3dd97986	0.10618882
150	0xbe46ab54	-0.19401294
151	0x3e2acd8f	0.16679977
152	0xbe96a617	-0.29423591
153	0x3ddc71af	0.10763871
154	0x3e3ac62b	0.18239658
155	0xbddb733d	-0.10715339
156	0x3eb308fe	0.34967798
157	0xbe92a44b	-0.2864097
158	0xbde8fe24	-0.113765985
159	0x3e165e9f	0.14684533
160	0x3e3d8e1d	0.18511243
161	0x3e95ddfb	0.2927092
162	0x3e6eacc0	0.23308086
163	0x3eabd87e	0.33563608
164	0xbd8ed87e	-0.06974886
165	0x3eb0e863	0.34552297
166	0xbe3790e6	-0.17926368
167	0x3a362236	0.0006947847
168	0x3da7fe35	0.08202783
169	0xbe024d86	-0.12724885
170	0x3e15fe10	0.14647698
171	0x3d8dfd3c	0.06933066
172	0x3e0521ae	0.13001129
173	0x3ecafd20	0.39646244
174	0xbc2f7a13	-0.010710257
175	0xbd55c6bf	-0.052191492
176	0xbdc2a23f	-0.09503602
177	0x3e1e6d1a	0.15471306
178	0x3e7c1cbc	0.24620336
179	0x3e04a9f5	0.12955458
180	0x3e227677	0.15865503
181	0x3ca05ae8	0.019574597
182	0xbdd493f4	-0.10379782
183	0xbe0027a7	-0.12515126
184	0xbd5629df	-0.052286025
185	0x3ee9a6ad	0.45634976
186	0x3d9bd1c7	0.07608371
187	0x3d16934e	0.036761574
188	0xbdf3a547	-0.118967585
189	0xbd961b33	-0.073294066
190	0x3e59a004	0.21252447
191	0xbe90c701	-0.28276828
192	0x3d1b8cf4	0.03797622
193	0xbe200758	-0.15627801
194	0x3ec0fe9c	0.37694252
195	0xbdac9994	-0.0842773
196	0x3db1f8c6	0.08690028
197	0xbbb09915	-0.0053893426
198	0x3daf214a	0.08551271
199	0xbcd56393	-0.026048457
200	0x3dc247c8	0.094863474
201	0xbd904926	-0.07045202
202	0xbe559568	-0.20857775
203	0x3e3903ef	0.18067907
204	0x3ef49c2e	0.47775406
205	0xbd2fa9c7	-0.04288652
206	0xbdc450d4	-0.09585729
207	0xbe3d4525	-0.18483408
208	0x3d1971d2	0.037462063
209	0x3d2f1741	0.042746786
210	0xbc8a4e9d	-0.016883189
211	0x3dce3bc4	0.10069993
212	0x3d0beb94	0.03416021
213	0x3def7cfc	0.11693761
214	0xbd8bd9df	-0.06828665
215	0xbdc4323d	-0.09579895
216	0xbc0bb6bf	-0.008527457
217	0xbf0d5196	-0.55202615
218	0xbb5d4bc0	-0.0033767074
219	0xbd2c8478	-0.04211852
220	0x3da21f48	0.07916123
221	0xbd781ae3	-0.060572516
222	0x3e773e6c	0.24144906
223	0xbe888108	-0.26660943
224	0xbe98cc58	-0.29843402
225	0x3e441b92	0.19151142
226	0xbeef2505	-0.4670793
227	0xbe7386f0	-0.23781943
228	0xbefe1b64	-0.49630272
229	0xbdd0f572	-0.10203065
230	0xbe37408e	-0.1789572
231	0xbdf0d790	-0.11759865
232	0xbda58b3e	-0.08083199
233	0xbd28a202	-0.041170128
234	0x3d723d16	0.059140287
235	0xbe967984	-0.29389584
236	0xbdef4515	-0.11683098
237	0x3e83bff9	0.257324
238	0x3e95ae72	0.29234654
239	0x3eaf2e35	0.3421494
240	0x3e463b54	0.1935857
241	0xbf0ce466	-0.5503601
242	0xbd46466e	-0.04840701
243	0xbe3625da	-0.17787877
244	0xbdf60cd6	-0.12014167
245	0xbccbeabc	-0.024892204
246	0xbe2bf1b7	-0.16791426
247	0x3e639046	0.22223005
248	0xbf40deee	-0.75340164
249	0x3d919b3c	0.07109687
250	0xbed46d64	-0.41489708
251	0xbe0f3ac0	-0.13987255
252	0x37ab3f9b	2.0414407e-05
253	0x3ebec120	0.37256718
254	0x3ea11367	0.31460115
255	0x3e802914	0.2503134
