assets/ai_model/multi_output__cnn_model.tflite (tflite, 981336 bytes, 12 tensors)

model_1/conv2d_2/BiasAdd/ReadVariableOp f4 [32]
0	0xbe82fdb6	-0.2558419
1	0xbda7110f	-0.081575505
2	0xbe1f9fb8	-0.15588272
3	0x3e1286a6	0.14309177
4	0x3cf4c84f	0.02988067
5	0x3c9acaac	0.01889547
6	0x3d18698d	0.037210036
7	0x3d930fa3	0.07180717
8	0xbea40192	-0.32032448
9	0x3bd1e90c	0.006405955
10	0xbcb1db86	-0.021711122
11	0xbc75984d	-0.014989925
12	0x3e87dd2f	0.26535937
13	0xbb616338	-0.0034391414
14	0xbcbc50e4	-0.02298779
15	0x3db92c2e	0.0904163
16	0xbe8a7dac	-0.27049005
17	0xbec595e5	-0.38590923
18	0x3d9b6542	0.07587673
19	0x3c480d94	0.0122102685
20	0xbe52b1cc	-0.20575637
21	0x3d76342c	0.06010835
22	0xbd1239ca	-0.035699643
23	0x3d6f1086	0.058365367
24	0x3dfdf427	0.12400084
25	0xbcccfab4	-0.025021888
26	0x3e0587a1	0.1304002
27	0xbf030ccc	-0.511914
28	0x3e00f3ca	0.12592998
29	0x3e13fce9	0.14451946
30	0x3e3c945a	0.18415967
31	0x3d44c5a5	0.04804005

model_1/conv2d_3/BiasAdd/ReadVariableOp f4 [64]
0	0xbd3e9601	-0.046529774
1	0x3d2be8f2	0.0419702
2	0x3c7e5fc2	0.01552576
3	0xbc0c17ed	-0.008550626
4	0x3d8aefb6	0.067840025
5	0xbdafba21	-0.08580423
6	0xbdad60a1	-0.08465696
7	0x3d0edc81	0.034878258
8	0x3db5fec6	0.08886485
9	0xbd4f04c3	-0.05054165
10	0xbcfa4642	-0.03055108
11	0xbdcbef90	-0.09957802
12	0xbdc9c5d3	-0.09852185
13	0x3d836bbb	0.06417032
14	0x3d351239	0.04420683
15	0x3c485217	0.012226603
16	0xbd920712	-0.07130255
17	0xbcd5f0f8	-0.02611588
18	0xbc111fa3	-0.00885764
19	0xbcf59249	-0.02997698
20	0xbcf2ec0a	-0.029653568
21	0x3d3ec0c9	0.046570573
22	0x3c7f9aa9	0.015600839
23	0xbdad7591	-0.0846969
24	0xbcd83e8f	-0.026397018
25	0x3daebe35	0.08532373
26	0xbb2d5c06	-0.0026452555
27	0xbd455861	-0.048179988
28	0x3dd82a4c	0.105549425
29	0xbd17486a	-0.036934294
30	0xbd892ed3	-0.06698384
31	0x3c0548b4	0.00813501
32	0x3b849c11	0.004046925
33	0xbd4ff8a0	-0.050774217
34	0xbd1289b8	-0.03577587
35	0x3c51aece	0.012798024
36	0xbc2968b8	-0.010339908
37	0x3ced7afc	0.028989308
38	0x3d35e765	0.04441013
39	0x3cbee007	0.023300184
40	0xbcc08737	-0.023501975
41	0xbd1cbee6	-0.038267992
42	0x3dab4acc	0.08363876
43	0xbd034b6a	-0.032054342
44	0xbc6ef545	-0.014584844
45	0x3d9207c0	0.071303844
46	0xbe26c3f7	-0.16285692
47	0x3d474f31	0.048659507
48	0xbd9625e8	-0.07331449
49	0x3c91b26f	0.01778528
50	0x3c811a9c	0.015759759
51	0xbdc617cd	-0.096725084
52	0x3daabb97	0.08336561
53	0x3c39e171	0.011345253
54	0x3d1f97cc	0.038963124
55	0xbdef9ec8	-0.11700207
56	0xbca5f637	-0.020259006
57	0xbd28f22b	-0.041246574
58	0x3c80860c	0.015688919
59	0xbd4b2133	-0.049592208
60	0xbc0bbfa4	-0.008529577
61	0x3c99ed7a	0.018789995
62	0xbd89625c	-0.06708214
63	0xbc8acc34	-0.016943075

model_1/conv2d_2/Conv2D f4 [32, 3, 3, 3]
0	0x3da20c07	0.0791245
1	0x3d9fb52e	0.07798229
2	0xbd22c44a	-0.039737977
3	0x3dfa8fc6	0.12234454
4	0x3d40bf8e	0.04705768
5	0x3c3c66be	0.011499105
6	0xbda32b1b	-0.07967206
7	0xbc1f8fc0	-0.0097388625
8	0x3d951511	0.07279409
9	0xbd8742b1	-0.06604517
10	0x3e1adc37	0.15123068
11	0x3dc5d31c	0.096594065
12	0x3e0b38bc	0.13595861
13	0x3d2048dc	0.039131984
14	0x3d62bb16	0.0553542
15	0x3e0eccc4	0.139453
16	0x3c2a32e4	0.01038811
17	0xbda7c229	-0.0819133
18	0x3def5b69	0.11687357
19	0x3d8b17f4	0.06791678
20	0x3d51b066	0.051193617
21	0x3dd22fe4	0.10263041
22	0x3d19b5b9	0.03752682
23	0x3cc7d48b	0.02439334
24	0x3cf66d12	0.030081306
25	0xbc27a9c5	-0.010233347
26	0xbc3c295d	-0.011484471
27	0x3dbf34e5	0.09336261
28	0x3dd27d09	0.10277755
29	0x3d8c3bd0	0.06847346
30	0xbe6d4705	-0.23171623
31	0xbe1cee1b	-0.15325205
32	0x3dba7029	0.09103424
33	0xbea5160a	-0.32243377
34	0xbe707a1f	-0.23484086
35	0xbd18c7c9	-0.037299905
36	0xbe11e9a9	-0.1424929
37	0xbda48f5f	-0.08035158
38	0x3e191b75	0.1495188
39	0xbe0f6041	-0.14001562
40	0xbc8d1e8b	-0.017226478
41	0xbbcc30b6	-0.0062313927
42	0xbe123715	-0.14278825
43	0xbdeab64d	-0.11460552
44	0x3e13003e	0.14355561
45	0x3d5a1632	0.053243823
46	0x3d84f3ad	0.0649179
47	0x3deaf372	0.11472215
48	0x3df8ea4f	0.12154066
49	0xbd6c014c	-0.057618424
50	0x3e03b680	0.12862587
51	0x3e320d8d	0.17387982
52	0x3e3cb6e3	0.18429141
53	0x3e988d96	0.29795521
54	0xbc08e824	-0.008356128
55	0xbd12470a	-0.03571228
56	0xbe85faff	-0.26168057
57	0xbd030e71	-0.031996194
58	0xbd85b5e3	-0.06528833
59	0xbeadaa74	-0.33919108
60	0xbd9b49ec	-0.07582459
61	0xbe7983ee	-0.24366733
62	0xbe9b0c95	-0.30283037
63	0x3e6381ce	0.22217485
64	0x3d9124b0	0.07087076
65	0xbd9e3035	-0.077240385
66	0x3e5ec46d	0.21754618
67	0x3e1d501b	0.15362589
68	0x3d9000bc	0.0703139
69	0x3da47a88	0.080311835
70	0xbe41741d	-0.1889195
71	0xbe844664	-0.25834954
72	0x3e85db57	0.26143906
73	0x3e570310	0.20997262
74	0x3e644746	0.22292814
75	0x3e2fa445	0.17152508
76	0x3de05f17	0.10955637
77	0x3e033d74	0.12816411
78	0x3e325dbc	0.1741857
79	0x3d44462b	0.04791848
80	0x3e190c9b	0.14946215
81	0x3de5e5df	0.11225485
82	0xbc26ac95	-0.010172983
83	0xbe0a6d0c	-0.1351816
84	0x3e664b6e	0.22489712
85	0x3e0e86ac	0.1391856
86	0x3e111a79	0.14170255
87	0x3e972b4c	0.2952522
88	0x3e4461b8	0.19177902
89	0x3d2329ff	0.039834972
90	0xbd4d847b	-0.05017517
91	0xbe362362	-0.17786935
92	0xbe925e85	-0.28587738
93	0xbe20e0ab	-0.15710704
94	0xbe1e3b8b	-0.15452401
95	0xbd8a2626	-0.067455575
96	0x3c2d2409	0.0105676735
97	0xbddf305d	-0.108978964
98	0xbd58984d	-0.05287962
99	0xbbd59a8c	-0.0065186676
100	0xbe1f6b81	-0.15568353
101	0xbe1b7eb4	-0.15185052
102	0x3d6e2609	0.058141742
103	0xbcfdbd51	-0.030974062
104	0xbe182622	-0.14858297
105	0x3e37ba31	0.1794212
106	0x3dd967a4	0.10615471
107	0x3d2e86f7	0.04260918
108	0xbe129638	-0.14315116
109	0x3c23124b	0.009953092
110	0xbe0aac13	-0.13542204
111	0xbe9c110f	-0.30481765
112	0xbe8f6046	-0.28003138
113	0xbe39e641	-0.18154241
114	0x3e124071	0.14282395
115	0x3da225fe	0.07917403
116	0x3b685e31	0.0035456533
117	0x3d91aa95	0.07112614
118	0x3d4e9510	0.050435126
119	0x3e1e7a04	0.15476233
120	0x3e00fba8	0.12595999
121	0xbdf1894a	-0.11793764
122	0x3c7f38c6	0.015577501
123	0xbdfb23cc	-0.12262687
124	0xbe279df8	-0.16368854
125	0xbe7cc2f0	-0.24683738
126	0xbd8c5fb9	-0.06854195
127	0x3d94e924	0.072710305
128	0x3c3d5520	0.01155594
129	0x3e88314f	0.2660012
130	0x3ea3b6ce	0.31975406
131	0x3e52c0a1	0.20581295
132	0xbceb04e9	-0.028688865
133	0x3e11aa76	0.14225182
134	0x3e52609d	0.20544668
135	0x3e3cb7d5	0.18429501
136	0x3ddd1616	0.10795228
137	0xbd442493	-0.047886442
138	0x3d8419f4	0.06450263
139	0x3e85cccf	0.2613282
140	0x3e46e188	0.19421971
141	0x3dc60bea	0.09670241
142	0x3e7a1fe7	0.24426232
143	0x3da0eb23	0.07857349
144	0xbd793ddb	-0.060850006
145	0x3c8045ea	0.015658338
146	0x3dbcb27d	0.092137314
147	0xbd932b78	-0.071860254
148	0x3b05a71f	0.0020393801
149	0x3dddc962	0.10829426
150	0x3d87b577	0.066264085
151	0x3d841f32	0.064512625
152	0x3d3c1a71	0.045923654
153	0xbea09b1d	-0.31368342
154	0xbe44bd5d	-0.19212861
155	0xbe41a591	-0.18910815
156	0xbea001ce	-0.31251377
157	0xbe16bed9	-0.1472124
158	0xbe0a7059	-0.1351942
159	0xbe4b2b5e	-0.19840762
160	0xbd2f1b46	-0.04275062
161	0x3df737ff	0.12071227
162	0x3c90f990	0.017697126
163	0x3d4da94c	0.050210282
164	0xbe265342	-0.16242698
165	0xbe4aa362	-0.19788888
166	0x3c8c81a2	0.017151657
167	0xbe72987c	-0.2369098
168	0x3da3de2f	0.080013625
169	0x3deac09b	0.11462518
170	0xbe1729e9	-0.14762081
171	0x3dd82b65	0.10555152
172	0x3dcf35e7	0.10117703
173	0x3c0ac83b	0.00847059
174	0xbd16fac3	-0.03686024
175	0xbcc12ff9	-0.023582445
176	0xbe3872a7	-0.18012486
177	0xbe691978	-0.22763622
178	0xbd9b3713	-0.07578864
179	0x3ccfed16	0.025381606
180	0xbe4ef818	-0.20211828
181	0xbe0a58c1	-0.1351042
182	0x3b2b24e6	0.0026114522
183	0x3dd50842	0.10401966
184	0x3e5f15c3	0.21785645
185	0x3e937674	0.2880131
186	0x3c2246dd	0.00990459
187	0x3e873dbe	0.26414293
188	0x3e783f35	0.24242862
189	0x3e2701d6	0.16309294
190	0xbd58f9f1	-0.052972738
191	0x3e003df2	0.1252363
192	0xbbcb89b9	-0.006211486
193	0x3d786289	0.060640845
194	0xbdb195eb	-0.08671173
195	0x3e7a8487	0.24464618
196	0x3d8e2dc0	0.0694232
197	0x3d1ea459	0.038730953
198	0xbe78ff82	-0.24316218
199	0xbe49ea17	-0.19718204
200	0xbe0969d6	-0.1341928
201	0xbe6200f9	-0.22070684
202	0xbdba612a	-0.09100564
203	0xbd315df0	-0.043302476
204	0x3e9e2c06	0.30892962
205	0x3e54160a	0.20711532
206	0x3e2617fd	0.16220088
207	0xbe38559d	-0.18001409
208	0xbdb73311	-0.08945287
209	0xbe2a402c	-0.16626042
210	0xbdd1c9b0	-0.10243547
211	0xbe2b6f02	-0.16741565
212	0x3c3a8eb9	0.011386567
213	0x3e401c4d	0.18760796
214	0x3d5b4b85	0.053538818
215	0x3d71916c	0.058976576
216	0x3e21a887	0.15786944
217	0x3d147e54	0.03625329
218	0x3d2d9210	0.042375624
219	0x3d09af08	0.03361419
220	0xbda38ad4	-0.07985464
221	0xbd884bb5	-0.06655065
222	0xbe15aaad	-0.14615889
223	0x3c9ce4a1	0.019151988
224	0xbe547c9a	-0.20750657
225	0x3e148bbd	0.14506431
226	0x3e2ffdcd	0.17186661
227	0x3d30bb98	0.043147653
228	0x3e540015	0.20703156
229	0x3c52c916	0.012865325
230	0xbd2195cd	-0.0394495
231	0x3e06c931	0.13162686
232	0x3d5b53ea	0.053546824
233	0x3ccfc08f	0.025360374
234	0x3e21f577	0.15816294
235	0x3d8bf287	0.06833368
236	0x3cf2e9b5	0.029652456
237	0xbdadb006	-0.084808394
238	0x3d0c21a3	0.034211766
239	0x3d86821e	0.06567787
240	0xbe3607f0	-0.17776465
241	0x3db68388	0.08911806
242	0xbd433e8b	-0.047667067
243	0xbe0b57ec	-0.13607758
244	0x3e13b2b7	0.14423643
245	0x3d7bf687	0.061514404
246	0xbc8a5e0f	-0.016890554
247	0xbe01a67e	-0.12661168
248	0xbd8740f9	-0.066041894
249	0x3e630735	0.22170718
250	0x3e3eaf1d	0.18621488
251	0xbd8371c3	-0.06418183
252	0xbed6e625	-0.4197246
253	0xbe70febc	-0.23534673
254	0xbec9d148	-0.3941748
255	0xbd80f87d	-0.062973954

model_1/conv2d_3/Conv2D f4 [64, 3, 3, 32]
0	0x3e05bbfc	0.13059992
1	0x3d95d405	0.0731583
2	0xbdf21558	-0.11820477
3	0xbe9445cf	-0.2895951
4	0xbe6aba43	-0.22922616
5	0xbd140315	-0.03613575
6	0xbcce5f22	-0.025191847
7	0xbe0f242d	-0.13978644
8	0x3e12db89	0.14341559
9	0xbd28405d	-0.041077007
10	0xbe06eabf	-0.13175486
11	0xbe135ae5	-0.14390142
12	0xbd6a164f	-0.05715018
13	0x3d9a18a8	0.07524234
14	0x3c6f060c	0.014588844
15	0xbdc9790c	-0.09837541
16	0xbb00326f	-0.001956131
17	0x3dd75362	0.10513951
18	0x3e912a27	0.28352472
19	0x3dc6b709	0.0970288
20	0xbe2eaad4	-0.17057353
21	0xbe1aa23c	-0.1510095
22	0x3e0e1fa4	0.13879257
23	0xbd6f6468	-0.058445364
24	0x3ea12897	0.3147628
25	0x3ddd62dd	0.10809872
26	0xbdc32302	-0.095281616
27	0x3e0b11a6	0.13580951
28	0xbe58a1c1	-0.21155454
29	0xbef68746	-0.4815008
30	0xbea81b61	-0.32833388
31	0x3e1e4086	0.15454301
32	0xbd04bf99	-0.032409284
33	0xbe21142d	-0.15730353
34	0xbe32b824	-0.17453057
35	0xbd91e3fa	-0.07123561
36	0xbea15983	-0.31513605
37	0x3e6a8668	0.22902834
38	0xbe4e74cd	-0.20161743
39	0x3df216fd	0.11820791
40	0x3d2cc62b	0.042181175
41	0x3e123feb	0.14282195
42	0x3e1bd38f	0.15217422
43	0x3d274429	0.040836487
44	0xbe88f96a	-0.26752788
45	0xbd025be8	-0.03182593
46	0xbdb30479	-0.087410875
47	0x3df98426	0.121834084
48	0xbcaa3252	-0.020775948
49	0x3ce672c5	0.028130898
50	0x3e890821	0.26764014
51	0xbcb7182a	-0.02235039
52	0xbdce38d5	-0.100694336
53	0x3e2afba1	0.16697551
54	0x3e2ce4ba	0.16884127
55	0x3dbebb0e	0.093130216
56	0x3e7d349a	0.24727097
57	0xbdf9c834	-0.12196389
58	0xbe38bc55	-0.18040593
59	0xbd8d1fcc	-0.068908304
60	0x3e00d421	0.12580921
61	0xbe74219d	-0.23840947
62	0xbe0ade5d	-0.13561387
63	0x3e65374e	0.22384378
64	0x3da438db	0.08018657
65	0xbea32015	-0.31860414
66	0xbe9b3b64	-0.3031875
67	0xbdd67766	-0.10471992
68	0xbe3dd855	-0.18539555
69	0xbe36430b	-0.17799012
70	0xbcb5a78c	-0.02217462
71	0xbdf86d39	-0.121302076
72	0xbd4c2858	-0.049843162
73	0x3d3ffeca	0.046873845
74	0xbe6464e2	-0.22304109
75	0x3dfbe3aa	0.12299283
76	0xbee69323	-0.4503413
77	0xbe4e457c	-0.20143694
78	0xbc716b8b	-0.014735113
79	0xbe53caa3	-0.20682769
80	0xbd928571	-0.07154358
81	0xbd86afc2	-0.06576492
82	0xbdd81cb5	-0.105523504
83	0xbec40379	-0.382839
84	0xbe09f556	-0.13472494
85	0xbcc661bc	-0.024216525
86	0xbe3c3755	-0.18380482
87	0x3e0e87d0	0.13918996
88	0xbed54ed7	-0.41661713
89	0xbe97f872	-0.29681736
90	0xbe8ffa22	-0.28120524
91	0xbe8caa10	-0.27473497
92	0x3ce1c9f2	0.027562115
93	0xbea5437c	-0.3227805
94	0xbeaf06f0	-0.3418498
95	0xbe68642b	-0.22694461
96	0x3dd61033	0.104523085
97	0x3e368945	0.17825802
98	0x3b36732e	0.0027839649
99	0xbf06dadf	-0.5267772
100	0x3e0291b0	0.12750888
101	0xbea94b17	-0.33065102
102	0x3e38ba8e	0.18039915
103	0xbf1af389	-0.60527855
104	0x3e8482b1	0.2588096
105	0xbeb01080	-0.34387589
106	0xbe4831f8	-0.19550312
107	0xbe99f076	-0.3006627
108	0xbea8635a	-0.328883
109	0x3e23201c	0.15930218
110	0x3cd3dd57	0.025862379
111	0xbe9006b6	-0.2813012
112	0x3deafe34	0.11474267
113	0x3e014488	0.12623799
114	0x3e89584c	0.26825178
115	0x3dd98e18	0.10622805
116	0xbd4934a4	-0.049122468
117	0xbe245b0a	-0.16050354
118	0x3e7022b1	0.23450734
119	0x3e0fd040	0.14044285
120	0x3f00f2b5	0.5037034
121	0x3e34f9bc	0.17673391
122	0xbe2aeec7	-0.16692649
123	0x3e9ae93a	0.30256063
124	0xbee079f9	-0.43843058
125	0x3e1a01d4	0.1503976
126	0xbbb252d8	-0.0054420047
127	0x3dc25559	0.09488935
128	0x3d197bbe	0.037471525
129	0x3e7f441d	0.24928327
130	0x3e83997d	0.2570304
131	0x3e21182b	0.15731876
132	0x3e87ff88	0.26562142
133	0xbeae1638	-0.34001327
134	0x3e2c7417	0.1684116
135	0x3e6ecd26	0.23320445
136	0x3dbf4cda	0.0934083
137	0x3e92ef66	0.28698272
138	0xbec67f8e	-0.38769192
139	0xbd9858fa	-0.07438846
140	0xbb2d2ed3	-0.0026425614
141	0x3e39cbf7	0.18144213
142	0xbc9f5d03	-0.019453531
143	0x3e50a08f	0.20373748
144	0xbd16db63	-0.036830317
145	0x3caf08ef	0.021366565
146	0x3ec46e30	0.38365316
147	0x3e20bf07	0.15697871
148	0xbd2429ee	-0.04007905
149	0x3e5956b1	0.21224476
150	0x3e3587ee	0.17727634
151	0x3e904407	0.281769
152	0x3cf203db	0.029542854
153	0x3d915c50	0.07097685
154	0x3e5979a4	0.21237808
155	0x3dbfa827	0.093582444
156	0x3b98ee55	0.0046670833
157	0x3f132f99	0.57494503
158	0x3e2993c0	0.16560268
159	0x3ea8d9d7	0.329787
160	0x3d600858	0.054695457
161	0x38299489	4.0431074e-05
162	0x3d941b77	0.07231801
163	0x3e793d7f	0.24339865
164	0x3b2f20f6	0.0026722527
165	0xbe72976a	-0.23690572
166	0xbd599cdc	-0.05312811
167	0xbe84b259	-0.25917318
168	0x3d1d1e28	0.038358837
169	0x3da7150c	0.08158311
170	0xbe4a2aed	-0.19742937
171	0x3d9085de	0.07056783
172	0xbc88086c	-0.016605578
173	0x3a9b6f01	0.0011858643
174	0x3c37a481	0.011208654
175	0xbd3d713a	-0.04625056
176	0xbd78f26f	-0.060778078
177	0x3e149f5d	0.14513917
178	0xbe0a8ffc	-0.13531488
179	0xbdfc43b9	-0.123176046
180	0x3c565453	0.013081628
181	0xbdb37380	-0.08762264
182	0xbdd4a384	-0.10382751
183	0x3e554d14	0.20830184
184	0xbede1b64	-0.43380272
185	0xbe00f39a	-0.12592927
186	0x3e5c0762	0.21487191
187	0x3b103a8c	0.0022007553
188	0xbe78134e	-0.24226114
189	0x3e8aac81	0.27084735
190	0x3c997627	0.018733097
191	0xbe7cf4c3	-0.24702744
192	0x3ddf4177	0.10901158
193	0xbe4f6790	-0.2025435
194	0xbd3b835a	-0.045779563
195	0xbd73f388	-0.05955842
196	0xbe924662	-0.28569323
197	0x3e510cf2	0.20415094
198	0xbe6d3b84	-0.23167235
199	0x3ce2ad9c	0.027670674
200	0x3db72861	0.089432485
201	0xbd6b6dd7	-0.0574778
202	0x3e7a3083	0.24432568
203	0xbe1d19d9	-0.15341891
204	0x3e228712	0.15871838
205	0xbe3cdafe	-0.18442914
206	0x3ca23c9d	0.019804293
207	0xbe8f8c6b	-0.28036818
208	0x3db6372a	0.088972405
209	0x3d3b674a	0.0457528
210	0xbdb5086a	-0.088394955
211	0x3df0409c	0.11731073
212	0xbd77bcca	-0.060482778
213	0xbe24faed	-0.16111346
214	0xbd9efe76	-0.07763378
215	0xbe46345f	-0.19355915
216	0x3e909d1a	0.2824486
217	0xbd689ac9	-0.05678824
218	0xbcb62c65	-0.022237966
219	0x3dc82b80	0.09773922
220	0xbe136fa0	-0.1439805
221	0x3da65e58	0.081234634
222	0x3e2a1021	0.16607715
223	0xbde1f551	-0.110331185
224	0x3e34b1cb	0.17645948
225	0xbe2e9bc1	-0.17051603
226	0x3d7201a1	0.059083585
227	0xbbc78a80	-0.0060895085
228	0xbc52675f	-0.012842028
229	0x3c94e53a	0.01817571
230	0x3d17dec6	0.037077688
231	0xbaef9a9e	-0.0018280332
232	0x3e1a5eee	0.15075275
233	0x3d4a662b	0.04941384
234	0x3d40cab1	0.0470683
235	0x3e33e2cc	0.17566985
236	0x3e14b5db	0.14522497
237	0xbeb8465e	-0.35991186
238	0xbca64278	-0.020295367
239	0xbe16aa95	-0.1471351
240	0xbce6b526	-0.02816255
241	0xbd67b003	-0.056564342
242	0xbee78375	-0.4521748
243	0xbe1cca25	-0.15311487
244	0xbd3189b8	-0.04334423
245	0xbe64ff0d	-0.22362919
246	0xbe7e23fe	-0.24818417
247	0xbeac916a	-0.33704692
248	0xbeca31a1	-0.3949099
249	0xbe510748	-0.20412934
250	0xbd1727fb	-0.036903363
251	0xbd78d03c	-0.060745463
252	0x3ca3648e	0.01994541
253	0xbcaba926	-0.02095468
254	0xbdb4ce74	-0.0882844
255	0xbeae283f	-0.3401508

model_1/masterCategory_output/BiasAdd/ReadVariableOp f4 [7]
0	0x3d91ef31	0.071257
1	0xbcd54225	-0.026032517
2	0x3e5a0935	0.21292575
3	0xbe71fe70	-0.23632216
4	0x3d0dd488	0.034626514
5	0xbdba2b5d	-0.09090302
6	0x3d034dbb	0.03205655

model_1/gender_output/BiasAdd/ReadVariableOp f4 [5]
0	0xbde12726	-0.10993795
1	0x3da9812f	0.08276593
2	0xbd9659f5	-0.07341377
3	0xbe1b57bc	-0.15170187
4	0x3e3244ca	0.17409053

model_1/dense_1/BiasAdd/ReadVariableOp f4 [128]
0	0xbc87a5b6	-0.01655851
1	0xbcc6e221	-0.024277749
2	0x3e0380f2	0.12842157
3	0xbc6ae41e	-0.014336614
4	0xbc37cce4	-0.011218283
5	0xbc7f643d	-0.0155878635
6	0x3dfd0b80	0.12355709
7	0xbc9eb808	-0.019374862
8	0xbd0cd489	-0.034382377
9	0xbc81d7fa	-0.015850056
10	0xbbc09f59	-0.0058783707
11	0xbcbdaaa9	-0.023152666
12	0xbc557b38	-0.013029866
13	0x3dc15adb	0.094411574
14	0xbca3ab4c	-0.019979142
15	0xbc248214	-0.010040779
16	0xbd0ed8bd	-0.034874666
17	0xbd12044d	-0.035648633
18	0x3e2ae301	0.16688158
19	0xbc2b3eeb	-0.0104520125
20	0xbc225f28	-0.009910382
21	0xbd3f0ca1	-0.046642903
22	0xbd13c3fe	-0.036075585
23	0xbc4fa17c	-0.012672778
24	0xbd50bc2a	-0.050960697
25	0x3de58c60	0.11208415
26	0xbc93c8bb	-0.018040052
27	0x3e0b0f8d	0.13580151
28	0xbd13124d	-0.035906125
29	0xbc91d41f	-0.017801343
30	0xbccc2a2c	-0.024922453
31	0x3c9f3e7f	0.01943898
32	0xbc7b3a8b	-0.015333782
33	0xbbc4be70	-0.006004147
34	0xbc064f31	-0.008197592
35	0xbbd0d5b1	-0.0063731303
36	0xbbc65349	-0.006052409
37	0xbcae8a96	-0.021306317
38	0xbc00613e	-0.007835684
39	0x3dc3f71a	0.09568615
40	0xbbf1b9a9	-0.0073768687
41	0xbd4861b5	-0.048921306
42	0x3e1726a1	0.1476083
43	0x3d27ac58	0.040935844
44	0xbd4e0ca2	-0.050305016
45	0x3c92306a	0.017845351
46	0xbca2cf81	-0.019874336
47	0x3d13e29b	0.03610478
48	0xbc8986b4	-0.016787864
49	0x3dbcfd0a	0.09227951
50	0x3d50c4e6	0.050969027
51	0xbbd72cc7	-0.006566617
52	0xbbba0330	-0.0056766495
53	0x3d038ec4	0.032118574
54	0xbbd880ee	-0.0066071665
55	0x3e083a93	0.13303594
56	0xbc9d8fb1	-0.019233556
57	0x3db6a4b9	0.08918137
58	0xbd1c2968	-0.038125426
59	0x3e36c303	0.17847829
60	0xbc88a678	-0.016680941
61	0xbc212323	-0.009835037
62	0x3ca5acca	0.020223994
63	0xbcf8877f	-0.030338047
64	0xbc44cc29	-0.012011566
65	0xbcfa2bb3	-0.030538416
66	0xbbfbfbae	-0.0076899147
67	0x3e2526aa	0.1612803
68	0xbcb86817	-0.022510571
69	0xbde26518	-0.11054438
70	0x3db6b4a8	0.08921176
71	0xbd06d141	-0.032914404
72	0xbbe1fba1	-0.0068964516
73	0x3e899eac	0.2687887
74	0x3e6034ac	0.21895093
75	0xbc007eb9	-0.007842713
76	0xbc6f8575	-0.014619221
77	0xbbb7d6fb	-0.0056103445
78	0x3e1a410d	0.15063877
79	0xbc186e61	-0.00930366
80	0xbbd3c131	-0.006462239
81	0x3cd1b5ee	0.025599446
82	0xbc38c107	-0.01127649
83	0x3be9b9eb	0.007132759
84	0xbbc4c866	-0.0060053347
85	0x3cb156e0	0.02164787
86	0xbd167c4b	-0.03673963
87	0x3d3ddbf9	0.04635236
88	0xbcec803b	-0.028869739
89	0xbbcf5756	-0.00632755
90	0xbc16860d	-0.009187234
91	0xbd041432	-0.032245822
92	0xbd15d057	-0.03657564
93	0xbcea1696	-0.028575223
94	0xbbd96704	-0.006634595
95	0xbbdfdb8f	-0.0068315933
96	0xbc9dd7e9	-0.019267993
97	0x3d85d27d	0.06534288
98	0x3e65e220	0.22449541
99	0x3d1cd31b	0.038287263
100	0xbc15e49e	-0.009148745
101	0x3e5191ba	0.20465747
102	0xbc19655f	-0.009362548
103	0x3e8efb08	0.27925897
104	0x3a56d0c4	0.00081945607
105	0xbc64f917	-0.013975403
106	0x3d94a191	0.07257379
107	0x3da51b5e	0.080618605
108	0xbc9cbda2	-0.019133393
109	0xbb911a9f	-0.0044282223
110	0xbcd85614	-0.026408233
111	0x3d2336fc	0.03984736
112	0xbd7c4c67	-0.0615963
113	0xbc137b67	-0.009001589
114	0xbbfa9fa4	-0.007648425
115	0xbbf62bcf	-0.0075125466
116	0x3e1b2eb3	0.15154533
117	0x3c84adf3	0.016196227
118	0xbc0d5665	-0.008626555
119	0xbcd67458	-0.026178524
120	0x3dec2f80	0.115324974
121	0x3d155177	0.036454644
122	0xbcb3221e	-0.021866854
123	0x3e86c584	0.26322567
124	0xbcee468d	-0.029086376
125	0x3e432a9a	0.1905922
126	0xbcef7986	-0.029232752
127	0xbc7bf1b2	-0.015377449

model_1/articleType_output/BiasAdd/ReadVariableOp f4 [142]
0	0xbe2b542c	-0.16731328
1	0x3d0203c6	0.03174188
2	0x3d93219a	0.07184143
3	0xbd1f30e3	-0.03886498
4	0x3ca4c1cb	0.020111939
5	0x3c82ab18	0.015950724
6	0x3d1ff492	0.0390516
7	0xbe17a7cf	-0.14810108
8	0xbb12012b	-0.0022278528
9	0x3ce4cefa	0.027930725
10	0x3dba8ce4	0.09108904
11	0x3de6ba8d	0.112660505
12	0xbd41c481	-0.04730654
13	0x3ca4d3e1	0.020120563
14	0xbd17703f	-0.03697228
15	0x3da61bb9	0.081107564
16	0xbd1794e1	-0.037007216
17	0x3be5890d	0.007004863
18	0xbdad95b9	-0.08475823
19	0x3defefd0	0.117156625
20	0xbc74f1d4	-0.014950234
21	0xbc00d101	-0.00786233
22	0x3d08c1d3	0.03338797
23	0xbd87b43c	-0.06626174
24	0xbb407915	-0.0029369046
25	0x3da15191	0.07876886
26	0x3c82ccf9	0.01596688
27	0x3da61a24	0.08110455
28	0x3c80b912	0.015713248
29	0xbd8bdcfa	-0.06829257
30	0xbd593001	-0.053024296
31	0x3e2d5bfa	0.16929618
32	0x3c99f066	0.018791389
33	0xbd109de3	-0.035306823
34	0x3cac7774	0.021053053
35	0x3d792014	0.060821608
36	0x3d77e6b3	0.060522746
37	0x3cdb4151	0.026764544
38	0xbd71620b	-0.05893139
39	0x3d047d46	0.032346033
40	0x3d854948	0.06508118
41	0xbe29a4f9	-0.16566838
42	0xbc0163d3	-0.007897335
43	0x3db3cb31	0.0877899
44	0xbe4260ca	-0.18982235
45	0x3dd2d4f6	0.10294525
46	0x3d390b91	0.045177046
47	0xbd8d752c	-0.069071144
48	0x3dcadc1a	0.09905262
49	0xbb3524e6	-0.0027640401
50	0xbd10e9a1	-0.035379056
51	0x3d291d1f	0.041287538
52	0xbdcfe3a6	-0.10150842
53	0xbe1c7824	-0.15280205
54	0xbc1f2ad8	-0.009714805
55	0xbd987d09	-0.074457236
56	0xbccb2d1d	-0.024801785
57	0xbd79a8b1	-0.060951892
58	0x3c5724cb	0.013131331
59	0xbd90a412	-0.07062544
60	0xbdd69f94	-0.10479656
61	0x3d643bf2	0.05572123
62	0x3cf7aa4f	0.030232577
63	0x3d7afc44	0.061275735
64	0xbb8e5392	-0.0043434585
65	0xbda2fbab	-0.07958158
66	0xbbe9d740	-0.0071362555
67	0x3cd214dc	0.025644712
68	0xbd8ce221	-0.06879068
69	0xbd944e99	-0.07241554
70	0x3c515129	0.012775698
71	0x3cf4d3d1	0.029886158
72	0xbde08b42	-0.10964061
73	0x3d83e188	0.06439501
74	0xbe079b84	-0.13242918
75	0x3daabfb1	0.083373435
76	0x3d1a2f6d	0.037642885
77	0xbd3eea0a	-0.046609916
78	0x3d6b506b	0.05744974
79	0xbc408a48	-0.011751719
80	0xbcaa9553	-0.020823156
81	0xbdd0411d	-0.101686694
82	0xbc2b9ddd	-0.010474649
83	0xbcf6e796	-0.030139726
84	0xbe0d27e0	-0.13784742
85	0xbdc46d18	-0.095911205
86	0x3d3e33e5	0.04643621
87	0xbc9a44dd	-0.018831665
88	0x3c95b714	0.018275775
89	0x3d8d0b67	0.068869404
90	0x3e8e63dd	0.27810565
91	0x3d413b8b	0.047175925
92	0x3d45f61d	0.048330415
93	0x3e0dccab	0.13847606
94	0x3dac3f4b	0.0841051
95	0x3d6fdc8c	0.05855994
96	0xbd576b60	-0.052592635
97	0x3d09ee95	0.033674795
98	0x3d749a18	0.059717268
99	0x3b9c9690	0.0047786906
100	0xbcdc8e20	-0.02692324
101	0x3d44fc44	0.04809214
102	0xbdcd23e7	-0.100166135
103	0xbc00a44f	-0.007851674
104	0x3d8ba45c	0.068184584
105	0xbe4644f6	-0.19362244
106	0x3c9c90a4	0.019111939
107	0xbc95a358	-0.018266365
108	0xbdca50bb	-0.09878679
109	0xbdfb5421	-0.12271906
110	0x3d08ec25	0.03342833
111	0xbd6872cb	-0.0567501
112	0x3daf9cf6	0.0857486
113	0xbd80a99b	-0.0628235
114	0x3d065029	0.03279129
115	0x3c6c41b3	0.014419961
116	0xbc2c68a0	-0.010522991
117	0xbd738142	-0.05944944
118	0xbe0d43c2	-0.13795379
119	0xbcf05647	-0.029338015
120	0xbcbc1edc	-0.022963934
121	0x3c71c973	0.014757502
122	0xbcf172ad	-0.029473627
123	0xbc9491af	-0.018135874
124	0xbd75253f	-0.059849974
125	0x3bd50feb	0.0065021417
126	0x3dd1e7d6	0.10249297
127	0xbc337700	-0.010953665
128	0xbd2d6663	-0.04233397
129	0xbd04cd56	-0.032422386
130	0x3c320591	0.010865585
131	0xbd5ef569	-0.05443326
132	0xbd2d2a3e	-0.042276613
133	0xbda56c2e	-0.08077274
134	0xbda90bba	-0.0825419
135	0x3da3fa2d	0.080067016
136	0xbc57be38	-0.01316791
137	0x3bc6ab18	0.0060628764
138	0xbe0307aa	-0.12795892
139	0x3e0ddeb4	0.13854486
140	0x3da73a30	0.08165395
141	0x3db78311	0.08960546

model_1/dense_1/MatMul f4 [128, 1600]
0	0xbd5f5e19	-0.054533098
1	0xbbeb2f18	-0.007177245
2	0xbc8846e6	-0.01663537
3	0x3d2aeeb4	0.04173155
4	0xbd9e7a4c	-0.0773817
5	0x3ce06e42	0.027396325
6	0x3d383ac5	0.044977922
7	0x3c565287	0.0130811995
8	0x3c41d8a8	0.01183144
9	0xbcaba640	-0.020953298
10	0x3d138d3b	0.03602336
11	0xbca4d4a0	-0.020120919
12	0xbd2d1912	-0.042260237
13	0x3d27381d	0.040825
14	0xbd5ad83e	-0.05342888
15	0xbca18952	-0.0197188
16	0x3cddd182	0.02707744
17	0xbd3ec498	-0.046574205
18	0xbc2fdf50	-0.010734394
19	0xbd050bf2	-0.032482095
20	0x3ccdf15a	0.0251395
21	0x3c414c98	0.0117980465
22	0xbd056508	-0.032567054
23	0xbd85681c	-0.06513998
24	0xbd66afa9	-0.056319866
25	0x3a6d76ea	0.0009058552
26	0x3ca3bf2c	0.019988619
27	0xbd31e4c9	-0.043431077
28	0x3d0a7334	0.033801273
29	0xbd6b4d4f	-0.057446774
30	0xbdad38a0	-0.08458066
31	0x3c584665	0.013200377
32	0x3c55a846	0.013040608
33	0xbd9f44d7	-0.07776802
34	0x3d121125	0.03566088
35	0xbce64d26	-0.02811296
36	0xbb6993df	-0.0035641117
37	0x3b87b1f1	0.0041410853
38	0xbd12259e	-0.035680406
39	0x3b6b5264	0.0035907263
40	0xbd3d56fe	-0.04622554
41	0x3c55afcc	0.0130424015
42	0x3c918b79	0.017766701
43	0xbd5eafd0	-0.054366887
44	0xbd1deacd	-0.038554
45	0xbd378d2f	-0.044812378
46	0x3ca12390	0.019670278
47	0x3cb69208	0.02228643
48	0x3d40da57	0.047083225
49	0xbd7fcff7	-0.06245419
50	0xbca6a090	-0.020340234
51	0xbd00be1c	-0.031431302
52	0xbda030c0	-0.07821798
53	0xbd41cdac	-0.047315285
54	0xbb0ee2a0	-0.002180256
55	0xba788d40	-0.0009481497
56	0x3d00010c	0.031251
57	0x3c7581d2	0.014984565
58	0x3d052eb5	0.032515246
59	0x3d1fa2df	0.038973685
60	0x3d1c1a9c	0.038111314
61	0xbaf86260	-0.0018950216
62	0xba6c26c0	-0.000900846
63	0xbc5c6693	-0.01345219
64	0xbc139cdc	-0.009009566
65	0xbcd85202	-0.026406292
66	0xba77a438	-0.0009446773
67	0xbb01884e	-0.0019765082
68	0xbcece3bf	-0.028917192
69	0x3c40721a	0.011745954
70	0x3d2832e9	0.041064177
71	0xbd0daad6	-0.03458675
72	0x3bda2988	0.006657783
73	0xbd4927f7	-0.04911038
74	0x3c2dcc94	0.010607857
75	0xbd3df59e	-0.046376817
76	0xbd513447	-0.051075246
77	0xbd0bc463	-0.034122836
78	0xbd5b0e74	-0.05348058
79	0xbc212a7d	-0.00983679
80	0xbc48a278	-0.012245767
81	0xbd091b00	-0.033473015
82	0x3d2f28a5	0.04276337
83	0xbc00519f	-0.00783196
84	0xbd20945c	-0.039203987
85	0xbdab192c	-0.083544105
86	0xbd372304	-0.044711128
87	0xbd41f6da	-0.047354557
88	0xbd77e7fa	-0.060523964
89	0x3cce8bf6	0.025213223
90	0xbda6732e	-0.081274375
91	0xbd13d27b	-0.0360894
92	0xbda022ea	-0.07819159
93	0x3c69864c	0.01425321
94	0xbd168935	-0.036751945
95	0xbd13ffad	-0.036132503
96	0xbc0d3fe3	-0.008621189
97	0xbdb114eb	-0.08646568
98	0xbbdce0c0	-0.0067406595
99	0xbaf04be0	-0.0018333159
100	0x3ca39a99	0.019971179
101	0x3c601aeb	0.013678293
102	0xbd6a037c	-0.05713223
103	0x3d4008f7	0.04688355
104	0xbd7e2bd1	-0.062053505
105	0x3d40560b	0.046957057
106	0x3b8ec89c	0.0043574106
107	0xbcff8410	-0.031190902
108	0xbd731da2	-0.059354432
109	0xbd499675	-0.049215753
110	0xbb2a7e5c	-0.0026015257
111	0xbd0cae8a	-0.03434614
112	0xbd133976	-0.03594347
113	0xbd86d1a3	-0.06582954
114	0x3be1ffb3	0.006896937
115	0x3d0bda68	0.034143835
116	0x3d152343	0.03641058
117	0xbd84d8b8	-0.06486648
118	0x3d13faa1	0.03612769
119	0xbd5c7dba	-0.05383084
120	0xbc1c0620	-0.009522945
121	0x3d0fd1f1	0.035112325
122	0xbd224aee	-0.03962224
123	0xbcd3e560	-0.02586621
124	0xbdb42581	-0.08796216
125	0xbb169663	-0.002297782
126	0xbccdcd9f	-0.025122462
127	0xbda2c9b8	-0.07948631
128	0xbc5ad3de	-0.013356177
129	0xbcb1281e	-0.021625575
130	0x3d1c6c02	0.03818894
131	0xbd9e2d85	-0.07723526
132	0xbd987a99	-0.07445259
133	0x3d0878c4	0.033318296
134	0xbc7fce94	-0.015613217
135	0xbd572395	-0.052524168
136	0xbc831089	-0.015999096
137	0xbd460aea	-0.048350252
138	0xbd146f18	-0.03623876
139	0x3ca8a392	0.020585809
140	0xbd4e267b	-0.050329667
141	0x3cbdc15e	0.023163494
142	0x3b525e43	0.0032099641
143	0xbd76b877	-0.060234513
144	0x3c9eb4f2	0.01937339
145	0x3b553d90	0.0032537915
146	0x3c812f9e	0.015769776
147	0xbc764a04	-0.015032295
148	0xbbfc6110	-0.0077020004
149	0xbc788f13	-0.01517083
150	0xbd59aa67	-0.053141024
151	0xbb8920a1	-0.004184798
152	0xbd126eaf	-0.035750087
153	0xbd034040	-0.032043695
154	0xbd140744	-0.03613974
155	0xbce4a5eb	-0.027911147
156	0xbd140c63	-0.036144625
157	0x3b9123d8	0.0044293217
158	0xbbdd3617	-0.006750833
159	0xbd23a236	-0.03994962
160	0xbcd55512	-0.026041541
161	0x3cdab466	0.026697349
162	0x3cb83976	0.022488337
163	0xbcfe3ad8	-0.031033918
164	0xbd051ce8	-0.03249827
165	0xbd8ae030	-0.067810416
166	0xbd2fbe90	-0.042906344
167	0xbd0183de	-0.0316199
168	0x3d0ec9b5	0.03486033
169	0xbd4fd342	-0.05073858
170	0xbcc239d8	-0.023709223
171	0x3c3049eb	0.010759811
172	0xbd626f18	-0.05528173
173	0xbad43797	-0.0016190883
174	0xbc8651d4	-0.01639644
175	0x3cbd1054	0.023079075
176	0x3d454bf8	0.048168153
177	0xbcecc654	-0.028903164
178	0x3d2549f9	0.04035375
179	0xbcac265e	-0.021014389
180	0x3cd0e947	0.02550186
181	0xbbc221a8	-0.0059244223
182	0xbd16e696	-0.036840998
183	0xbdaf9e15	-0.08575074
184	0xbc60503a	-0.0136910025
185	0xbd5923b1	-0.053012554
186	0x3d022c19	0.031780336
187	0xbc5d96a4	-0.013524685
188	0xbd9db6e2	-0.07700898
189	0xbd48ffd7	-0.049072113
190	0xbd3857ce	-0.045005612
191	0xbdb5f2b3	-0.08884182
192	0xbd6e96be	-0.058249228
193	0x3cf4e99a	0.029896546
194	0x3c8cfe8a	0.017211217
195	0xbc1dcc23	-0.0096311895
196	0xbd469a52	-0.048487015
197	0xbd08848f	-0.033329543
198	0x3d46babd	0.04851793
199	0xbda7c016	-0.08190934
200	0xbd9843c4	-0.074348
201	0x3cb81026	0.022468638
202	0xbcda9b60	-0.026685417
203	0xbbbeb7f8	-0.0058202706
204	0x3b2655c2	0.0025380705
205	0xbd7fff10	-0.062499106
206	0xbd219df3	-0.039457273
207	0xbcace369	-0.021104531
208	0x3c897c2e	0.016782846
209	0x3ccc0d8a	0.0249088
210	0x3ce1f54a	0.027582783
211	0xbd5afd0f	-0.05346399
212	0xbc0c2710	-0.008554235
213	0x3ca1689e	0.019703206
214	0xbc4e65d4	-0.01259752
215	0x3c244720	0.010026723
216	0xbd66df1f	-0.05636513
217	0x3ca45209	0.020058649
218	0xbcc5cb1e	-0.024144705
219	0x3d43ca87	0.047800567
220	0x3d297b19	0.04137716
221	0x3d032e0d	0.03202634
222	0xbbf71b7e	-0.007541119
223	0xbc2c1e50	-0.010505274
224	0x3cb2a2c6	0.021806132
225	0x3c6d22bc	0.014473613
226	0xbd429931	-0.047509376
227	0x3d0b1035	0.033951003
228	0xb98bba5e	-0.00026651
229	0xbaeabc03	-0.0017908815
230	0x3d37d1ca	0.044877805
231	0xbc1b9cb9	-0.009497815
232	0xbc33f0ac	-0.010982674
233	0xbd47bbac	-0.048762962
234	0xbcb523f4	-0.02211187
235	0xbd26f941	-0.04076505
236	0x3b03359a	0.0020020963
237	0xbd65ea8a	-0.056131877
238	0xbbeb8579	-0.007187542
239	0xbc9e5b61	-0.019330682
240	0xbcabbda0	-0.020964444
241	0xba959d6c	-0.0011414713
242	0xbc82343c	-0.015894048
243	0xbbbfeafa	-0.005856869
244	0xbb2b09b5	-0.0026098315
245	0x3ca9c176	0.020722132
246	0xbd6ed79d	-0.058311094
247	0xbd87625a	-0.06610556
248	0xbc40a45f	-0.011757939
249	0xbd9af84e	-0.075668916
250	0x3b0f1ecd	0.0021838427
251	0xbd3b2ada	-0.045695163
252	0xbd8d753e	-0.06907128
253	0xbdb6d5dd	-0.0892751
254	0xbac051fd	-0.0014672872
255	0xbd861be6	-0.0654829

model_1/articleType_output/MatMul f4 [142, 128]
0	0xbd00d10b	-0.03144936
1	0x3db53f7a	0.08849998
2	0xbd0521e5	-0.032503027
3	0xbce82a23	-0.028340405
4	0x3d9fe0ab	0.07806524
5	0x3de66d54	0.112513214
6	0xbe68325e	-0.22675464
7	0xbe60f151	-0.21967055
8	0xbeb1f570	-0.34757566
9	0x3da511ea	0.080600575
10	0x3ddfe59d	0.10932467
11	0x3def3f03	0.116819404
12	0xbde5919c	-0.112094134
13	0x3e920931	0.28522637
14	0xbd82b729	-0.06382591
15	0x3d90a2c7	0.07062297
16	0xbdd57b59	-0.10423917
17	0xbdfa5d2f	-0.122248046
18	0xbece5d82	-0.40305716
19	0x3cddf19c	0.027092747
20	0xbda9b340	-0.08286142
21	0xbdee502e	-0.11636387
22	0x3d96fb6e	0.07372175
23	0x3d339f1c	0.04385291
24	0xbe07494c	-0.13211554
25	0x3cf9ce34	0.030493833
26	0x3c608a48	0.013704844
27	0xbe8cfb69	-0.2753556
28	0x3daaeb00	0.08345604
29	0x3df1e0e3	0.11810472
30	0xbd226e3e	-0.039655916
31	0xbd05d74a	-0.03267602
32	0xbd1ed12d	-0.038773704
33	0x3dd2cacc	0.10292587
34	0x3c96327e	0.018334623
35	0x3dca031e	0.09863876
36	0xbdfaaebf	-0.122403614
37	0xbd91acda	-0.07113047
38	0x3d881744	0.066450626
39	0x3dfd939f	0.12381672
40	0x3d2aad13	0.041668963
41	0x3cb61a40	0.022229314
42	0xbd8ecfb7	-0.06973212
43	0x3e60faea	0.21970716
44	0x3e9c9a92	0.30586678
45	0xbb692e98	-0.003558075
46	0xbcb78453	-0.022401964
47	0xbdea5258	-0.11441487
48	0xbc98d38a	-0.018655557
49	0xbf15140d	-0.5823372
50	0xbda7a883	-0.08186438
51	0x3d8fe8bb	0.07026812
52	0xbddf2000	-0.108947754
53	0xbea2bdff	-0.3178558
54	0x3cc243b4	0.023713924
55	0xbef55518	-0.47916484
56	0x3dd2fae6	0.10301761
57	0xbe927132	-0.28601986
58	0x3c8a3f01	0.016875746
59	0xbf654984	-0.895653
60	0xbc19e2e4	-0.009392474
61	0xbcba95e9	-0.02277656
62	0xbd6d35dc	-0.057912692
63	0x3d166a21	0.036722306
64	0x3d9bf4a4	0.07615021
65	0xbdfa7e63	-0.122311376
66	0xbdba01ad	-0.09082351
67	0xbda66dc7	-0.08126407
68	0x3db7a9c1	0.08967925
69	0x3e9a1910	0.30097246
70	0xbe593cd3	-0.21214609
71	0xbdb49bb5	-0.08818761
72	0x3ca45561	0.020060243
73	0x3b310386	0.0027010157
74	0xbde8efc4	-0.11373857
75	0x3d5deb29	0.054179344
76	0x3e01103b	0.12603848
77	0x3c676a8c	0.014124524
78	0x3d65ab1f	0.056071397
79	0xbe0b854e	-0.1362507
80	0x3d8cae94	0.06869236
81	0xbefe8115	-0.49707857
82	0x3cd8fc06	0.026487362
83	0xbd9207fc	-0.07130429
84	0x3df0ebc7	0.11763721
85	0xbe87ed81	-0.2654839
86	0xbcd7df1e	-0.026351508
87	0xbe9f8ef1	-0.31163743
88	0xbd85368a	-0.06504543
89	0xbdb99e3f	-0.09063386
90	0xbd711917	-0.05886182
91	0xbd853035	-0.065033354
92	0x3d598a63	0.05311049
93	0xbe08b092	-0.13348606
94	0xbe00fde3	-0.1259685
95	0xbe181c88	-0.14854634
96	0xbe4906b7	-0.19631468
97	0x3eb8ee68	0.3611939
98	0xbee1450d	-0.43997994
99	0xbd351487	-0.04420903
100	0x3b9d6a9c	0.0048039686
101	0xbe491c27	-0.19639646
102	0xbe074e49	-0.13213457
103	0xbdd281eb	-0.10278686
104	0x3dcb8274	0.09936991
105	0x3d863485	0.06552986
106	0xbe40a68e	-0.18813536
107	0xbe623d84	-0.22093779
108	0xbd34032d	-0.04394834
109	0xbdeda9ee	-0.11604677
110	0xbd636b5d	-0.05552231
111	0x3c549055	0.012973865
112	0xbe50d9d6	-0.20395598
113	0xbde3d73b	-0.11125036
114	0x3da15a43	0.07878544
115	0xbe10ffde	-0.14160106
116	0x3c8b68f2	0.017017815
117	0x3d3598bb	0.04433511
118	0xbd8aef40	-0.067839146
119	0x3d8bb148	0.06820923
120	0xbef8c269	-0.48585823
121	0x3e6cbf62	0.23119882
122	0x3cf988b9	0.030460702
123	0xbf1289be	-0.5724143
124	0xbdf5fbc0	-0.12010908
125	0xbe6dcd53	-0.23222856
126	0xbceeb635	-0.029139617
127	0xbddefa0a	-0.10887535
128	0xbde25afb	-0.110525094
129	0x3d6bbaf6	0.057551347
130	0xbe2060ec	-0.15661973
131	0xbde88497	-0.113534145
132	0xbe195c2e	-0.1497657
133	0xbd4f443c	-0.050602183
134	0x3dca4fa8	0.098784745
135	0xbe4e9f53	-0.20177965
136	0xbee1f959	-0.4413555
137	0x3d941b49	0.07231767
138	0x3cef44e5	0.029207656
139	0xbe04c592	-0.12965992
140	0x3d15d381	0.03657866
141	0xbab03023	-0.001344208
142	0xbd799e0a	-0.060941733
143	0xbd198506	-0.037480377
144	0xbbb9b3b8	-0.005667176
145	0x3c50c2eb	0.012741785
146	0x3c9bcd8c	0.01901891
147	0x3d19f844	0.03759028
148	0x3dbf0eef	0.0932902
149	0x3d8e8cf4	0.069604784
150	0x3d520241	0.05127168
151	0x3d758e68	0.059950262
152	0xbe450acc	-0.192424
153	0xbe37f324	-0.17963845
154	0x3de27c29	0.11058838
155	0x3e2a72f6	0.16645417
156	0xbfaa6467	-1.331189
157	0xbdd440ea	-0.10363944
158	0x3e021efc	0.12707132
159	0xbc915161	-0.017739
160	0xbce6d336	-0.028176885
161	0x3da63bf7	0.08116906
162	0xbe0eb453	-0.13935976
163	0xbd904592	-0.070445195
164	0x3a1124ca	0.0005536793
165	0xbddf037a	-0.10889335
166	0x3d4d43c3	0.05011345
167	0xbf17381d	-0.5907
168	0xbc973865	-0.018459508
169	0xbce074b4	-0.027399398
170	0xbe054263	-0.13013606
171	0xbeabf753	-0.3358713
172	0x3e95a2c0	0.2922573
173	0xbbbdd61d	-0.0057933466
174	0xbe8927f0	-0.26788282
175	0xbd9f4dc2	-0.07778503
176	0xbe089ea2	-0.13341764
177	0x3c6d2ca0	0.014475971
178	0xbe466993	-0.19376211
179	0x3dc88640	0.09791231
180	0x3de58455	0.11206881
181	0xbebb7f49	-0.36620548
182	0x3c925201	0.017861368
183	0xbdcc6dca	-0.09981878
184	0xbc966d98	-0.018362805
185	0xbd4ca328	-0.049960285
186	0x3deaeb4d	0.11470661
187	0xbfc122d3	-1.5088753
188	0xbd043960	-0.03228128
189	0xbd872b52	-0.066000596
190	0x3dff39ae	0.124621734
191	0xbca106df	-0.019656597
192	0xbd7c3ceb	-0.061581533
193	0xbdb7aad9	-0.089681335
194	0x3dd4b34f	0.10385763
195	0xbf035570	-0.5130224
196	0x3dc51136	0.09622423
197	0xbeeaa3e0	-0.45828152
198	0xbf508076	-0.81446016
199	0xbd9e4c0a	-0.07729347
200	0xbe17d197	-0.14826046
201	0x3d33eb8e	0.043925814
202	0xbea40380	-0.3203392
203	0x3df0b7ee	0.11753832
204	0x3e034f62	0.12823251
205	0x3bc69622	0.0060603777
206	0x3e188e33	0.14897995
207	0xbde4689c	-0.11152765
208	0xbd1eaaf3	-0.03873725
209	0x3e2cfeac	0.16894025
210	0x3dcee923	0.10103061
211	0xbe6e28f8	-0.23257816
212	0xbe175bd9	-0.14781131
213	0xbed3c6e1	-0.4136267
214	0x3d31edee	0.043439798
215	0xbe552b86	-0.20817384
216	0xbde8950c	-0.113565534
217	0xbda4db97	-0.08049696
218	0xbdf57156	-0.11984508
219	0xbd49cf17	-0.049269762
220	0xbe1587d7	-0.146026
221	0xbe21efbf	-0.15814112
222	0x3dc783dd	0.09741948
223	0xbe15bbc0	-0.14622402
224	0xbe70d6de	-0.23519465
225	0xbe033660	-0.12813711
226	0xbe14b414	-0.1452182
227	0xbd01db51	-0.031703297
228	0xbdfec6d4	-0.12440267
229	0xbefe050f	-0.49613234
230	0xbd97b22e	-0.07407032
231	0xbd53fe3d	-0.051756132
232	0xbdc22467	-0.094795994
233	0x3d2be28e	0.041964106
234	0xbec0fa37	-0.376909
235	0x3da5d87d	0.080979325
236	0xbe55b35d	-0.20869203
237	0x3d39dcc4	0.045376554
238	0x3db011ce	0.08597146
239	0xbfa72973	-1.3059524
240	0xbcdd6439	-0.027025329
241	0xbe0df935	-0.13864596
242	0xbdfc5110	-0.12320149
243	0xbde4ba4a	-0.11168344
244	0xbe499f73	-0.19689731
245	0x3cee7372	0.029107783
246	0xbd704084	-0.058655277
247	0xbe03526f	-0.12824415
248	0x3e42d6ab	0.19027202
249	0xbe9422bb	-0.28932747
250	0x3d61976a	0.05507604
251	0x3d54f11e	0.05198776
252	0xbe2dd071	-0.16974045
253	0xbd70a427	-0.058750298
254	0x3c0213fc	0.007939335
255	0xbdad95f4	-0.08475867

model_1/gender_output/MatMul f4 [5, 128]
0	0xbe137e93	-0.14403753
1	0x3e2a1d8f	0.16612838
2	0xbe458c35	-0.19291766
3	0x3e4232ce	0.18964693
4	0xbcd78242	-0.026307229
5	0xbe1a0ef4	-0.15044767
6	0x3d1c84c7	0.038212564
7	0xbd6886e3	-0.056769263
8	0xbd8e4dc7	-0.069484286
9	0xbda2a34c	-0.07941303
10	0x3ddfcd88	0.10927874
11	0xbe4e68bf	-0.20157145
12	0xbe531ca7	-0.20616399
13	0x3dcada5a	0.099049285
14	0x3d8352ae	0.06412254
15	0x3e3121d2	0.17298058
16	0xbd6a21b3	-0.057161044
17	0xbd1915ec	-0.037374422
18	0x3d61be82	0.055113323
19	0xbe4b513d	-0.19855209
20	0x3e46ad33	0.19402008
21	0xbbfd2aff	-0.007726073
22	0xbd191cf3	-0.037381124
23	0xbd5e5010	-0.054275572
24	0x3de5f323	0.11228015
25	0xbd38938e	-0.045062594
26	0xbe212e6c	-0.15740365
27	0x3db07b17	0.086172275
28	0xbe766e0a	-0.24065414
29	0xbe4b651b	-0.19862787
30	0xbe5b0230	-0.21387553
31	0xbe37f9c3	-0.1796637
32	0xbe4a9a71	-0.19785477
33	0x3da77fb3	0.081786536
34	0x3d8c6b78	0.068564355
35	0x3e424d78	0.18974864
36	0x3e0cdd6b	0.13756339
37	0x3e39ba95	0.18137582
38	0xbd615baf	-0.055019077
39	0xbe3a14f6	-0.18172058
40	0xbdd11bc3	-0.10210373
41	0xbb8c03a2	-0.004272894
42	0xbe51f469	-0.20503391
43	0xbd8e26c0	-0.06940985
44	0xbcc5210e	-0.024063613
45	0xbdc7a684	-0.09748557
46	0xbdea7e0a	-0.11449821
47	0xbc855229	-0.016274529
48	0x3db9509b	0.090485774
49	0xbd12ff11	-0.03588778
50	0x3e5aec8f	0.21379302
51	0x3dbdf0d7	0.09274452
52	0x3d917641	0.07102633
53	0x3dc80f68	0.097685635
54	0xbd838b77	-0.06423085
55	0x3e17b14a	0.14813724
56	0x3c738941	0.014864267
57	0x3d9f86ab	0.07789358
58	0xbdcc1e98	-0.09966773
59	0xbd24f372	-0.04027123
60	0xbe0d62cf	-0.13807224
61	0x3a16a10b	0.0005746043
62	0xbea74963	-0.32673177
63	0x3cc39b91	0.02387789
64	0xbdb068d9	-0.08613748
65	0x3e1e6d34	0.15471345
66	0xbe13b67f	-0.14425085
67	0xbea37311	-0.31923726
68	0xbe33ae05	-0.17546852
69	0x3daae5a6	0.08344583
70	0x3c834caf	0.016027777
71	0xbdebd4ea	-0.115152195
72	0xbdbd7a3c	-0.0925183
73	0xbe39cd00	-0.18144608
74	0x3e4b25ca	0.19838634
75	0x3d5bfe7a	0.053709485
76	0xbd15a856	-0.03653749
77	0xbcb006fd	-0.021487707
78	0xbbfbf18d	-0.007688707
79	0xbe4b5ebf	-0.19860362
80	0xbdfe2a5c	-0.12410423
81	0xbd3b2f7f	-0.045699593
82	0xbd05b874	-0.03264661
83	0x3c304803	0.010759356
84	0x3dfe11be	0.12405728
85	0x3de3b1de	0.1111791
86	0x3db7dddb	0.089778624
87	0xbddb0545	-0.106943645
88	0xbe09aa25	-0.13443811
89	0xbdb77f94	-0.089598805
90	0x3d8c57a6	0.06852655
91	0xbe0f4876	-0.13992485
92	0x3e0799da	0.13242283
93	0x3e0c8dab	0.13725917
94	0x3d646233	0.055757713
95	0xbe0548b2	-0.13016012
96	0x3e772fcb	0.24139325
97	0x3dd300cd	0.10302887
98	0xbd896f24	-0.067106515
99	0x3dc8b8c8	0.09800869
100	0x3cbbe06b	0.02293416
101	0xbe7d8d17	-0.24760853
102	0xbd820cd5	-0.06350104
103	0xbe174922	-0.14773992
104	0xbd95a400	-0.07306671
105	0x3d4039c8	0.046930104
106	0x3e74ee14	0.23918945
107	0xbde9d373	-0.11417284
108	0xbb9d305d	-0.004797025
109	0x3c98bbc3	0.01864422
110	0xbe58b9ff	-0.21164702
111	0x3d3da03e	0.046295397
112	0x3d846920	0.064653635
113	0x3d5b4c55	0.053539593
114	0x3df11b59	0.11772794
115	0x3e3a2d75	0.18181403
116	0xbdd75fa0	-0.10516286
117	0xbea33348	-0.31875062
118	0xbe334530	-0.17506862
119	0x3dbd558a	0.09244831
120	0xbe1e9b00	-0.15488815
121	0xbd8cefea	-0.068816975
122	0x3e36d6d7	0.17855392
123	0xbdec4f5a	-0.115385726
124	0x3e0aa784	0.13540465
125	0x3d57a691	0.052649084
126	0x3d69e890	0.057106555
127	0xbdef1d27	-0.11675482
128	0x3e098fcb	0.13433759
129	0xbe03c05c	-0.12866348
130	0xbd200597	-0.03906783
131	0x3deed897	0.11662405
132	0xbd886ef4	-0.06661788
133	0x3d99d9e0	0.075122595
134	0xbcba50c3	-0.022743588
135	0xbdb4338b	-0.087988935
136	0x3da616dc	0.08109829
137	0xbe385325	-0.18000467
138	0xbc52e92e	-0.012872977
139	0x3e117484	0.14204603
140	0xbd480b64	-0.048838988
141	0xbe1937c0	-0.14962673
142	0x3e3c9b73	0.18418674
143	0xbe3936ca	-0.18087307
144	0x3e0767e8	0.13223231
145	0x3e1b7ad1	0.1518357
146	0xbc5ce8a3	-0.013483199
147	0x3d94f68e	0.07273589
148	0xbe056ea1	-0.13030483
149	0xbe3e9870	-0.18612838
150	0xbd03dec5	-0.03219487
151	0xbdd1b69f	-0.1023991
152	0xbdc181fe	-0.09448622
153	0xbea7e550	-0.3279214
154	0x3dc23a94	0.09483829
155	0x3d9b5382	0.07584287
156	0xbe352558	-0.17690027
157	0x3dd8c3df	0.105842344
158	0x3d35ee4b	0.044416707
159	0x3c996552	0.018725071
160	0x3e2ceae8	0.16886485
161	0xbe208a4c	-0.15677756
162	0xbe07d00f	-0.13262962
163	0x3e3d71dd	0.18500467
164	0x3dc12063	0.094300054
165	0xbbbbf31f	-0.0057357694
166	0xbe0db642	-0.13839057
167	0x3e2df9a9	0.16989769
168	0xbc9d5f8a	-0.019210596
169	0xbd4589f7	-0.048227277
170	0x3caa74be	0.02080762
171	0xbe2fafac	-0.17156857
172	0xbd97fe50	-0.07421553
173	0xbd80b595	-0.06284634
174	0xbe848da5	-0.25889316
175	0xbe7726b4	-0.24135858
176	0x3e01d5bc	0.1267919
177	0xbdde682a	-0.108597115
178	0x3d27029a	0.040773965
179	0xbd17777a	-0.036979176
180	0xbe4dfd78	-0.20116222
181	0xbeacac7f	-0.33725354
182	0x3e4d2341	0.2003298
183	0x3c880c1b	0.016607335
184	0x3d939820	0.0720675
185	0xbc019157	-0.007908187
186	0xbdc8d793	-0.098067425
187	0x3d85fc3c	0.065422505
188	0x3da3aab8	0.079915464
189	0xbdc94570	-0.09827697
190	0x3e168094	0.14697486
191	0xbe028bca	-0.12748638
192	0xbe23eb9f	-0.16007851
193	0xbe0ce404	-0.13758856
194	0xbe4bdc22	-0.19908193
195	0x3bf0105e	0.00732617
196	0xbc8a2cb3	-0.016867017
197	0xbdc3bb40	-0.095571995
198	0x3c8b8c9f	0.017034827
199	0xbde18c98	-0.11013144
200	0xbdb492b5	-0.08817045
201	0xbd1e164c	-0.038595483
202	0x3e1ac051	0.15112425
203	0xbe245a6b	-0.16050117
204	0x3ce07fc2	0.02740467
205	0x3d108bbb	0.035289507
206	0x3e65ecc7	0.22453605
207	0xbd9502f2	-0.072759524
208	0x3debb614	0.11509338
209	0x3e54f3ee	0.20796177
210	0xbd8ab8dc	-0.067735404
211	0xbe68168d	-0.22664852
212	0xbcb5b9b8	-0.022183284
213	0x3d068c32	0.032848544
214	0x3d6cafb4	0.05778475
215	0xbca0a9b6	-0.019612174
216	0xbd8be9ce	-0.06831704
217	0x3da9bd15	0.08288018
218	0xbd2dac9b	-0.042400938
219	0xbdc26a56	-0.09492938
220	0xbe0b3a6e	-0.13596508
221	0x3ced13cd	0.028940106
222	0x3db6f778	0.0893392
223	0xbe521b71	-0.2051828
224	0x3e52fec9	0.20605005
225	0xbea3ee0f	-0.32017562
226	0x3d120627	0.0356504
227	0x3e41a635	0.18911059
228	0xbd7c4a3b	-0.06159423
229	0xbd1ea40c	-0.038730666
230	0xbe4723d0	-0.19447255
231	0xbdff0078	-0.12451261
232	0xbda4e332	-0.080511466
233	0x3c9f6e3f	0.01946175
234	0x3db1ee1f	0.08687996
235	0xbd81d2f3	-0.063390635
236	0xbe155808	-0.14584363
237	0xbdf8f8ea	-0.121568516
238	0x3d9112bf	0.07083654
239	0xbec127ed	-0.37725773
240	0xbdb9587e	-0.09050082
241	0x3e09679d	0.13418432
242	0x3d661411	0.05617148
243	0xbe08fdf6	-0.13378128
244	0xbdd996ff	-0.10624503
245	0xbe574863	-0.21023707
246	0xbe4a2f4e	-0.19744608
247	0xbd469153	-0.048478436
248	0xbe0f8493	-0.14015417
249	0xbe61da20	-0.22055864
250	0xbdb4bafd	-0.08824728
251	0xbd5f5610	-0.054525435
252	0x3a50d13b	0.0007965748
253	0x3deb778d	0.11497412
254	0xbb28a773	-0.0025734573
255	0xbe456f01	-0.19280626
