assets/ai_model/New_CNN.tflite (tflite, 973952 bytes, 8 tensors)

sequential/conv2d/BiasAdd/ReadVariableOp f4 [32]
00000000: 7ddf a1be 67a3 0c3e 52f9 26bc 6202 12bc
00000010: 0c8b 013f 53da ba3d 40bd c2ba 2188 1d3c
00000020: ca8a e8bd 706a 023e 9c4b dfbe ab0c 9fbd
00000030: 69ab 563d 5a86 cbbb 6c02 1c3d a188 7dbd
00000040: 63be a0bc 19c2 d03c 0e26 c0b7 2490 dcbd
00000050: b584 0fbd 126e cfbe ce07 8a3d 2f14 5b3d
00000060: 69b8 31bc 8203 c3be 94a0 1f3e fc67 553d
00000070: 7e67 b13c 634d 57be fa11 c0be e664 883c
-0.3161582 0.13734208 -0.0101912785 -0.008911701 0.50602794 0.09123673 -0.0014857426 0.009614975
-0.11354597 0.12735915 -0.43612373 -0.07766088 0.052409563 -0.0062110843 0.038088247 -0.061897878
-0.019622033 0.025483178 -2.2905904e-05 -0.1076968 -0.03503867 -0.40513664 0.0673977 0.053486045
-0.010847189 -0.38088614 0.155886 0.05210112 0.021655794 -0.21025614 -0.37513715 0.016649675

sequential/conv2d_1/BiasAdd/ReadVariableOp f4 [64]
00000000: 0e82 47bd 3bc5 a63e c7d4 ddbc 1b19 313b
00000010: 9486 46bd 5cc0 db3e 17b3 c43e 1942 9ebe
00000020: 4f86 2bbe c720 263b 2bfb 123e 1f34 57bd
00000030: c4ae f9bd 6f45 f23d 3fff dabd 03dc 0bbe
00000040: 09d4 72bd fc16 28be 75b6 1bbb 8fb6 d83e
00000050: ebe6 0e3d c84e 353d d660 63bd 9272 11bd
00000060: 70ac 38bd 7c07 373e ad1f cebc ea91 1c3e
00000070: 3a35 523e 1eef 443e 1ab9 7ebd cc54 a3bd
00000080: 4ed7 dbbc 9250 053e e7e7 f13d 2470 66be
00000090: cc59 103e c8e5 a3bd 7695 27bd cb1f 3bbb
000000a0: 50cf 33bd f2ea 483c 8c33 e6bd abff 3c3d
000000b0: e969 8a3d ce77 3a3d 4951 90bd 5345 20bf
000000c0: e19f 2cbc 0111 073d ed03 b43d 3f34 34bc
000000d0: 8c8a 003e 97b7 4e3e 8f2e 0ebd 1c1f bb3e
000000e0: a717 bebd ed7b 45bd f426 af3e b302 19bd
000000f0: ea1b bfbc fc22 0dbd 4048 2dbd 60e9 afbc
-0.048708014 0.3257235 -0.027079 0.002702302 -0.048468187 0.42920196 0.38417885 -0.30909804
-0.16750453 0.0025349127 0.14353625 -0.05253994 -0.12191537 0.1182965 -0.106932156 -0.13658147
-0.059284244 -0.16415018 -0.0023759876 0.4232678 0.03488819 0.044264585 -0.05551227 -0.035509653
-0.045086324 0.17873949 -0.025161589 0.15290037 0.20528117 0.19231841 -0.062188245 -0.07975158
-0.026836064 0.13019016 0.1181181 -0.22503716 0.14096755 -0.08002812 -0.04091402 -0.0028552886
-0.04389888 0.012263047 -0.112403005 0.04614226 0.06758482 0.04552441 -0.07046754 -0.6260578
-0.010536165 0.0329752 0.08789811 -0.010998785 0.12552851 0.20187221 -0.03471237 0.36547172
-0.09281855 -0.048213888 0.34209406 -0.03735609 -0.02332874 -0.03445719 -0.04230523 -0.021473587

sequential/conv2d/Conv2D f4 [32, 3, 3, 3]
00000000: bc1f cbbd d05e 56bd 92d2 783c baac e9bc
00000010: c566 97bd 9805 f0bc 69e1 913c 5396 8abd
00000020: 46dc 7c3d 7d4f 433c ab47 273c 8345 28be
00000030: a736 61bd dbb7 1e3d 2fc5 e63d 9f48 cf3d
00000040: ba74 ef3d fa6d 413d 161c ce3c 30b8 d8bd
00000050: 58fc 46bd b9eb 37be 0957 08be c1fa cabd
00000060: 2bf0 b8bc b205 1d3d a013 10be fd79 033e
00000070: b5d6 2ebe 3f94 59be 6289 953c bec2 b6be
00000080: e556 663d 3980 0d3e a487 b5bd 2ed9 68bc
00000090: 1d52 16bc 2596 eebe 5916 42be e582 33bd
000000a0: 5601 e2be 2b7b 77be f548 253e 9e5b a2be
000000b0: 393f 1a3d 193d 853e 38b4 31be a234 88bd
000000c0: c922 f43e 9d3d 893e 53ca 7a3e 68da c23e
000000d0: 4c0e 873d b080 ca3e ece8 10be d350 77be
000000e0: 1a78 8abe b28c 813e 53e3 393e 5d37 ad3e
000000f0: 6cf3 c4be 1d4e bfbe 3290 71be 0990 8abe
00000100: 4260 11be 5f2c 49be a2ce ac3e 3233 8d3e
00000110: a242 fe3d 406c 433e aa71 dd3d ad00 a23b
00000120: 7798 16be 9ffa 63bd 12ae 7abe 9708 943e
00000130: d98c 753d dc48 e23c 74fd 6c3e aa08 633d
00000140: 62cd 3c3e ecff c0be 82f9 70be 50e9 2bbe
00000150: 40f0 c5be e312 bfbe ce3e cbbe 82e2 98be
00000160: 03a0 c1be 06a6 8bbe 43c0 813e aca2 153d
00000170: c6e6 9b3d 7bc3 9a3e 52c7 8c3e 9071 e73d
00000180: fd77 563e 5041 533e 84c9 2e3e e5f9 253e
00000190: 9ddf 2a3a 8fc1 4f3e beb5 5f3e 064c 033e
000001a0: 629d 943e df44 163d 886a 9c3d d1b1 913e
000001b0: 45d9 963e 9980 d53e e5bc c13e b55f d13e
000001c0: f989 7c3e 8c36 993e 6e3c 143d 549f 3fbd
000001d0: 6f8e 753e e5b9 ce39 5eb9 953c de80 a13d
000001e0: 329f 213d ed1c 8a3d c819 7bbd d878 ddbe
000001f0: d08e 7dbe e7af 9fbe f969 bebe fc5b 4dbe
00000200: c730 52be d3ce 89be 13e7 a3be 785b 1bbe
00000210: ed9d 27bf a488 e3be bbfd 8bbe 095b 34be
00000220: 7c4f 5d3b bd5c 773e f2ec aebe cbfe b73d
00000230: 92dd ad3e fd93 b2be 3fc6 f6bd 0b85 a13e
00000240: 37e2 743d e4fb 233d be48 fe3b 48c8 87be
00000250: 66d0 9c3d 66eb 993e 2769 e7bd b02b 1fbe
00000260: 00d0 143e f760 80bd 1b30 103e 70bf 17bd
00000270: 1c01 93be 1f86 2bbe 03c7 2f3e 1233 1fbd
00000280: 348f e6bd 87ec 793d ae21 bd3d 1859 87bd
00000290: 18e2 843d f05f 0ebe 4849 9b3d 1cfb f0bd
000002a0: 3080 4dbb 8f3c a33d 36ff b23d b919 f5bc
000002b0: 5c9f 79be c06a 6abe fa50 b63e 3218 9a3e
000002c0: 313e 8a3e 67c1 96be f6c0 04be 5e41 10bd
000002d0: 6264 62be 24ce b9be cb2c e8be a44e f33e
000002e0: 8246 d73e d18d b13e b915 27be 8b85 3dbe
000002f0: 77d1 dd3d cf3c 0b3e 26ac 803e 726c 0d3e
00000300: 6620 b7bc da23 903e 9a0d 0fbd a0d2 c03e
00000310: 3a30 ba3e 69ea 353e 51f2 8ebd fb8e b0bc
00000320: b5aa 903d 5140 88bd 10eb 57bd 6134 b3bd
00000330: c954 1dbe 042d 8bbe aee3 9ebe a6bc 9cbe
00000340: a4db e93c d155 37be f6e5 b9bd 9b89 093e
00000350: d9ef 8e3d e866 d9bd 6d2a 813c 88d3 63be
00000360: 6bc3 893d 829d 613c 16ff 86bc e737 13bd
00000370: 430b f3bd 9d4a 8cbc c012 153d 63bf afbd
00000380: 2c79 c43d 8ac2 3f3d 88b6 10bd 3e56 a5bd
00000390: 58a6 df3c ef18 db3d 4167 c1bd f879 20bd
000003a0: 61a8 35bd 2ecf 383d 74cc 8b3d fbfe 20be
000003b0: 61c2 8e3d 644f c0bb bd62 81bd f732 1f3d
000003c0: cc8d 14be c598 cebb 6b51 a5bd 946f d8bd
000003d0: 7e7d c33c 5336 c23c a02d 9c3d 6a40 d73c
000003e0: 1283 21be 9ad3 8f3d 86ae 4e3d e2db fc3c
000003f0: 33c8 983e 6175 b93e 6171 f23c 34ce cc3e
-0.09918162 -0.052336514 0.015186923 -0.028524745 -0.073926486 -0.029299542 0.01780768 -0.06766953
0.061733507 0.011920807 0.010209958 -0.16432767 -0.05498376 0.038749557 0.112680785 0.10121273
0.11692186 0.047224022 0.025159877 -0.10582006 -0.048580498 -0.17961015 -0.13314451 -0.09911109
-0.022575459 0.03833551 -0.14069986 0.12839504 -0.17074092 -0.21247958 0.018253986 -0.35695451
0.056235213 0.13818444 -0.08863762 -0.014211936 -0.009174851 -0.46598926 -0.18953837 -0.043826003
-0.44141644 -0.24168079 0.16141112 -0.31710523 0.03765795 0.26023176 -0.17353904 -0.06650664
0.4768279 0.2680482 0.24491243 0.38057256 0.06594524 0.39551306 -0.14151353 -0.24151926
-0.27044755 0.25302655 0.18153124 0.338313 -0.38466966 -0.37364283 -0.23590162 -0.27063015
-0.14196876 -0.19645832 0.33751398 0.2757812 0.12415053 0.19084263 0.10812695 0.004943928
-0.14706598 -0.055658933 -0.24480465 0.28912804 0.059948776 0.027622633 0.2314356 0.055428185
0.18437722 -0.37695253 -0.2353268 -0.1678822 -0.3865986 -0.37319097 -0.39696354 -0.29860312
-0.37817392 -0.27275103 0.25341997 0.03653209 0.07612376 0.30227265 0.2749582 0.11300957
0.2094421 0.20630383 0.1706906 0.16208608 0.00065183063 0.2028868 0.21846673 0.1282197
0.29026324 0.036686774 0.07637507 0.28455976 0.29462638 0.41699675 0.37839428 0.4089333
0.24662007 0.29924428 0.036190443 -0.046782807 0.23980115 0.00039429884 0.018276867 0.078859076
0.03945846 0.067437984 -0.061303884 -0.4325626 -0.2476151 -0.3118889 -0.37190226 -0.2005462
-0.2052642 -0.26915607 -0.32012233 -0.15171611 -0.6547535 -0.44440186 -0.27342018 -0.17612852
0.00337693 0.2415647 -0.3416515 0.08984145 0.33958107 -0.3487853 -0.12049531 0.31546816
0.059786048 0.040035143 0.0077601364 -0.2651999 0.07656936 0.30062407 -0.11299353 -0.15544009
0.1453247 -0.062684946 0.14080851 -0.037047803 -0.28711784 -0.16750382 0.1716576 -0.038867064
-0.112577826 0.061016586 0.092349395 -0.0660879 0.064884365 -0.13903785 0.07582337 -0.11766645
-0.0031356923 0.07970535 0.08740084 -0.029919492 -0.24377197 -0.22892284 0.35608655 0.30096585
0.27000573 -0.2944443 -0.12964234 -0.03521859 -0.22108606 -0.36290085 -0.45346674 0.47520936
0.4204598 0.3467851 -0.1631688 -0.18507974 0.10830968 0.13597415 0.2513134 0.138109
-0.022354316 0.28152353 -0.03492508 0.37660694 0.3636492 0.17765202 -0.06979812 -0.021552553
0.0706381 -0.066528924 -0.052714407 -0.08750225 -0.15364374 -0.27182782 -0.3103308 -0.30612677
0.028547116 -0.1790383 -0.09077065 0.13431399 0.06979341 -0.10615331 0.0157673 -0.22248662
0.06726726 0.013770463 -0.016479056 -0.035941985 -0.118673824 -0.017125422 0.036394835 -0.08581426
0.09593424 0.046816386 -0.035330325 -0.0807309 0.027300999 0.10698115 -0.09443522 -0.03917882
-0.04435003 0.045119457 0.06826106 -0.15722267 0.069706686 -0.005868839 -0.06317661 0.038866963
-0.14507216 -0.0063048326 -0.0807217 -0.10568157 0.02386355 0.023707544 0.0762589 0.026275832
-0.15772656 0.07022782 0.050459407 0.030866567 0.2984024 0.36222365 0.029595079 0.4000107

sequential/conv2d_1/Conv2D f4 [64, 3, 3, 32]
00000000: dc1b 203e 1181 97be 848d 273e 08dc 80be
00000010: 0666 36bc 590e bc3d 3684 aa3d 4020 2a3e
00000020: eb22 813b 2e64 943e c4bc fbbd 6600 84be
00000030: ba57 61bb dea9 00be 21ac 03bf 0912 1c3d
00000040: 057f a53d 7b8b d33e 47dd 603e 679f 4d3e
00000050: e849 973e 2696 cd3d e343 7ebd de98 aebd
00000060: 6d86 f439 9384 dc3c ed11 a03e 0d24 92bd
00000070: fd30 b63d 591a 683e 020a ee3c 5907 683e
00000080: 076b 23be 3cf3 843d a2c8 893e ab86 573e
00000090: 1136 6ebe 1aa1 bbbd aa80 ae3e e253 4f3e
000000a0: 1c0a 653d 051c ce3e 8786 893e 031f 023d
000000b0: 0140 e93e 2b79 9a3d 29bf 283e fa0e 053d
000000c0: 37e3 14bd 9fc3 003e 477d 413d 975b b8bd
000000d0: 23c0 b43e ae13 a53e fd60 dd3d e32d 103b
000000e0: 45a5 b9bc 0f60 903e 49de ea3d ded8 093e
000000f0: 2d3a 6bbd 4fad 2f3e fb7d 3c3b 0f22 2f3e
00000100: 4609 52be 325e 913d 73e8 4fbe bcbd 233e
00000110: ed8e 83be 9331 58be 9f9c 2abf 09a5 60bd
00000120: 34b5 ce3c c1a8 833c 0130 b0bd 9601 bb3c
00000130: 5c88 c9bd 6ed0 02be 73d4 e83d deb0 8cbd
00000140: 0594 37bb 6903 bfbe 222b b9be 744f 50be
00000150: 03c2 87be ff42 d6bd 6904 62be 5dff e9bc
00000160: b708 8cbe 5a6f 7cbe 1e02 20be 7c7a 933e
00000170: 40a8 bb3d bd79 f13c 65a1 edbc 1b0c f33d
00000180: 5a78 af3d 3d67 81be 7588 64be 0587 98be
00000190: d577 06bf 84a2 5e3d 3446 943c 80fc 813d
000001a0: 723a 4abd 4122 63be 8220 89be 5fdb 3abe
000001b0: b5ad 99bb 1f7a 47be bbf5 0a3d 4493 93be
000001c0: 0a89 1e3d 7604 a53e 8cac bfbd 6a40 373e
000001d0: b272 683e 03b2 213c 528b 46bc 3b8a 5bbd
000001e0: d8dd cd3d f297 193c 5638 d5bd 9614 2cbd
000001f0: 28b9 4dbd 5aab 9a3d 2808 8d3d 1197 8fbe
00000200: 9c65 d03d 63d3 e1be defe 58bd 5bce 0dbf
00000210: 574d 56bf e78e 9c3c e3a6 e13e 7494 033e
00000220: 2623 af3d e413 7abe 45ac 56be bdf6 c7be
00000230: b877 3abc 0406 013d de80 eebe abc5 80bd
00000240: 5040 67bd a7f2 dcbb b3a5 9c3d 10fb 10bc
00000250: 802f 13bd 23cf 0abe 97d6 073e 513c 133e
00000260: 3b4e aa3d 2346 efbd 5a57 e93d 75ec 1ebd
00000270: 2032 6c3e 3a3e e23b 8569 733c 15bc 9ebe
00000280: 6bdd f63d 9e6a 10bf dc01 f0bd 6b01 38be
00000290: ffda b2be d76e 853e 71e8 69be c2d6 e03d
000002a0: dc9f 87bc 8e02 763c df0a 37be c6e5 04be
000002b0: 4a4c d9bc 1751 acbe 2763 d0be 446d 4b3e
000002c0: 99ed 8b3d b893 d4bd d28f e03e 41da af3e
000002d0: e72a 86be 95ca 10bd 11b7 773e 8437 5f3e
000002e0: e003 4cbe 81c1 93bd 3791 c23e e411 513d
000002f0: 4bb8 103f e688 32bd b481 afbd c121 58be
00000300: a5e6 8a3c 7cd1 49be b933 933d 5bac 223e
00000310: 6126 2dbf 73ab 17be 2c83 303d b33e 0fbf
00000320: 5227 a7bc 2a2e 50be aafb 4d3e 637c b63d
00000330: f135 e43d 485e 12be 6b52 9e3d 6aae 6bbe
00000340: 642f 4bbc 083a ff3d 1123 02bd 02d5 a1be
00000350: 4e08 693d 8221 b63d 3062 543c c203 2cbe
00000360: f342 49be c128 4b3d 340a 9b3d 2ada 1bbf
00000370: 7270 bfbe 4c3e 9a3d d5bb 063d 5955 0bbd
00000380: 2b9f 0ebe f8f0 e13d 4265 63be a0a4 8d3e
00000390: 6291 98be 7c23 a13c 3c26 7dbd c134 b4bd
000003a0: fe81 a1bb d602 43be bcad 623e 5d66 373e
000003b0: 4a7b afba 68ac 0b3e cbe7 533d 89f5 72bd
000003c0: d4bf 8f3d b135 9fbd dd64 24be 667c 93be
000003d0: faa9 8ebd a4f6 4fbe f04a bdbd a454 cb3d
000003e0: 1f6e a5be 53c5 813d 72b6 9dbe b08a 103e
000003f0: c2a0 15bf 051f 2f3b 5a55 713b 01d7 4f3e
0.15635628 -0.29590657 0.16362578 -0.2516787 -0.011132723 0.09182424 0.083259985 0.16613865
0.00394093 0.2898268 -0.122918636 -0.25781554 -0.0034384564 -0.12564799 -0.5143452 0.038103137
0.08080868 0.41317353 0.2195941 0.20080338 0.29548573 0.10038404 -0.06207646 -0.08525251
0.00046639462 0.026918685 0.31263676 -0.071357824 0.088960625 0.22666301 0.029057506 0.22659053
-0.15958796 0.06491706 0.26910883 0.21047466 -0.23262812 -0.09161587 0.34082538 0.20246843
0.055917844 0.40255752 0.2686045 0.031767856 0.45556644 0.07542642 0.16479172 0.032484986
-0.0363495 0.12574624 0.047238614 -0.090018444 0.3530284 0.32241577 0.10809515 0.0022000007
-0.022661814 0.28198287 0.11468179 0.13461635 -0.057428528 0.17155956 0.0028761614 0.17102836
-0.2051135 0.070980445 -0.20303516 0.15990347 -0.2569498 -0.21112661 -0.66645235 -0.05484489
0.025232889 0.01607168 -0.08602906 0.022827905 -0.098404616 -0.12774822 0.113686465 -0.06869672
-0.002801181 -0.3730729 -0.3616572 -0.20342809 -0.26515207 -0.10461997 -0.22071995 -0.02856415
-0.273504 -0.24651852 -0.15625808 0.28804386 0.091629505 0.029476995 -0.029007623 0.11867543
0.08567877 -0.25274077 -0.22317679 -0.29790512 -0.525266 0.054354206 0.018099882 0.06346989
-0.049372144 -0.22181036 -0.26782614 -0.18247746 -0.004689897 -0.19480179 0.033925753 -0.28823292
0.03870491 0.32229966 -0.093590826 0.17895666 0.22700003 0.009869101 -0.0121181775 -0.053598624
0.10052079 0.0093746055 -0.10411136 -0.04201182 -0.050225407 0.07552214 0.06886321 -0.28044942
0.101756305 -0.44106588 -0.052977435 -0.55393 -0.8371176 0.01911111 0.44072637 0.12849599
0.08551626 -0.2442165 -0.20964153 -0.39055434 -0.011381082 0.031499878 -0.46582693 -0.06287702
-0.056457818 -0.0067427936 0.07648792 -0.00884892 -0.03593397 -0.13555579 0.13265453 0.14378478
0.083157025 -0.116832994 0.11393614 -0.03879972 0.23065996 0.0069043906 0.014856701 -0.3100287
0.12053951 -0.56412685 -0.11719105 -0.17969291 -0.34932706 0.26061127 -0.22842576 0.10978462
-0.01655572 0.0150152575 -0.1787524 -0.12978277 -0.026525635 -0.33655617 -0.40700647 0.198659
0.068324275 -0.103797376 0.43859726 0.34346202 -0.26204607 -0.035349447 0.24190928 0.21798521
-0.19923353 -0.07214642 0.38001415 0.051042452 0.5653121 -0.043587588 -0.08569661 -0.21106626
0.016955683 -0.19708818 0.071876 0.15886061 -0.67636687 -0.14811496 0.043093845 -0.55955046
-0.020404492 -0.2033011 0.20115533 0.08910444 0.11143101 -0.14293778 0.07730564 -0.23015752
-0.0124014355 0.124622405 -0.031771723 -0.31607825 0.056892686 0.0889311 0.012962863 -0.16798308
-0.19654445 0.049599413 0.075703055 -0.60879767 -0.37390476 0.075314134 0.032893974 -0.03401694
-0.13927905 0.11032289 -0.22206596 0.2766466 -0.29798418 0.01967024 -0.06180404 -0.087991245
-0.0049288264 -0.1904405 0.22136587 0.17910142 -0.0013388183 0.13639987 0.051734727 -0.05931619
0.0701901 -0.07773913 -0.16054101 -0.28805846 -0.06966014 -0.2030893 -0.09242809 0.09928253
-0.32310578 0.06336465 -0.30803257 0.14115405 -0.5844842 0.002672137 0.0036824555 0.20296861

sequential/dense/BiasAdd/ReadVariableOp f4 [128]
00000000: 2b1f 32bc e991 39bd 28bc ed3d 3468 1abc
00000010: 97f3 d2bd 6c94 c6bb 20da 07bd 3aa8 19bd
00000020: 9dbc 813e 797b 34bd f2f5 78bc 24b0 0abc
00000030: c7db 20bd 39c6 823e e4bc 1d3d f721 b2bc
00000040: 431d efbc 7423 2cbc 31e2 08bc 2021 e1bc
00000050: 60da 04bd 1d6d 07be 8cf1 6e3d 9460 fabb
00000060: 062c c83e a458 e53d 9028 cdbb f00b e1bc
00000070: 5c85 e33d 27e8 13bd 9694 723d ca87 1dbd
00000080: ff4c 32be 4ad0 d7bd 9fcf 83bc 7460 a1bc
00000090: 1934 67bc 2f62 7f3e 0b55 9d3c f31f 2e3e
000000a0: a078 a73e cd82 a43c d06c 07bd 276c edbd
000000b0: ac55 83bd 7107 76bd b17f 4dbc 9919 48bd
000000c0: 0cdd e0bb b8ad 423e 8065 813e 104e 0cbc
000000d0: d216 ccbc fa4d 863c 22ad 08bd 9a34 29bc
000000e0: 7649 11bc 76a3 51bb c58a c7bc ecb8 3bbc
000000f0: 86db 83bc 90af 1ebd 102f 9b3d 9670 843b
00000100: 0451 5bbc b371 c13e c512 51bb 1310 003e
00000110: b216 703e d394 bbbc e0ab 7d3e 9ff6 18bc
00000120: 4e97 8bbc b8b1 0abc a636 663e 9fe8 1fbd
00000130: cc69 f2bc d407 08bd 3450 f1bc 2482 353e
00000140: 0820 83bc 9c3f c53e baa1 e3bb a0af b3bc
00000150: f059 aa3d efec 0e3e 89d7 43bd c30e 16bd
00000160: 46bd 34bd b88b 2abd 218f fbbb f5b0 f73d
00000170: 917a f8bc 2d00 21bd d934 63be bade 5ebc
00000180: 4d7f 65bd cd6a 01bd ecff 833e 412e 4fbd
00000190: 821f 26bc 99b6 05be 3995 68bc fea5 643d
000001a0: 7941 2a3e 7efa b9bc 5697 b7bd e44d c4bd
000001b0: f16d 3f3d a744 23bc 68b8 80bd f124 953e
000001c0: 0981 773e b3da 98bc ac98 09bc 790a e4bc
000001d0: 18ba 8b3e 496d 8a3d 00ad 593e c68a 8e3e
000001e0: 74ab 36bd 8a67 12bc 1d6e 4fbe 336e 643d
000001f0: 8f99 0ebd 028a 403e 70a8 49bd 7ffc 593e
-0.010871689 -0.045305166 0.116081536 -0.009424258 -0.10300367 -0.0060601737 -0.033167005 -0.03751395
0.25339213 -0.044063065 -0.015195357 -0.008464847 -0.039272096 0.25541857 0.03851022 -0.021744711
-0.029188758 -0.0105065 -0.0083547095 -0.027481616 -0.03243482 -0.13225217 0.058335826 -0.0076409075
0.39096087 0.111985475 -0.006260939 -0.027471513 0.11109421 -0.03611007 0.059223734 -0.038459577
-0.17412184 -0.10537775 -0.016090212 -0.019699313 -0.014111542 0.24939798 0.01920559 0.17004375
0.32709217 0.020081902 -0.033062756 -0.11592894 -0.06412825 -0.06006569 -0.012542651 -0.048852537
-0.0068622883 0.19011581 0.2527275 -0.008563533 -0.024913225 0.016394604 -0.033368237 -0.010327483
-0.008867612 -0.00319883 -0.024358163 -0.011457663 -0.016095888 -0.03874165 0.07577336 0.0040417416
-0.013386015 0.37782058 -0.0031902057 0.12506132 0.23446158 -0.022898113 0.24772596 -0.009336143
-0.017039921 -0.008465223 0.22481784 -0.039040204 -0.029591464 -0.03321059 -0.02945719 0.17725426
-0.016006485 0.38525093 -0.0069467695 -0.02193433 0.083179355 0.1395757 -0.047812972 -0.03663517
-0.044125818 -0.041637152 -0.0076769744 0.12094299 -0.030331882 -0.03930681 -0.22188129 -0.013602907
-0.056029607 -0.031595994 0.2578119 -0.05058122 -0.010139348 -0.13057937 -0.014195734 0.055822365
0.16626538 -0.022702452 -0.08964412 -0.09585169 0.046735708 -0.009965098 -0.06285173 0.29129747
0.24170317 -0.018658971 -0.008398216 -0.027837025 0.27290416 0.06759126 0.212574 0.2784025
-0.044597104 -0.008935818 -0.20256849 0.055769157 -0.034814414 0.18802646 -0.0492329 0.21287726

sequential/dense_1/BiasAdd/ReadVariableOp f4 [142]
00000000: f442 a2be 6ae9 413e 8f06 aa3d 6a6e febb
00000010: e61b e4bc 5511 8a3d e48c 303e 7739 3cbe
00000020: e06c ab3d 83aa a63d 2b72 c93d 638e 123e
00000030: 748e 8e3d e188 6e3d 0d0e d7bd 5613 303e
00000040: 712d 5bbc a994 2a3d c358 f53d fcb3 643d
00000050: fd57 d23c e098 cab8 b909 4d3e 9442 cdbd
00000060: a650 0d3e 73c8 1bbd 2e83 ba3d aed2 723e
00000070: 3735 dabc 56bc 08be 9629 1abd 04c1 353e
00000080: f716 263e 9c60 42bd 04b9 67bd d4ef 423d
00000090: c82e 5a3d a9cb ed3c 6d9e 18be 92f9 d4bc
000000a0: 1936 1b3e 0e40 80be 4636 b93d 21e9 773b
000000b0: ac8c 85be 0297 663e b9d6 54bd 7bb1 553d
000000c0: 53cb 173d 5491 66bd f1b9 e93c 7ebd 933d
000000d0: ac87 b1bd e137 e1bd 797a 803d c495 f9bd
000000e0: e6de 9cbc 8e2e 003c 2de1 be3d 1a9e 3abd
000000f0: da8f f0bd 5701 8f3c 7f52 4e3d 0fe3 843d
00000100: c8b4 3439 d88d d3bd 112f 223b 8f49 7139
00000110: c1a3 ba3d 910a ac3d 439e 1a3e e0be a73c
00000120: aed8 83bc e40e 003e c5a8 f9bd 5918 553e
00000130: 3acc 47b9 94d4 603d 9a28 b93c 19c7 2d3c
00000140: 70e4 95bc a67a 1abe e74f b13d 2585 4b3d
00000150: 25f8 5abe c1f3 24be 28f5 423d a73f 063e
00000160: 33e1 3c3d eb07 e23d 59b2 af3e dd61 95bd
00000170: 748b 283e 02b3 4b3e f550 403e 53ed 263e
00000180: 7c7f 8bbc 3f18 e23d 12f1 083e 6ec7 8e3d
00000190: 8e85 f83d ca41 df3d e456 febd a83a a23d
000001a0: 27a9 053d 7673 77be e82a 82bc 50ef f8bd
000001b0: c106 993c 0814 3fbe 8c53 fc3a a057 39be
000001c0: 919f 483d 9fdf 11be aa5e b6ba d653 9cbc
000001d0: f30e d5bc 44ff dbbc 29a4 0bbe cf71 07bd
000001e0: e3ae c03d 83d1 9a3d fdce db3d 12c9 21bb
000001f0: b8ea 633d 0909 5f3d 5e00 7e3d ea35 b13d
00000200: 5799 81bd e1c5 22be 6d31 623c 89a4 093d
00000210: 1ed5 ffbd 702a 8cbe 7c5e 5fbe c833 8c3c
00000220: 6184 9bbd 4944 8c3d 1961 5abe 066b 683d
00000230: f808 983d d410 9dbd
-0.31691706 0.18936697 0.08302032 -0.007764627 -0.027845334 0.06741587 0.17241246 -0.18381296
0.08370376 0.08137991 0.09836229 0.14312129 0.069607645 0.058236007 -0.10500727 0.17194876
-0.013377533 0.04164568 0.119798206 0.05583571 0.025676722 -9.660586e-05 0.2002324 -0.100224644
0.13800296 -0.03803296 0.09107052 0.2371318 -0.026636703 -0.13353094 -0.037637316 0.17749411
0.16219698 -0.047455415 -0.05657293 0.047592 0.05326727 0.029027777 -0.14904185 -0.02599791
0.15157355 -0.2504887 0.09043555 0.0037828165 -0.26083887 0.22518542 -0.051962588 0.05217121
0.03705914 -0.05629094 0.028531047 0.07213877 -0.086684555 -0.10996986 0.0627336 -0.12186769
-0.019149255 0.0078235995 0.093202926 -0.045560934 -0.117461875 0.017456694 0.050371643 0.064886205
0.00017233484 -0.10329789 0.0024747292 0.00023010954 0.09113265 0.08400453 0.15099435 0.020476758
-0.016094532 0.1250568 -0.12190393 0.20810069 -0.00019054199 0.05489023 0.022602368 0.010606551
-0.018297404 -0.15085849 0.08657818 0.049687523 -0.21383722 -0.1610861 0.04759708 0.13110219
0.046113204 0.110366665 0.34315756 -0.072940566 0.16459447 0.19892505 0.18780883 0.1630147
-0.017028563 0.11039781 0.13373211 0.06971632 0.121348485 0.1090122 -0.12418917 0.07921344
0.03263202 -0.24165139 -0.0158896 -0.1215502 0.018679978 -0.18659985 0.0019250973 -0.18099833
0.0489803 -0.14245461 -0.001391371 -0.019082945 -0.026008105 -0.026855119 -0.13636841 -0.03306752
0.09408357 0.075594924 0.10732839 -0.0024686498 0.055643767 0.054451976 0.06201207 0.086528614
-0.063280754 -0.15895797 0.013805729 0.03360418 -0.12491821 -0.27376127 -0.21813387 0.017114535
-0.07593609 0.06848962 -0.21326102 0.05674269 0.07423586 -0.07669225

sequential/dense/MatMul f4 [128, 1600]
00000000: 0f6e 3b3d 4312 afba c6d7 2abd a5ae b93c
00000010: 485d 833b 2f4a dcbc ac07 95bd 9965 c03c
00000020: 94a5 d63c 8787 2d3d 9400 193c adfe b53a
00000030: d1fa 813c e910 48bd 20b9 0e3c ca7d a93c
00000040: f867 7cbc 700d 3e3d 890e 29bd 584e 24bd
00000050: fea3 073d ee59 2f3d 7cb5 1e3c 3b01 aa3a
00000060: 731a 08bd 6532 5ebd 9d02 4a3d 4136 67bd
00000070: 75f7 45bc 53a2 6a3c ea45 a33c 4028 fa3a
00000080: 68fb 54bc 7364 57bc 5bd2 343d 5661 57bc
00000090: 5110 51bd 1643 aabc 5a72 f7bc 5239 2ebd
000000a0: da76 d83c b267 ccbc 86da 1dbd 37bf 7cbc
000000b0: 5447 d53c 39d2 67bc 4d61 d93c a8e2 8cbd
000000c0: b509 6abd 72d7 e03c b9cc 123d 94b9 2b3d
000000d0: 3a67 b9bc 8f54 fdbc 84cd 73bd 12ab ff3c
000000e0: b75b 93bc ac0a 20bd fb2c 4ebd 0acc 303d
000000f0: 6028 0abd f306 413d 109a 2ebd f505 593d
00000100: 4843 d63b 2995 8e3c 1555 dbbc 74e4 0fbd
00000110: 9c14 4f3d ecb2 c0bc df7a 57bd a09c 44bd
00000120: b9c3 6dbd a47d 72bd e782 253d 36af 8fbd
00000130: e446 22bd f2d5 ce3c 2439 0abd ce4a 5f3c
00000140: dccf 523d c7cc 2bbd 9f61 9e3c 7c35 e3bb
00000150: c157 77bd f0fd 153d 03b0 51bd 7d2d a9bc
00000160: a55a 3bbd 624c 46bd 2e58 293d f51b 3d3c
00000170: 6819 8cbd 13bb 82bd 1003 23bb cabd a2bc
00000180: 68a9 a6bc 26f7 3dbc c8dc 62bd 85dd 7dbd
00000190: b105 ea3c aac9 67bd c41c f139 0059 81bb
000001a0: 51bb 80bd 7757 e53c 5781 263d 4705 6c3d
000001b0: c316 e33c 2823 8a3b cff0 57bc 3162 74bc
000001c0: 6c52 813c 7ef2 10bd 20bd 84bc 7ff3 93bb
000001d0: 2b39 1ebd eb36 1a3d 3800 e7bc 3b49 4d3c
000001e0: 7f86 02b9 c002 06bc 3d19 a7bc d22d 833d
000001f0: 58a9 813b 58fd bb3b 1bfc 89bc b01f 313b
00000200: 605d 11bc d069 8bbc 4cfd 3ebc 854c 153d
00000210: 711c 963c a9aa eb3c cf7d 043c e0ed a23c
00000220: f177 1d3d a12e d13c e9e1 b93b 0d9c 4ebd
00000230: 7e98 9b3c 3f77 ba3b 3819 b0bc 310e 7cbd
00000240: 8096 3a3c 2fe1 183c f373 013d bf24 1cbd
00000250: 64d1 d1bc 6497 87bc 6cb9 183c d719 58bd
00000260: 97d7 4dbc 2cc3 bebc d179 823d a70e f63b
00000270: 160a 5bbc 94ad a63c a21e 943c 4092 98ba
00000280: c95b de3c 852c 3e3c f7bb 8abd ccd9 043d
00000290: 9b42 233d 2411 67bd 1855 19bc 5ed7 10bd
000002a0: 6264 81bd f8f7 4c3b 90b4 85bd ce26 c43c
000002b0: 711f 4a3d a338 8f3c cdb6 abbc b073 ae3b
000002c0: 67a5 9c3b 8b7a 12bd 033a 0e3d f678 98bc
000002d0: edca 033c 6b26 34bd 73f8 993c 3ad8 053c
000002e0: b5bc 6d3c c29a 9b3c 8f34 00bd c6fb 33bd
000002f0: beaa ec3c bfae 59bd 66a0 8ebd 4860 08bc
00000300: 8604 99bc 3b87 753c 3642 3dbd 909e 8fbc
00000310: 317a e3bc 1352 c3ba 3b70 25bc 1717 e33c
00000320: 4b1e a53c 2bb2 9fbd b68f 52bd b3f4 db3c
00000330: f951 493d ef1e 81bd 6310 41bd f649 3ebd
00000340: 1bb3 2fbd 30ee 2d3d 8839 8739 804a 18bd
00000350: b715 13bd 9d4c 103d 1a16 4f3d 7938 cf3c
00000360: 209b adbc 871e ad3b 89a4 2e3d e952 c43c
00000370: e1e8 943c a913 26bd 90a2 273b 10f1 42bd
00000380: c44e 60bd df41 8b3c 3da7 85bd bbd9 b1bc
00000390: e85f d53c bd98 2cbd b9f7 aa3c 8522 0dbd
000003a0: 55a2 b13c 8353 0e3c 089e ae3c d43d 4fbd
000003b0: 860a 0c3d f97f 993c 91ac 263b 7d5b e3bc
000003c0: 0b90 173d ed7e 2c3d 3d23 d7bc 53f5 8abd
000003d0: 81bf 513c 7df4 193d 153a 4fbc 63a5 43bc
000003e0: 1b7e 17bd 5193 14bd 83e0 eb3c 944a d1bc
000003f0: a867 a63b a512 42bd 0d89 263d 5d36 22bd
0.045759257 -0.0013356883 -0.041709684 0.022666285 0.0040089227 -0.026890842 -0.07276854 0.023485946
0.026202 0.042365577 0.009338517 0.0013885103 0.015866669 -0.04884425 0.008711129 0.020689864
-0.015405647 0.046399534 -0.041273627 -0.040113777 0.03311538 0.042810373 0.009686824 0.0012970337
-0.03322835 -0.05424728 0.0493189 -0.056448225 -0.012082924 0.014320928 0.019930799 0.0019085482
-0.012999393 -0.013146508 0.044145923 -0.013145765 -0.05104095 -0.020783942 -0.030205894 -0.042535134
0.02642386 -0.02495179 -0.03853848 -0.015426449 0.026034988 -0.014149242 0.026535654 -0.06879169
-0.057138164 0.027446482 0.03583977 0.041925028 -0.02263223 -0.03092411 -0.059522167 0.031209502
-0.017988069 -0.039072677 -0.050335865 0.043163337 -0.03372991 0.047125768 -0.042627394 0.052984197
0.0065387823 0.01740511 -0.026773969 -0.03512998 0.050556764 -0.023522817 -0.052607413 -0.04800093
-0.058047984 -0.05920185 0.04040804 -0.07015841 -0.039618388 0.025248501 -0.0337459 0.013628675
0.05146776 -0.041943338 0.019333659 -0.006933866 -0.060386423 0.036619127 -0.05119325 -0.020651573
-0.045740742 -0.048412688 0.04134386 0.01154231 -0.06840783 -0.06383338 -0.0024873652 -0.01986589
-0.020344451 -0.011594569 -0.055386335 -0.061978836 0.028567167 -0.056588806 0.00045988534 -0.003947377
-0.06285728 0.027995808 0.04065069 0.05762222 0.027720815 0.0042156167 -0.013179972 -0.014915989
0.015786372 -0.03538751 -0.016203463 -0.004515111 -0.03862874 0.03765003 -0.028198346 0.012529667
-0.0001244787 -0.008179367 -0.020397777 0.06405224 0.003956955 0.005736988 -0.016843846 0.0027026944
-0.00887236 -0.017018229 -0.01165707 0.036449928 0.018324109 0.0287679 0.008086636 0.019888818
0.038444463 0.02553493 0.0056726825 -0.05044179 0.018993612 0.005690485 -0.0214964 -0.06153697
0.011388421 0.009331032 0.03160472 -0.03812098 -0.02561254 -0.01655168 0.009321552 -0.052759018
-0.012563608 -0.023286425 0.06370891 0.007509071 -0.013369104 0.02034644 0.018081013 -0.0011640266
0.027143376 0.011607294 -0.06774133 0.03243427 0.03985844 -0.05641283 -0.009358667 -0.03536164
-0.063179746 0.003127573 -0.0652858 0.023944285 0.04934639 0.017483061 -0.02096119 0.0053238496
0.0047804597 -0.035761397 0.034723293 -0.018612366 0.008043987 -0.04398195 0.018795228 0.008169228
0.014510323 0.018994693 -0.031300124 -0.04394128 0.02889001 -0.053145166 -0.06964187 -0.0083237365
-0.018678915 0.014985855 -0.04620572 -0.017531663 -0.027768226 -0.0014901779 -0.010097559 0.027720971
0.020156046 -0.07797655 -0.051406585 0.02685008 0.04915044 -0.06304728 -0.04713477 -0.046457253
-0.042895418 0.04246348 0.0002579207 -0.037180424 -0.03590938 0.035229314 0.050558187 0.025295483
-0.021192133 0.00528318 0.04263738 0.023965316 0.018177452 -0.040546093 0.0025579073 -0.047593176
-0.054762617 0.016999183 -0.06526039 -0.021710267 0.026046708 -0.04213785 0.020870076 -0.03445675
0.021683851 0.008686903 0.02131559 -0.050596073 0.034189723 0.01873778 0.0025432447 -0.027753586
0.037002604 0.042113233 -0.02626192 -0.06785073 0.012802006 0.037586678 -0.012648125 -0.011941287
-0.036985498 -0.036273304 0.028793579 -0.025548257 0.0050782748 -0.047381062 0.040658046 -0.039602626

sequential/dense_1/MatMul f4 [142, 128]
00000000: 7d2e cc3d e1c4 48bc ddea 59be 6f56 0b3e
00000010: 2620 0f3d 0464 393d bca6 9dbc 33d7 6a3c
00000020: 6992 93bc f558 48bd 6af1 fd3a 0614 873b
00000030: b235 ffbc 61f0 9c3c 05e5 c7be 1d5f 7ebd
00000040: 3512 87bd 85bc 75bd ccb1 97bd 8359 cc3d
00000050: 03ab 10be 4ddd 8bbd 71fc b23d dd37 6fbe
00000060: 78c3 83bd 6757 393e 4606 5f3d 71fa 14bd
00000070: 99f4 2bbf 8e51 c23d 5aa2 9b3d f536 533c
00000080: 343f 8fbe 5c2e b83d da30 a63d 6108 5a3e
00000090: 5cfe 49bc c494 9ebe e847 923e 376e 61bf
000000a0: 6d4e bbbf 34ee 9d3b 1b0e bfbd 83ac 7b3d
000000b0: 27a6 11be aebd 36bd 4736 c8bd 43ac c2bd
000000c0: 6344 a4bd 9c8e 0c3d 1d5b 4bbf 987d 8c3d
000000d0: 853f bb3d 1116 8f3d 048e d0bd 59de 1cbe
000000e0: 06f8 b6bd 01c5 edbd 438e 22bd 7733 2e3d
000000f0: 45a2 953d 2775 fcbd ead2 893d 2373 8fbe
00000100: 8281 b4bd c31b 81bd 12ca b9be 993c 9ebe
00000110: be87 d7be ee12 03be 2b32 b4be f5f8 03be
00000120: 0411 7b3d 50d5 06be 1cc1 aabe 4d42 953d
00000130: 5199 4bbd 6736 043e 9f24 f53c bb19 a8be
00000140: 7bb0 313d 47bb 2ebf 0fee ec3d a3d5 033d
00000150: ab39 08be e4fd 42bf 549e 69be 9e32 4bbc
00000160: e41f b0be a748 e3bd 28f9 023d d516 55bf
00000170: e5eb 323d 0cc9 423d 641b c8bd 16ed 953d
00000180: 7a10 76be c770 1fb9 9fdd fa3d c5d7 d9be
00000190: d2dc a03d 8655 cbbc ffd8 f63d 2bd7 b4be
000001a0: 0799 1bbf 6bcb ebbd 4e7b ab3d 6997 bc3d
000001b0: 02c1 c7be d205 053e 462f 1bbe 4711 c4be
000001c0: b8ab 70bf 79d1 70bc 3a09 d9bd 0053 033e
000001d0: a0b6 80be 41cd 1fbf b695 1c3e a9a1 20bf
000001e0: 2ea7 4bbe 4945 50bc 2155 e33e f69f 7c3d
000001f0: 7971 b13d cdb0 2b3e 3147 61bd 0716 8fbe
00000200: dbcf e43d 8d0e 25be 2e4d b0be 868f 9c3d
00000210: 2830 8e3c 63b0 d03d f860 18be f4d9 b63d
00000220: 9f73 90bf 011f 18be c223 ffbd d4c1 fbbc
00000230: 4309 913d 4a0f f83d 2c3a 87be 94c9 033e
00000240: 6dd5 483d 9305 ff3d 2d1d 98bd 7699 ddbb
00000250: 03c3 8b3b 47e7 fa3d 81a9 9dbf 4e70 88bf
00000260: 746d 393e 30b8 99be d12d 59bd 9985 0b3e
00000270: 34fc 58bf a404 b6bd 2654 133e 3d90 fa3d
00000280: a260 593c 86ae a43c 265a 113e 5326 87bd
00000290: 85ee d8bc f9cb 96be bf24 11be 746b 39bf
000002a0: 823b d6bf 50ba 86bf 8a3b 5a3d 60b5 91bd
000002b0: e307 003d 97ed 7e3e 388d 25be 8975 04be
000002c0: c209 463d 198f 3cbf f1a6 97ba 0a6a b1bd
000002d0: e26c 543d ba5c b8be cb1d 373d f5bd a8bd
000002e0: 8ba2 0b3e f3a8 663c a97b b03c 93d9 13be
000002f0: a5d5 1e3d 0696 adbc ef8b c73d 9ede 343e
00000300: 363c 63bd 5618 9abe 73aa 49be b494 59bd
00000310: 72dc 84be 113d 61bc 563e 68bf 965e a63b
00000320: 4d92 0a3d efea 0bbe 6594 e7be 3a5e 3cbe
00000330: 200c bb3c 6c90 e63c f5e2 14bd 8ab6 3fbf
00000340: 67a7 c1bd e1ca 9abf a092 043e 28b9 b63d
00000350: 8fa3 433e ede4 94be a163 e23d d3b8 fb3d
00000360: 2876 abbd ebed 083d c8e0 9a3d 89ed 583d
00000370: 3277 ecbd 20f3 c5bc eca8 8ebe 4a08 84bd
00000380: 0993 5fbf d9de 26be 512a 0e3e b0ae babe
00000390: 87d2 14be d56d 78be 48dc 35bd 1dce 833d
000003a0: 64e5 df3d 564f c1bd 0787 fbbd ff7c 813c
000003b0: c281 6fbf 44e2 4cbd b2a6 5dbd 61b8 fcbc
000003c0: c233 9b3c 4473 d6bd bcdf d9bc 3998 0bbe
000003d0: 317e 19bf 5093 c33d d845 0bbe f5f3 a23c
000003e0: 9bef 23be 0938 133e 8a89 c4bf 3ad7 e9bd
000003f0: 0693 d43d 5a64 89bc 40cd 7ebd 8d6a a13e
0.099698044 -0.012253971 -0.21281 0.1360719 0.03494277 0.045261398 -0.019244544 0.014333534
-0.01801415 -0.04891296 0.0019374315 0.00412226 -0.031153534 0.01915759 -0.39041916 -0.062102426
-0.065952696 -0.05999424 -0.07406959 0.099780105 -0.14127736 -0.06829319 0.087395556 -0.23361154
-0.06433767 0.18099748 0.054449342 -0.036371652 -0.671701 0.094882116 0.075993255 0.012891521
-0.27977908 0.08993217 0.081147864 0.21292259 -0.01232871 -0.30972874 0.28570485 -0.880588
-1.4633309 0.004819656 -0.09328862 0.061443817 -0.14223538 -0.044614486 -0.097759776 -0.095055126
-0.08020856 0.03431569 -0.794359 0.068598926 0.09142975 0.06986631 -0.10183337 -0.15319194
-0.089340255 -0.11609841 -0.039686453 0.04252955 0.07306341 -0.123270325 0.06729682 -0.2801753
-0.08813764 -0.06304123 -0.3628698 -0.30905607 -0.4209575 -0.1280019 -0.35194525 -0.12887938
0.061295524 -0.1316731 -0.33350456 0.072880365 -0.04970676 0.12911378 0.029924689 -0.3283213
0.043381196 -0.6825451 0.115688436 0.03218616 -0.13303249 -0.76168656 -0.22814304 -0.012402205
-0.3439933 -0.11097842 0.031975895 -0.83237964 0.043681998 0.047555014 -0.09770849 0.07320611
-0.24029723 -0.00015205434 0.12249302 -0.42547432 0.07854618 -0.024821054 0.120531075 -0.3532041
-0.60780376 -0.11513408 0.08373128 0.09208567 -0.3901444 0.12990502 -0.15154752 -0.38294432
-0.9401202 -0.01469838 -0.10597463 0.1282463 -0.25139332 -0.6242257 0.15291485 -0.62746674
-0.19887993 -0.012711831 0.44400886 0.06167599 0.08664221 0.16766663 -0.054999534 -0.27946493
0.11172458 -0.16118832 -0.34433883 0.076445624 0.017356947 0.10189893 -0.1488074 0.0892829
-1.1285285 -0.14855577 -0.12457992 -0.030732073 0.07081845 0.12112291 -0.2641157 0.12869865
0.049031664 0.12452235 -0.0742744 -0.0067626787 0.0042651906 0.12251144 -1.2317353 -1.0659273
0.1810816 -0.30023336 -0.05302221 0.13625182 -0.8475983 -0.08887604 0.14387569 0.122345425
0.013267668 0.02010275 0.14194545 -0.06599107 -0.026480922 -0.29452494 -0.14174174 -0.72429585
-1.673691 -1.0525608 0.053279437 -0.07114673 0.03125752 0.24895321 -0.16167152 -0.12935461
0.04834915 -0.7365585 -0.0011570138 -0.086628035 0.05186165 -0.36008245 0.044706147 -0.082393564
0.13636224 0.014078367 0.02154334 -0.14438467 0.038777966 -0.0211897 0.09743487 0.17663047
-0.055477343 -0.30096692 -0.19693927 -0.05312033 -0.25949436 -0.0137474695 -0.9072012 0.0050771935
0.03383093 -0.13663839 -0.45230404 -0.1839532 0.02283293 0.028145038 -0.036349256 -0.7488791
-0.094557576 -1.2093164 0.12946558 0.089220345 0.19105361 -0.29080907 0.11054159 0.12291112
-0.08372146 0.03343002 0.07562405 0.052960906 -0.11546172 -0.024163783 -0.27863252 -0.064468935
-0.8733373 -0.16295947 0.1388333 -0.364614 -0.14533435 -0.24260648 -0.04439953 0.06435797
0.10932425 -0.0943896 -0.12281614 0.015806673 -0.9355737 -0.05002047 -0.05411405 -0.030849637
0.018945578 -0.10471204 -0.026595943 -0.13632287 -0.5995818 0.09549582 -0.13600862 0.019891718
-0.16009371 0.14376844 -1.5354474 -0.11418004 0.10379605 -0.016771484 -0.06220746 0.31526604
